weights/weights_MOCA_1.pt (torch, 52845 bytes, 14 tensors)

baseModel.mlp1.layers.0.weight f4 [32, 20]
00000000: 8114 76bd 5fcb 373d c7cd 8fbc b997 e9bc
00000010: 72a4 463e 5f1e c23e dd94 19be 50af 3dbe
00000020: 9561 283e 4312 2cbc 362a 9f3c 74e9 abbe
00000030: f768 a63d 69f4 503c b72c 0f3e 03d7 793c
00000040: 6d5c 39bd 6b7b 383e d935 0b3d ba3d 84be
00000050: 38f1 943b a8e4 ccbd 0a8f 21be 3721 50bc
00000060: 4b4e a33d 05b3 09be 41a5 323e 7012 c8bd
00000070: 7e85 6f3e 9926 46bd 6344 4f3d 8c41 6d3d
00000080: e5c8 8f3e 8af8 a83d 77a5 d73d e1a0 c63e
00000090: 9cf3 6a3e c8b5 eebd 2cfc 3fbe 1753 adbd
000000a0: eb8e ad3c 43ca 15be bdb1 07be 29a0 613e
000000b0: d352 473e ff33 71be 0d9d d03c a9e6 a0bd
000000c0: 1e93 00be 719d bb3b 50d6 6d3d 150e 6abe
000000d0: 606a 4b3e b2c6 a6be 4fdc 2a3d 165c 913d
000000e0: d4ed 15be 99a0 b1bd ccb3 823e 0822 bebd
000000f0: 8e29 5cbe ae0f ed3c 4d12 fdbd e281 433e
00000100: 27fa 56be b226 a23d 4bcb 2b3e 0f69 1bbd
00000110: ca3b f43d ddec ea3d 1980 be3d a4bf 9b3e
00000120: 43ad 1abe 0c83 4bbd fe79 89bd d92f 093e
00000130: fce7 43bd 12f8 cdbe b0b3 0ebe fb4c 993e
00000140: 8ecf afbd 9f89 8d3e 6b65 c9bc 955f 05bb
00000150: 55ad f5bb cf2d 83bd 0e49 173e 3256 2f3c
00000160: ee7e 3bbe 0e1d 003d 51f2 77bd d57c bfbd
00000170: 5812 603e b899 fa3c 4146 83bd bfaf 5abd
00000180: 9c86 17be cf89 e0bc f631 c9bd ab77 50bc
00000190: bddb 18bd 07b0 40be 2c94 9c3d f653 d33d
000001a0: 06c6 3b3b 2b0a 0bbe 8c8c b3bc 91bd f63d
000001b0: 1a8a df3d ab25 ffba 5fa0 96bc 1798 f33d
000001c0: 8421 a1bd ed65 513d 9fdc 583e c484 643e
000001d0: 4db1 c9bd 3279 883e 7b77 613c 51fa b3bd
000001e0: bee7 babc 3ea2 07bb 96c4 3a3e 3355 8abe
000001f0: 2dec 113e e9d4 ecbd 5ac9 0a3e 605f 31be
00000200: c063 c63d 0c6d 0fbe 9ee4 123e 764f 183e
00000210: 9c30 f23d d8f4 80bd 5958 1f3e 7c95 26be
00000220: 2c40 b83d 68ba e03c 811c 7bbe 18c7 7d3d
00000230: 96c9 323e 8bba ab3d 76f2 b5bc 707f 29be
00000240: 939a a53d e52d 5d3e 9d2a aa3d 659c 0ebe
00000250: a61a 53be 765c c73c 517e c6bc 16d9 21be
00000260: ad18 f8bd f00f 85bd 38a5 2cbe 79fd da3c
00000270: c62a 07be ddda d0bd 1528 57be 6ba3 cd3c
00000280: 89fd 23bd 3504 99be edf6 febd 4ab1 a33d
00000290: a4f9 57be c7d2 18be c75f 3a3e a272 003e
000002a0: b72e 98bc d730 91bd 54ef cdbc 38d1 7ebe
000002b0: ef04 1f3e 31d8 803e d9e9 17bd f2df dabd
000002c0: 15df bcbd 4911 4bbd e606 fabc e16e 3f3e
000002d0: 52d3 72be 89a3 a83c 05fc 223e 7a45 14be
000002e0: 75cd 17be bbce ca3d 4a37 40bc c3af 00be
000002f0: a52e 9a3c d81b e43d c4d5 0f3e 702d 0bbe
00000300: a043 913e e0d2 1ebe fc25 a1be 9e99 71bd
00000310: 0fd5 35be ee3b 64bd 584c 743d 8230 48be
00000320: 53ce 32bd 7620 4abe 3f98 63be 6f09 48be
00000330: f7a4 2ebc a1f7 a53c ecd4 8cbd c957 2ebe
00000340: 6a4e 5c3e 5ac6 0bbe 7c0f 4c3d b290 643e
00000350: 36d4 44be a6bd 8b3c bc3a ebbd 64be 0f3e
00000360: 0d45 c3bd c230 febd d171 f2bd 08eb 22be
00000370: ed8d a6be 13ba 5abe b0af 92be 1915 a33c
00000380: 1bd6 463d 706a 10be cf09 40be 54a1 9abe
00000390: 1330 efbd 88e9 993e aec3 f43c 4c45 f0bd
000003a0: c808 23bd fe74 333e 7008 44be 6635 2dbe
000003b0: 9328 b83d 100f 7a3e 319f 32be ebf3 2bbe
000003c0: d98e 1a3e 41c9 b7bd 3076 353e 8c9b 6b3e
000003d0: 8433 3abd 0bda bf3d c45a 86be 184b 8f3d
000003e0: cc96 ce3c 55c4 373d 7df4 fdbc c5ce 20be
000003f0: 30f7 013e 8911 6abe f5ee 7b3d 137a 41be
-0.060078148 0.044871684 -0.017554177 -0.02851473 0.19398668 0.37913796 -0.14998193 -0.18523908
0.16443475 -0.010502401 0.019429307 -0.33576548 0.08125489 0.012753584 0.13981901 0.015249017
-0.04525416 0.1801583 0.0339869 -0.25828344 0.004545357 -0.1000455 -0.15777221 -0.012703232
0.079739176 -0.13447197 0.17445852 -0.09769142 0.23390767 -0.048376653 0.050602328 0.05792384
0.28082958 0.0825053 0.10529607 0.38794616 0.22944492 -0.11655766 -0.1874854 -0.08463114
0.021186313 -0.14627938 -0.13251396 0.22033753 0.19465189 -0.23554991 0.025465513 -0.07856495
-0.12556121 0.0057255556 0.058065712 -0.22856934 0.19864798 -0.32573467 0.04171401 0.07097642
-0.14641505 -0.0867321 0.255278 -0.09283835 -0.21500227 0.02893814 -0.12357006 0.19092515
-0.20993863 0.07917537 0.16776769 -0.03794199 0.11925466 0.11470959 0.093017764 0.30419648
-0.15105157 -0.049685523 -0.06712721 0.13397159 -0.04782866 -0.40228325 -0.13935733 0.29941544
-0.0858451 0.2764406 -0.024584493 -0.002035116 -0.0074974694 -0.06405222 0.14773962 0.010701703
-0.18310139 0.03127771 -0.060533825 -0.09349982 0.21881998 0.030590877 -0.06409884 -0.05339026
-0.14797443 -0.027409462 -0.098239824 -0.012723844 -0.037318934 -0.18817149 0.07645449 0.10318749
0.0028651967 -0.13578098 -0.021917604 0.12047876 0.10915013 -0.0019466182 -0.018387018 0.11894243
-0.07867721 0.051122595 0.2117791 0.22316271 -0.098482706 0.26654965 0.0137613965 -0.087879784
-0.022815581 -0.002069607 0.18239054 -0.27018127 0.1425025 -0.11564047 0.13553372 -0.17321539
0.096869946 -0.14006442 0.14345023 0.14874062 0.11825678 -0.062967 0.15561046 -0.16267961
0.08996615 0.027432635 -0.24522592 0.06195745 0.17459711 0.083851896 -0.022210341 -0.1655252
0.08086123 0.21599539 0.08308909 -0.13926847 -0.20615634 0.024336081 -0.024230154 -0.15805468
-0.121140815 -0.064971805 -0.16859901 0.026732193 -0.1319991 -0.10197995 -0.21011384 0.025102338
-0.04003671 -0.29886022 -0.12449441 0.079927996 -0.21091324 -0.14924155 0.18200599 0.12543729
-0.018576963 -0.070893936 -0.025138535 -0.24884498 0.15529226 0.2516494 -0.03708825 -0.106872454
-0.09222237 -0.04957703 -0.030520868 0.1869464 -0.23713425 0.020585792 0.1591645 -0.14479628
-0.1482447 0.09902712 -0.011731932 -0.12567048 0.01882107 0.11138123 0.14046389 -0.13591552
0.28371906 -0.1551013 -0.31474292 -0.05898439 -0.17757057 -0.055721216 0.05964312 -0.19549754
-0.043653797 -0.19738945 -0.22226046 -0.19534849 -0.010659448 0.02025968 -0.06876549 -0.17025675
0.21514288 -0.13649884 0.049819455 0.22320822 -0.19221577 0.017058205 -0.11485812 0.14037472
-0.09534655 -0.124116436 -0.11838115 -0.1590997 -0.32530156 -0.21360044 -0.28649664 0.019907521
0.04854403 -0.14103103 -0.18753742 -0.3020121 -0.11679091 0.30060983 0.029878464 -0.11731967
-0.039803296 0.17525098 -0.19143844 -0.16914901 0.08992114 0.24419808 -0.17443539 -0.16792266
0.15093555 -0.08973933 0.17720866 0.23008555 -0.045459285 0.0936776 -0.26241124 0.06996745
0.02521839 0.04486497 -0.03100037 -0.15703876 0.12691951 -0.22858252 0.061507184 -0.18894224

baseModel.mlp1.layers.0.bias f4 [32]
00000000: 9c7d dd3d d07d 10be 8eed bb3d 7f27 e5bc
00000010: c501 ab3e 642c 2dbe a93f f5bc 724b cd3d
00000020: 41ec 12be faaa 7e3e 7322 b8bd 4527 a3bd
00000030: 3c98 46bd 3322 213e 81ff dfbd afbe ccbd
00000040: f6e5 23bd b219 4bbd 7f6d d43d c92d 3abd
00000050: 051c 35bc b1c3 533e 386b 0a3e a153 d03d
00000060: 76ca a0bd 611f f23c ea6e bdbd a9ff 86bd
00000070: c027 47be 8046 863d 0800 bc3d 8128 743e
0.10814974 -0.14110494 0.09176169 -0.027972935 0.33399788 -0.16911465 -0.029937582 0.10024156
-0.14347936 0.2486991 -0.08990946 -0.079664744 -0.048485026 0.15735702 -0.109374054 -0.099973075
-0.04001423 -0.04958505 0.10372447 -0.04545382 -0.011054044 0.20680119 0.13517463 0.10172201
-0.07851116 0.029555978 -0.09249671 -0.06591732 -0.19448757 0.065564156 0.091796935 0.23843576

baseModel.mlp1.layers.2.weight f4 [64, 32]
00000000: 8db1 e0bd 4fe0 553e e69b 2bbe a465 3a3d
00000010: b776 04be 5e7b 53bd 6101 d23d bca3 483d
00000020: a3a2 ec3d 3569 5f3d 20f7 d43d 92cc 7b3d
00000030: 8947 35bd b26c 87be 0dec f0bd 4957 0b3d
00000040: 1098 72bd a685 673e 982b 4dbe 67c1 273e
00000050: e336 4cbe e105 40bc 40c7 873d 6900 a0be
00000060: 21c9 403d e8ae ac3d ed86 523d 68d7 e93d
00000070: f8fc 86bd a75c 94bd 7428 2e3e 1f84 96bd
00000080: 6d54 b13c e353 27bc 3547 95be 3276 75bc
00000090: 908c 433e 8d20 e73d 65d9 c83d 882d ebbd
000000a0: 819b 3e3e 5f0a 333d 7fda 6ebe 3c32 2b3d
000000b0: cb05 8dbe 2125 1f3e 55e3 213d d8c9 e13d
000000c0: e3f0 a539 2bfb 013e a59a 683d f9cf a6bc
000000d0: 5b74 f3bc 17b2 81be 7ae1 543c 5784 0fbd
000000e0: 8b20 20be a722 373d 2031 e23c 7ed1 5abd
000000f0: 43db 6c3d 6913 06be 2a68 d2ba cd51 5f3d
00000100: eed2 50bd d4e4 193e 8da5 79bc 7d5a c0bc
00000110: 0ccc 613d 6c82 45be aa98 0b3e fa74 ab3d
00000120: f902 9b3d 9ceb 173e 9418 98bd 8b20 9bbd
00000130: 9807 5d3e 0bb0 00be 323e 7d3c d3fb f23d
00000140: b18e 2abe 8634 60be fe66 c33d 9d05 d8bd
00000150: 7164 3ebd 4c7a 7ebe 8782 053d 016d c73d
00000160: afc5 3ebe d77f 353a a153 acbd fa43 dc3d
00000170: f3ff b93d 917e b43b d100 8fbd 1b19 793c
00000180: 820b 2f3d 3294 dcbc c734 0bbe 65d6 cc3d
00000190: cf8d 4bbd 960c 603b 3584 b73c 6d02 b43d
000001a0: 6b35 19be e83c e53d 8019 5f3b 49e4 f43d
000001b0: 25fa 3abe 6dad 663e fcff 05bd 41ef 47be
000001c0: 4768 12be c3c0 2ebe 3503 4e3d 3eaf 6bbd
000001d0: 0f54 52be db77 323e f993 403e dac3 82be
000001e0: bdb1 2a3e a3bd debd 7188 d03d 3d29 233b
000001f0: 035e 8c3c ce94 6cbd df41 3c3e 2a10 10be
00000200: ab39 7a3e 0eb8 913d ae44 4f3e 2cd2 31be
00000210: cba0 fbbd dd08 17be 0a64 f1bd 3009 8dbd
00000220: d01b 8abb 8405 173e 4c6d 2c3e fba3 4e3e
00000230: 1301 903d 1110 1fbd a6ad cbbd 2a7b 6bbd
00000240: b072 fcbd 7919 13bd 1cfc 433c 7347 643c
00000250: a026 1c3e da08 55bb 527d 78bc 0158 53bd
00000260: 0baa c33d bd6e d83d 739e f93d 314e 07bc
00000270: 2f6a cbbc 18e1 1fbe 688a 9a3d f833 1d3e
00000280: 3a14 4e3e 39ce 443e 424f 2a3d 22cf 73be
00000290: f1ec 75be 7b77 0bbe 602f bfbd 871e 3e3d
000002a0: 8d8e 4b3e 4183 f1bd bf52 6a3d d701 a2bd
000002b0: d76a a33c 3ac5 76bd 2b35 783e 096c 033e
000002c0: e955 0b3e 775d 11be f220 2bbe 76d2 573c
000002d0: e65c 823b 17bd 00be 4735 b5bd f38a 963b
000002e0: cbe7 33be f4e6 a9be cea8 90be 5f23 1e3d
000002f0: 6699 18be 4346 b03d e860 2bbd 8a8d fcbd
00000300: 162b 123d dfdc 1f3e a621 4b3e e5bf 3cbd
00000310: 1e92 4d3e 2a91 303e 25a4 ef3d aa54 f0bd
00000320: 10e2 d7bd 67d1 82be 6200 9dbc b0d3 febd
00000330: cd0c 8bbc e168 d43d f5b8 053e 5ca1 123e
00000340: 9381 bbbd a6cd 253e 36f4 a33d 20b3 c23c
00000350: b8c3 463e 3465 83be 2453 12be b8d0 24be
00000360: 5422 97bd e2af 73be 8e02 b7bd b3aa 8cbe
00000370: b46a 2ebe dae8 833d 76b6 10bd 7059 103d
00000380: d3ab be3d e5c9 063d eead 01be 51a9 a4bb
00000390: e8ed abbd 1f8c 293d f348 27be ce6c e23b
000003a0: ac6e c43d 254d 1b3e e445 5ebe 8811 c33d
000003b0: 6d7d 2d3b 96b2 d63d fd7a 94bd eeaf 89be
000003c0: 6526 083e 6fe7 52bd 0373 1cbd dd69 343d
000003d0: 4818 db3d 7110 83be 614d 323e 1d6a 1f3e
000003e0: ee55 a63d f06c bebb d266 43be 79bd c7bd
000003f0: 1d85 083e 831a b5bd 322d 0bbc b9bd 97bd
-0.10971365 0.20886348 -0.1675869 0.04550709 -0.12935911 -0.051631324 0.10254169 0.048984274
0.11554458 0.054543693 0.10398698 0.06147439 -0.044257674 -0.26450115 -0.11763773 0.03401879
-0.05922705 0.22609577 -0.20036161 0.16382371 -0.19942813 -0.011720152 0.06629801 -0.31250313
0.04706681 0.08431798 0.051398207 0.114180386 -0.06591219 -0.072442345 0.17007619 -0.07349419
0.021646703 -0.010212871 -0.2915589 -0.014981793 0.19096589 0.112855054 0.0980709 -0.11483294
0.18614008 0.043711063 -0.23325537 0.041795954 -0.27543482 0.15541507 0.03952344 0.11024827
0.00031650727 0.12693469 0.056788106 -0.020362841 -0.029718569 -0.25331184 0.012993211 -0.03503832
-0.15637414 0.04471078 0.027611315 -0.053422444 0.05782629 -0.13093342 -0.0016052772 0.05452137
-0.05098241 0.15028697 -0.015237224 -0.023480648 0.055126235 -0.19288033 0.13632455 0.08371921
0.07568926 0.14835972 -0.07426563 -0.075745665 0.21584928 -0.12567155 0.015456723 0.11864438
-0.16655995 -0.21895036 0.095411286 -0.10547946 -0.046482507 -0.2485134 0.032595184 0.09737588
-0.18630098 0.00069236517 -0.084143884 0.10755153 0.090820216 0.005508252 -0.069825776 0.0152037395
0.042735584 -0.026926134 -0.13594352 0.1000183 -0.049695786 0.003418719 0.022401908 0.08789525
-0.14961784 0.111932576 0.0034042299 0.119576044 -0.18259485 0.22527094 -0.03271483 -0.19524862
-0.14297591 -0.1706572 0.050296027 -0.05754017 -0.20539878 0.17428534 0.18806447 -0.25540048
0.16669364 -0.10876014 0.10182274 0.0024896406 0.017134672 -0.0577591 0.18384503 -0.14068666
0.24436061 0.07115184 0.20241043 -0.1736533 -0.12286528 -0.14749475 -0.11786659 -0.06886518
-0.0042147413 0.14748198 0.16838568 0.20179741 0.07031455 -0.03883368 -0.0994523 -0.057490505
-0.123265624 -0.035912964 0.011961963 0.01393305 0.1524911 -0.0032506497 -0.015166597 -0.0515976
0.095539175 0.10567997 0.12188425 -0.008258388 -0.024830906 -0.1561321 0.0754593 0.15351856
0.20124903 0.19219293 0.041579492 -0.23809484 -0.24016167 -0.13619797 -0.09335208 0.046415832
0.19878598 -0.11792613 0.05720782 -0.07910507 0.019948406 -0.060246684 0.24239032 0.12834181
0.13606991 -0.1419581 -0.16711786 0.013172736 0.0039783595 -0.12572132 -0.088480525 0.0045942008
-0.17568891 -0.33184016 -0.28253788 0.03860795 -0.14902267 0.08607151 -0.041840464 -0.12331684
0.03568562 0.156116 0.19837055 -0.046081442 0.2007527 0.17242876 0.1170123 -0.117348984
-0.10541165 -0.25550386 -0.019165222 -0.1244272 -0.016973877 0.103715666 0.13058837 0.14319366
-0.09155574 0.1619173 0.08005564 0.023767054 0.19410598 -0.2566315 -0.14289528 -0.16095245
-0.073795944 -0.23797563 -0.08936034 -0.27473983 -0.17032892 0.06440897 -0.03533026 0.035241544
0.093101166 0.032907385 -0.12664005 -0.005025067 -0.083949864 0.041393396 -0.16336422 0.006909943
0.095914215 0.15166147 -0.21706349 0.09524828 0.0026472465 0.10483281 -0.07250021 -0.26892036
0.13295896 -0.051490244 -0.03819562 0.04404627 0.10697991 -0.2559848 0.1741233 0.15567823
0.081218585 -0.005811326 -0.19082192 -0.09752936 0.13332029 -0.08842947 -0.008494662 -0.074092336

baseModel.mlp1.layers.2.bias f4 [64]
00000000: 864f d8bd d228 f33d be44 e1bd f892 50bb
00000010: 925d 5abd 244d 4cbd c060 88bd f7f9 e93d
00000020: 8414 b53d 0298 823e f6a7 fcbd b28c dfbd
00000030: 54c1 2a3e 2b20 2e3e f2f2 4bbd 2bac 37bd
00000040: 86c2 03be 28df 563e 8c64 453e e887 94bd
00000050: 29cc 713e 1dbc 3a3e dcad d2bd 64c5 5cbd
00000060: 6932 4e3e 0f80 c9bd ce93 3c3d 0f90 0b3e
00000070: 4677 5d3e cd7b b4bd e2a9 153e b5e5 9d3d
00000080: 715b d53d 2887 213e dd1a 44be 7f9e 1ebe
00000090: 870d 0dbe 15e9 313d e9ec 343e 610a 923d
000000a0: c367 3d3d 5669 163e f228 813e 018e 4cbd
000000b0: 4538 ffbd d587 14bd a847 fe3c f9f1 4e3e
000000c0: ee02 63bd 35d5 083e d903 243e 1da5 183e
000000d0: c664 0a3d 793e d2ba 0b21 ca3d 861f dfbc
000000e0: e99a 0cbe daf4 b6bd 6f52 e1bc 1d18 2bbc
000000f0: b20f a3bd 0b70 603e 1d63 aa3c e557 153e
-0.10562043 0.1187302 -0.1099944 -0.0031825881 -0.05331189 -0.049878255 -0.066590786 0.1142463
0.08841804 0.25506598 -0.123367235 -0.109155074 0.16675311 0.17004459 -0.049792238 -0.044841927
-0.12867174 0.20983565 0.19276637 -0.072524846 0.23613037 0.18235822 -0.10287067 -0.053899184
0.20136417 -0.09838878 0.046039395 0.13629173 0.2162753 -0.088126756 0.14615586 0.07709829
0.10417832 0.15774214 -0.19150873 -0.15490149 -0.13774692 0.043435175 0.17668499 0.07130886
0.046241533 0.1468862 0.2522655 -0.049940113 -0.124619044 -0.036262352 0.031040028 0.20209493
-0.055422716 0.13362582 0.16017093 0.14906736 0.03378751 -0.0016040347 0.09869584 -0.027236711
-0.13730969 -0.089334205 -0.027505128 -0.010442761 -0.07961978 0.21917741 0.020799214 0.1458431

baseModel.mlp1.layers.4.weight f4 [32, 64]
00000000: d992 05be ef9d f53c 366c 0d3d becb 243c
00000010: 916e d43d d003 92bd 10e3 92bd 258f 603d
00000020: 5956 023d 1510 a93c 715d 1e3d a449 c23c
00000030: c80b d8bd 1721 f83c d1e9 0abe 40d9 093d
00000040: 491c f7bd 0e3e 89bd 60b9 4dbd d555 72bd
00000050: c68f 27bd 58c1 313c 63be 543e f5c8 4a3e
00000060: 2d3e 84bd 3443 2b3d 5a20 173e 776e d8bd
00000070: b845 173e 4c55 133d a8c7 d63c 1911 553d
00000080: 28cd 193e 264f cbbd df33 173d 4eaa a4bd
00000090: 8322 e8bd 187d b83d 66d9 553d 4648 073e
000000a0: 7472 953d 6f12 18be 868b 063e 4092 dcbd
000000b0: 3cc1 ea3c c40a 1bbe 1f3a 233e 7416 f23d
000000c0: 9cb9 0cbb 487b db3c f1d2 9ebb afd2 64bd
000000d0: 0e34 5f3d 6aee 193e 2a71 573d 016b b0bd
000000e0: 755e 063e c6b1 233e e055 793e d396 a8bc
000000f0: 15ba acbd bc2b b8bd 0f40 393e dd86 9fbd
00000100: 597a 23bd ae0d fabd e093 373c 30a0 ddba
00000110: 058e 99bd be42 f63d 197b b13b d00e dcbd
00000120: eb61 ec3d 7cb1 303e 1ba1 56bd 0bc3 1fbe
00000130: 9584 063d dd73 28be cef8 c33c 6d41 46bd
00000140: 1f38 2bbe dae6 02be b824 ae3d a418 6b3d
00000150: 0758 edbd c770 2cbd 265e 053e d267 58be
00000160: 0f59 b8bd 63b9 833d 92fe acbd 44cd 58bd
00000170: 5c89 dcbc 8111 b63c e202 e83d 92e7 833d
00000180: 8116 01bd b929 823d a5c0 ecbc 1388 91bd
00000190: b279 17bc c31d 563e 12bf 273b 511b b3bc
000001a0: e52d 38bd 1299 fdbd d14f 233d 8d44 06bd
000001b0: 7c41 ffbd 2a54 9f3d 8500 083e 1cac b53d
000001c0: 7325 13be 2c19 dabd 8993 8dbd 4e96 22be
000001d0: f667 dbbd 287b 23be 61c8 80bc 3de6 89bc
000001e0: 0a83 dbbc 7647 7c3c d26b 173e 2b0f 3e3e
000001f0: 299d 30bc cb7b 8e3d bbb0 86bd 95e6 e0bd
00000200: 9382 82bd 0b4d 78bd e459 143e 6608 0c3d
00000210: c251 fabc 29ce 1bbd 058b 893d d66c 97bd
00000220: 0dd8 b73d c4bc 08be c6b7 8bbb 9a31 c2bd
00000230: e673 09bd 1e78 b1bd c944 03be bc31 593d
00000240: 78ac 12be af39 ac3d 5a05 bfbd ba88 49bd
00000250: a2a0 a8bd 2206 45bb 3069 f63d 4eb0 dc3d
00000260: 6aee 053c 2769 b9bd f22e dabc 0a0a 00be
00000270: 9fe3 df3d 7dbd 113e d3db 0dbe 207e 873d
00000280: a1fd 2abd 85ab dfbd 5bbe a13c 3ff8 223e
00000290: 0aa4 3fbd cb47 abbd d11a 2fbc 7181 ae3d
000002a0: 71e0 04be d7b8 ff3c b422 9b3c 32ad 493d
000002b0: 1777 cbbc 190a 0dbe 97ca 8fbd 26ec b1bd
000002c0: 79cc 9bbd 1419 c6bc 4881 2dbe fb37 10be
000002d0: e1a9 ddbd 872d a8bd d20f 983d e21d 553d
000002e0: 096b 00bb c117 67bd 18ed a8bd 09f7 633d
000002f0: 0846 9f3d c46e 10be 6f99 2fbe 683f d73b
00000300: e51b 70bc a1fc 7639 8670 8cbd e984 9dbb
00000310: 5c96 a43d 6fd9 4dbe d770 153e d6d8 a5bd
00000320: aa8a dd3d 27f2 403d d5be 023e f9f4 85be
00000330: d372 0c3d 351b 7fbd 48d8 45be 88d8 633a
00000340: c188 fbbd 7e1b 56bb c288 183d 2a85 463c
00000350: ada7 c93c daa7 debd cc34 2cbd ed3d 95bd
00000360: 1b14 eb3d 2133 843e 789f 393d 7b4f 0a3e
00000370: 470f e63c 5e98 3c3e 5dc7 cfbd 2cd1 7fbd
00000380: 8f50 5a3d 9b21 cfbd 67b7 0e3d beac b73c
00000390: cf94 89bd 6663 d2bd ce4a f7bd 754c 32be
000003a0: df9c 5d3d ec5a 7abd 4f28 0abe 86dc ff3d
000003b0: 57dd b13d 3715 1abe eb7f 7e3e 24f5 713d
000003c0: 05bc 22be d442 aabd 84de e8bd 649a 003e
000003d0: 7c21 693d f06c 9f3d d49b 87be 9f0b 403c
000003e0: c56d ec3d afa5 933e c22b 753c d99a 653e
000003f0: 1b28 b53c 411b c9ba a4d8 383e 83e6 34bd
-0.13044299 0.029982535 0.034527026 0.010058342 0.10372651 -0.071296334 -0.07172215 0.054824013
0.03182063 0.020637551 0.03866333 0.023716755 -0.10549122 0.030289216 -0.13565756 0.03365445
-0.12065942 -0.06701289 -0.050225616 -0.059163887 -0.040908597 0.010849319 0.20775752 0.19803222
-0.064571716 0.041812137 0.14758435 -0.105679445 0.1477269 0.035970017 0.02621825 0.05201826
0.15019667 -0.09927206 0.036914703 -0.080402955 -0.113347076 0.09008235 0.05220928 0.13211164
0.07297221 -0.14850782 0.13139161 -0.107700825 0.028656594 -0.15140826 0.1594014 0.11820689
-0.0021472936 0.026792184 -0.0048469235 -0.055864986 0.054493003 0.15032354 0.052598156 -0.086141594
0.1312197 0.15985784 0.24349165 -0.020579731 -0.0843393 -0.08992717 0.18090843 -0.07789395
-0.0399116 -0.122096404 0.01120469 -0.0016908702 -0.07497791 0.12024449 0.0054162857 -0.10745013
0.11542114 0.17255205 -0.052399736 -0.15601747 0.032841284 -0.16450448 0.02392235 -0.04840224
-0.16720627 -0.12783375 0.08503097 0.057396546 -0.115890555 -0.04209974 0.13024196 -0.21133354
-0.090013616 0.06431844 -0.08446993 -0.05293013 -0.026920967 0.022225143 0.11328675 0.06440653
-0.031515602 0.06355614 -0.028900454 -0.07106032 -0.009245323 0.2090979 0.0025596065 -0.021863611
-0.044965643 -0.123827115 0.03987104 -0.03278022 -0.12463662 0.07779725 0.13281448 0.08870718
-0.14369754 -0.106493324 -0.06912906 -0.15877649 -0.10713188 -0.15964949 -0.015720548 -0.016833419
-0.026795883 0.015397897 0.14787224 0.18560474 -0.010779657 0.069572054 -0.065766774 -0.1098148
-0.06372561 -0.06062035 0.14487416 0.034187697 -0.030556563 -0.038038407 0.06715969 -0.07393806
0.08976755 -0.13353258 -0.004263851 -0.09482117 -0.033557795 -0.08665489 -0.12819208 0.053025946
-0.14323604 0.0840944 -0.093271926 -0.04920266 -0.08233763 -0.003006347 0.12031782 0.10775815
0.008174518 -0.09053259 -0.026633713 -0.1250383 0.10932087 0.1423244 -0.13853388 0.06615853
-0.041745786 -0.10921387 0.019744089 0.15915011 -0.0467873 -0.08363303 -0.010687546 0.08520783
-0.12976243 0.031216068 0.018937446 0.049237438 -0.02483706 -0.13773383 -0.07021063 -0.0868762
-0.076073594 -0.02418188 -0.16943848 -0.14083855 -0.108234175 -0.08211809 0.074248925 0.05203045
-0.0019595048 -0.056419138 -0.08248347 0.055655513 0.07777029 -0.14104754 -0.17148374 0.006568838
-0.014655088 0.000235545 -0.068574 -0.004807104 0.08036491 -0.20102476 0.14593826 -0.08097999
0.10817464 0.047105934 0.12768109 -0.26163462 0.034289192 -0.062281806 -0.19320786 0.00086916285
-0.12281943 -0.0032670195 0.037239797 0.01211671 0.024616087 -0.10871859 -0.04204254 -0.07287202
0.11478444 0.25820258 0.045318097 0.13506882 0.028083457 0.18417498 -0.101454474 -0.06245534
0.053299483 -0.101138316 0.034842875 0.022421237 -0.06717836 -0.10272865 -0.12074815 -0.17411979
0.054104682 -0.061121866 -0.13491939 0.124932334 0.08684795 -0.15047155 0.24853484 0.059071675
-0.15892036 -0.08313528 -0.113705665 0.12558895 0.0569167 0.0778445 -0.26486075 0.011721521
0.115443744 0.28837344 0.014964046 0.22422351 0.02211385 -0.0015343205 0.18051392 -0.044165146

baseModel.mlp1.layers.4.bias f4 [32]
00000000: faa4 113e 5c27 fcbd 1b35 23be de38 00be
00000010: 2688 18be 07c1 5f3c b5ae cf3d f44b e9bc
00000020: 19de 353d ef64 2fbd dd13 0f3a 8426 043e
00000030: 407c 61be 102e 293e f20b 68bd 9e2d 0f3e
00000040: 8c35 c6bd cfb6 42be dac2 b43d 7bdf 5b3d
00000050: 0727 53be 811b 81bd 7dd3 11be 6a2a 05bd
00000060: a3b1 a73d cfea 0f3c a993 c53d dd73 e0bd
00000070: e32f 37be a5f2 46bd 14a9 753c 4d53 debd
0.1422309 -0.12312195 -0.15938227 -0.12521693 -0.14895687 0.013656861 0.101407446 -0.0284786
0.044401262 -0.042820867 0.0005457977 0.12905318 -0.22020054 0.16521478 -0.056652017 0.13982245
-0.09678182 -0.19015048 0.088262275 0.053679924 -0.20620357 -0.06304074 -0.14240833 -0.032511152
0.081881784 0.00878401 0.096473046 -0.10959599 -0.17889361 -0.048571248 0.014993925 -0.10855732

baseModel.mlp2.layers.0.weight f4 [32, 84]
00000000: c034 d2bc 37c5 41be 1f8f 6e3d 7371 87be
00000010: 91b3 d4bc 097b 0c3e 994b a4bd 1793 23be
00000020: c262 3a3d 2d27 b0bc 0ed9 6cbd 275d bd3d
00000030: d202 f5bd e489 8c3e ad15 17be fc95 4abd
00000040: 9cb8 ee3d b410 b53d b160 29be 027c 56bd
00000050: b786 3f3d 31b9 93bd 2d20 e43d 2ce5 14be
00000060: 9773 5e3d 9941 a3bd 444a a83c 9a9d 91bd
00000070: e551 08bb 27a0 2cbc c020 81bc cad7 bfbd
00000080: fb4a a2bd d48c 2d3d 8eb8 303d 91ed 583b
00000090: 26eb ab3d 0d52 17be 553d 7e3d bab7 febc
000000a0: 6b20 d53d bfbf 0a3e 3271 993d 06c1 3c3e
000000b0: f918 3e3e 0317 2bbd 0eaa 1ebe 5d95 283d
000000c0: cfc4 e53b 0778 733d 8b28 bdbd d92b a7bd
000000d0: 72e6 c03d 41dd 7abd 5d3d 493c 89cc 6a3c
000000e0: 4331 2bbd 0f88 e3bd b1ee 83b9 037e b43c
000000f0: 27e1 093d c3d2 6dbd bfa6 463d e937 b9bd
00000100: 5dc5 7bbd 3a6e 90bd e006 39bd 83be 83bd
00000110: 8a08 453d ceb6 6a3c aca1 7fbc ae6b da3d
00000120: 7dbf 05be 9243 afbd 5bc6 eabd 5a9e df3b
00000130: 1f4f 0fbe 4b05 c23d cfd7 a3bd 0a90 c33b
00000140: f470 69bb 4be0 f8bd 0083 9fbd 726f 463d
00000150: d867 fabd 3199 16bd c49d a0bd 5b59 c63c
00000160: 62bf d93c 75f1 393d 204c dfbd 257a 96be
00000170: a702 323e a28c fe3c 3027 bd3a 9658 193e
00000180: 3625 03be cba0 ba3d 0e3e 9abe b4b0 903d
00000190: 74c3 82bc d21b 0cbe e968 1cbe 8e92 983c
000001a0: 5b27 613d dd48 093e ca65 97bd 77c3 a8bc
000001b0: 197f 10bd e4b3 0f3e 001b eb3d 7c2b cabd
000001c0: f59a 133e 6b31 a2bd abd5 d2bd 294c 673c
000001d0: 2a56 373c 8f10 fdbd 4ab5 7c3c 3aaf 3cbb
000001e0: 4590 343d c0c1 ab3d 99f8 16bd a666 2b3d
000001f0: 6d5b 23bd b7cb 72bd 8e4a 073c fc18 193e
00000200: a1e1 b03c 1e7c 7ebc 472b 04bd fd98 8d3c
00000210: 2d0f 2ebb 801e aabd 6a07 4fbc 4457 be3d
00000220: bd8c aabd c326 b0bd a6dc c93c 09fd d7bd
00000230: ccdf 963d 75d0 97bd ab7a e7bc a80a aa3c
00000240: 07eb f1bd c606 89bc b7d8 323e 4e7b ecbb
00000250: a01d 223e d596 8b3d 42a1 93bd 0e06 853d
00000260: d05b 24be 8053 113d 5bb2 d5bd 2b17 cd3c
00000270: 4c5f 26bd ce20 643d 8c6a bfbc be23 0bbe
00000280: 1495 12bc 2af9 a7bd 9163 113e 9cfc 583d
00000290: cb61 213d a98e b8bd 7ba8 45bd 3c7c 8ebb
000002a0: c6aa 90bd 5119 ec3d cd76 bd3c 7aa2 013e
000002b0: 6b7a 07be ba41 95bd ac88 79bd f1f5 d03d
000002c0: d784 80bd ff50 9fbd 7e40 2d3c c015 9a3d
000002d0: 895c cf3c 9169 28be 3a7b 593e bdcb 8d3d
000002e0: 06ae 38be 94c8 09bc b57d 763d 0e78 4a3e
000002f0: 77bc cabd be56 8ebd cfed 853d 6c32 863e
00000300: be5c f73c 0a14 973c 06df a93c 39d0 e9bc
00000310: 49d0 043e cf43 20bd 1639 963c e49c a9bd
00000320: 7f18 edbd 855b 2fbe d8db aebd 76f2 fa3c
00000330: cedb 1d3e d4d8 d23d 7549 d4bd 90c8 d3bd
00000340: 835c 123d 3ffe 1cbd 0c99 ec3c 6ad4 5b3b
00000350: 9963 14be b2a7 d2bd b53e 2b3d 6d95 7ebd
00000360: 413a 3ebc 5fc1 b7bc 7863 dd3c 67da 283e
00000370: 3a41 583d 1dde b03a f25b bc3d f61c b4be
00000380: 4868 7b3c 708b 8fbd ad99 e43d 62f1 91bd
00000390: 91d5 b2bd f42d 7cbc df7a 3d3d da1d eebb
000003a0: c2fa d53d be8f 643c b6b3 b6bd 6efc 86bc
000003b0: fc93 9bbd 09c2 ddbd 318b f2bc fb22 383c
000003c0: 2fa0 483d 11cd 323b c66c b13d 9388 c63c
000003d0: 4734 d83d 2341 a3bd 672e ca3d 8de8 133a
000003e0: eeb6 69bc e0b6 74bc d866 e63d b630 52be
000003f0: 58ca 1e3d 0371 61bd 661d 543d 8a49 dfbd
-0.025659919 -0.18922888 0.05824196 -0.26453742 -0.02596453 0.13718809 -0.080222316 -0.15974079
0.04550434 -0.021503055 -0.057824187 0.09246283 -0.119634286 0.27448952 -0.14754362 -0.049459442
0.11656305 0.088410765 -0.16540791 -0.052364357 0.046759333 -0.07213057 0.111389495 -0.14540547
0.054309454 -0.07971496 0.020543225 -0.07110138 -0.0020800766 -0.01053623 -0.015762687 -0.0936733
-0.07924458 0.042370632 0.043144755 0.0033100585 0.083944604 -0.14777394 0.06207021 -0.031093467
0.10406574 0.13549708 0.074922934 0.18433008 0.18564214 -0.041769993 -0.15494558 0.04115807
0.007011987 0.05944064 -0.092362486 -0.0816266 0.09418954 -0.06124616 0.012282697 0.014330992
-0.041795027 -0.111099355 -0.00025164106 0.022032743 0.033661988 -0.058062326 0.048498865 -0.09043867
-0.061467517 -0.07052274 -0.045172572 -0.064328216 0.048103847 0.014325811 -0.01560251 0.106650695
-0.13061328 -0.0855781 -0.114636146 0.006824297 -0.13995026 0.09473666 -0.080001466 0.0059680985
-0.0035620304 -0.121521555 -0.07788658 0.048446126 -0.12226838 -0.03676719 -0.078425914 0.02421253
0.026580516 0.045396287 -0.109031916 -0.29390064 0.17383824 0.031072918 0.0014431234 0.14975199
-0.12807164 0.091127 -0.3012547 0.070649534 -0.01596234 -0.13682488 -0.15274395 0.01862457
0.054969173 0.13406701 -0.073924616 -0.020601017 -0.03527746 0.14033467 0.11479759 -0.09871575
0.1441458 -0.07919582 -0.1029466 0.014117279 0.011189977 -0.12356674 0.015424082 -0.0028790967
0.0440829 0.08386564 -0.036858175 0.04184594 -0.039882112 -0.05927631 0.008257521 0.14950937
0.021591963 -0.0155325215 -0.032267835 0.017284865 -0.0026559338 -0.08306599 -0.012636045 0.09293988
-0.08327625 -0.08601143 0.024641346 -0.105463095 0.073669046 -0.07412807 -0.028256735 0.020757034
-0.11812406 -0.016726863 0.17465483 -0.0072168475 0.15831614 0.06815878 -0.07208492 0.064952955
-0.16050649 0.035480022 -0.10434409 0.025035461 -0.040618226 0.055695347 -0.023366235 -0.13587853
-0.008946676 -0.08201821 0.14198138 0.052975282 0.039399903 -0.09011585 -0.04825638 -0.004348306
-0.070638224 0.11528266 0.023127938 0.12659636 -0.13230292 -0.07287927 -0.060921356 0.102031596
-0.06275337 -0.07779121 0.010574458 0.0752368 0.025312679 -0.1644652 0.21238413 0.069236256
-0.18035135 -0.008409638 0.060178477 0.1977236 -0.09899228 -0.069501385 0.06539499 0.26210344
0.03019559 0.018442173 0.020736229 -0.028541671 0.1297008 -0.039127167 0.018337768 -0.08281878
-0.11576938 -0.17124756 -0.085380256 0.030633193 0.1541588 0.10295263 -0.10365573 -0.10340989
0.035732757 -0.038328405 0.028881572 0.0033543357 -0.14491118 -0.102858916 0.04180785 -0.062154222
-0.0116105685 -0.022431074 0.02702497 0.16489564 0.05279658 0.0013493929 0.09197225 -0.35178345
0.015344687 -0.070090175 0.11162124 -0.07126118 -0.08732141 -0.015391815 0.046259757 -0.007266742
0.10448219 0.013950286 -0.08920996 -0.01647779 -0.07596585 -0.10828025 -0.029607387 0.011238809
0.048980888 0.0027282874 0.08663325 0.024235046 0.10556846 -0.07971408 0.09872132 0.0005642258
-0.014264805 -0.014936179 0.11250085 -0.20526394 0.03876719 -0.055039417 0.05178585 -0.10902698

baseModel.mlp2.layers.0.bias f4 [32]
00000000: 7305 f03d 52d3 b8bd 6a54 89bd 0d46 aa3c
00000010: 0f26 87bc 4bc4 ce3d 3559 243e 80dc 063d
00000020: b464 c0bd 6506 283e 4dac 17be 2e01 993b
00000030: d994 9cbd 8c58 24bd 627f af3d 21a9 c9bd
00000040: 760a a13d fa15 fdba a69a 2dbd d1db 43be
00000050: 4d90 76bc 4f48 423d 6bea 813d a746 703d
00000060: 8ddd ce3b 9688 2bbc 3422 e2bd d4bd 54be
00000070: 6697 babd 09c2 b93d 77fa 57bd 3284 60bd
0.11719789 -0.09024681 -0.06705554 0.020785356 -0.01649764 0.10096034 0.16049655 0.03292513
-0.093942076 0.1640869 -0.14811821 0.00466933 -0.07645578 -0.040123507 0.08569218 -0.09846712
0.078633234 -0.0019308918 -0.042383812 -0.19126822 -0.015049052 0.04743224 0.0634354 0.05866113
0.006313032 -0.010469576 -0.1104168 -0.20775539 -0.09110908 0.090702124 -0.052729096 -0.05481357

baseModel.mlp2.layers.2.weight f4 [64, 32]
00000000: 17d2 61be 7288 223e d96d 59be 2346 5f3d
00000010: b342 44bd ac43 f7bd 23d5 dbbd 2ddf 973c
00000020: 317f aebd 6978 3d3d b8da eb3d 168e 193e
00000030: 7add 733d e7dc 67bd c194 efbd a8cd 24bd
00000040: ecc0 fabd f1fa 5b3e c5bb 0cbc fa30 d63d
00000050: 45f0 a93d 50fe e8bd 8421 0d3e 9066 173e
00000060: bdad 17be 4f12 7bbe 1a76 91be 6155 c53d
00000070: acfa 193e ea32 0b3d 75b1 11be eea4 cbbb
00000080: 8acd 073e 6f4f 773d 0182 23be 091a 523e
00000090: f94a 1cbb eaca 2abe 29fa 853d 85df 4bbe
000000a0: 0987 fdbd 5bbd 263e 7e9d cabd efe4 5ebe
000000b0: 7440 d4bd 6031 2bbe e282 0b3e 35de 6cbd
000000c0: afaa 51be 718c ea3d 5f92 4d3d e153 953e
000000d0: 8bd7 32be dd76 383d 495f c2bd 0bc1 0b3e
000000e0: f49c c5bd 582a 123e 351b a6bc 16a5 4ebe
000000f0: c395 403e 4c84 3c3d 5d71 623e 4e51 52bd
00000100: 862e 1fbe 88dd c33c df44 c8bd 2d71 593e
00000110: 18fc 35be 8b9f b8bd b015 dc3d 2d55 703d
00000120: 3869 143d da48 5a3c 8cde 52be 33de a83d
00000130: 9e0d 1e3d ad5c abbe 0c71 1ebe e531 58bc
00000140: 0ec8 d23d 3d82 733d 6357 883b c20d 87be
00000150: 640d f43c 74fa 52be dd41 7a3e 61fa 04be
00000160: dd34 23be 470d 8a39 16b7 f4bd 190c 1cbe
00000170: aebf e63b 653d 853c 94c8 aabe 56b4 1a3e
00000180: 9250 06be b2c2 e5bd f135 51be 0d51 26be
00000190: 6459 943e 3fc2 f23d ffc2 393e 1956 773e
000001a0: 8cd8 ee3d e688 a1bd 0956 d53d bb2f b4bd
000001b0: 1cb0 79be 0fa3 113e c3c0 553e 4921 ce3d
000001c0: 30c2 173e 2182 00be 4e45 7a3e ec17 243d
000001d0: 7923 a53c 2fa9 52bd f221 0d3e d44b 47be
000001e0: e14b 0ebe b42f 8b3d 5701 69bd 268c bcbd
000001f0: bead 5e3d 705f 3bbb b05c 75bd f0eb 003d
00000200: 0feb ffbd 5291 363e 1504 4d3e 8a78 05be
00000210: 9bfd d7bd 88f0 213d 3e4e ffbd 5277 19be
00000220: e274 83bd b621 bb3d e123 863c 517f c5bd
00000230: 0f6c f73d c206 2bbe 3671 363e 804d 8cbd
00000240: d33f 6b3d 85de 77bc 8a96 62be f367 503e
00000250: 1f65 e43d a96a 0bbe a02d 323e 46bd 183e
00000260: c1db 07be 3964 443e c683 e9bd 3cb2 05be
00000270: 5d97 083e 651a 343e 1739 303e 6f4d 293e
00000280: 4a1b 89bb c7c0 a4bd b4ff 953e 8df2 a43d
00000290: ce8f 88bd fb3d 293d 387d 19be 2655 3cbd
000002a0: 66de 5cbe 5add 203e 0661 f93d 3410 243e
000002b0: 9a73 0f3e 9947 d0bc f687 9e3d 42df b9bd
000002c0: 0565 243e 3245 8bbc 3afc e83d 76a7 623e
000002d0: f401 d23d 5efb 90be e244 d8bd 7d1c ffbc
000002e0: f897 213d 9cd1 873e 1905 23be 9768 b33d
000002f0: 3359 d83d a91e f9bd f10b ba3d 30ac f13d
00000300: 97bf 2fbe da88 cd3c 903c 41bb 5d14 dfbd
00000310: 0b0f 043e 574c 8bbd 502b 6abe 3ab1 92bd
00000320: 338c 06be 71f6 96bd 6e6c 3c3e 3425 483d
00000330: 5323 1dbc f513 6d3e fa9f 153e e6f3 ebbd
00000340: 854a ef3d c74d 113e 0af4 743d b8fa 1f3d
00000350: 5390 e7bd 822b 57bd f4b2 203e ab9a 9dbd
00000360: 48a6 0b3e 7594 f03d 0045 15be 57ba 953e
00000370: 7ae9 93be 87a5 a5bd d110 69be 7033 c4bd
00000380: 5ed9 d3ba e91e 7a3d 6de4 193e f930 833c
00000390: 4ffa 52bd 5764 8b3d 67f8 93bd 5794 fbbd
000003a0: f912 26be d43b 14be 3200 8a3d 3630 53be
000003b0: dbd8 723d 907c abbd c31e c2bc 0879 9ebd
000003c0: 8b16 fbbc 4cb5 fe3d 1982 d03d d78e 9abd
000003d0: 2688 73bd 5a25 cd3c e52c a2bd 9dc6 aabe
000003e0: 2853 15be 112b 593d 7267 0cbe b77f 023e
000003f0: 7b4b 7c3e a9d4 243e 299c f33d 1a31 4d3e
-0.22052799 0.15872362 -0.2123331 0.054510247 -0.04791517 -0.12073454 -0.10734012 0.018539036
-0.085203536 0.04625741 0.11516327 0.14995608 0.05953739 -0.056607153 -0.116982944 -0.04023519
-0.12243828 0.21482445 -0.00858969 0.1045856 0.08297781 -0.11376631 0.13782316 0.14785218
-0.1481237 -0.24518703 -0.28410417 0.09635425 0.1503703 0.033984102 -0.1422785 -0.0062147295
0.13262 0.06037849 -0.15967561 0.20517744 -0.0023848398 -0.16678968 0.06541855 -0.19909485
-0.123792715 0.16283171 -0.098933205 -0.21767019 -0.10363856 -0.16718054 0.13624147 -0.0578291
-0.20475267 0.11452568 0.05018842 0.29165557 -0.17465036 0.04503523 -0.094908305 0.13647859
-0.09649077 0.14273965 -0.020276645 -0.20180163 0.1880713 0.046024606 0.22113557 -0.05134707
-0.15545091 0.023909345 -0.09778761 0.2123458 -0.17771947 -0.090148054 0.10746324 0.05867498
0.036233157 0.013323033 -0.20592707 0.08245506 0.038587205 -0.33469144 -0.15472811 -0.0131954895
0.10292064 0.059450377 0.004160808 -0.26377684 0.029791541 -0.20603353 0.24439187 -0.12986137
-0.15938134 0.00026331304 -0.11948983 -0.1523899 0.007041893 0.016264627 -0.33356154 0.15107855
-0.13116673 -0.11218776 -0.20430733 -0.16241856 0.2897445 0.11853456 0.18140791 0.24153937
0.11662397 -0.078874394 0.104168005 -0.08798166 -0.24383587 0.14222358 0.20874314 0.100649424
0.1482017 -0.1254964 0.244405 0.040061876 0.020158516 -0.051430877 0.1378248 -0.1946252
-0.13896133 0.06796208 -0.056886043 -0.09206419 0.054364912 -0.002859082 -0.059902847 0.031475008
-0.12496006 0.17828873 0.20021088 -0.13034263 -0.10546418 0.03953603 -0.124660954 -0.14986923
-0.06418778 0.09137289 0.01637453 -0.09643424 0.120811574 -0.16701797 0.17816624 -0.068507195
0.057433914 -0.015128736 -0.22127739 0.20352153 0.111521 -0.13614906 0.17400217 0.14915952
-0.13267423 0.19178857 -0.11402087 -0.13056272 0.1333899 0.17588194 0.17209278 0.16533445
-0.0041841613 -0.08044582 0.29296649 0.080540754 -0.066680536 0.041318875 -0.14989173 -0.04597964
-0.21569213 0.15709439 0.12176709 0.16021806 0.14008942 -0.025424765 0.07740776 -0.09075786
0.16054161 -0.017000768 0.113762334 0.22134194 0.10254279 -0.28316778 -0.10560013 -0.031141514
0.03945157 0.26527107 -0.15919913 0.08760183 0.105638884 -0.12164051 0.09084309 0.1180042
-0.1716293 0.02508967 -0.002948556 -0.10892556 0.12896363 -0.0680167 -0.22868085 -0.071627095
-0.1313942 -0.07371224 0.18400738 0.048863605 -0.0095909415 0.23152144 0.14611807 -0.11521129
0.11684135 0.14189826 0.059803046 0.039057463 -0.113068245 -0.052531727 0.15693265 -0.07695516
0.1363765 0.11747066 -0.14577103 0.2924373 -0.28889066 -0.080882125 -0.22760321 -0.095801234
-0.0016162803 0.061064634 0.15028544 0.016014563 -0.051508244 0.06806248 -0.07225113 -0.12284153
-0.16218175 -0.14475948 0.067383185 -0.2062386 0.05928884 -0.08373368 -0.023696309 -0.07737929
-0.030650398 0.124369234 0.10181064 -0.07546776 -0.059456013 0.025042225 -0.07918719 -0.33354655
-0.14582503 0.053019587 -0.13711336 0.12744032 0.24638169 0.16096748 0.118950196 0.20038262

baseModel.mlp2.layers.2.bias f4 [64]
00000000: 55e0 a6bd 6e11 ff3c 4633 03be a4b7 58bd
00000010: 0db1 4f3c 22ed 53bd 430f d6bd 8ef5 c13c
00000020: fa3f 813e 9513 4c3e 739e c5bd 3311 fa3d
00000030: 6557 83be 61df 9dbd 8250 aabc dda9 de3d
00000040: 521a 8a3e 990e ed3d 789b 743e 6445 62be
00000050: d20d e83b 18a9 c43d 52b5 993d 2424 15bd
00000060: 1a56 28be 8fed 2e3e 457a cf3d 3494 8ebd
00000070: 56e2 18be dea1 053e bb47 e13d 74eb d63d
00000080: ed4a 18bd 49b3 f9bb 15f6 423e 8643 b93d
00000090: fe19 b13d 9a28 c03d a909 353e f1b8 a9bc
000000a0: b7d7 19bd 29f5 2dbd e488 723d 0bc5 303c
000000b0: df3a cdbc 7423 8e3d 8c17 9a3d 6cd7 8d3c
000000c0: 2ec6 f73d 022f bb3c 7940 003d d263 2f3e
000000d0: c4e0 7ebc d8a7 0b3e 354e 2bbd 8560 bdbd
000000e0: f899 123c 48bb 613c e0c5 583e 7625 063e
000000f0: 8924 6ebd 8ba1 15be 83cb c03d 1f54 093d
-0.08148257 0.03113624 -0.12812528 -0.05290951 0.01267649 -0.05173982 -0.1045213 0.02367666
0.25244123 0.19929345 -0.096493624 0.12210312 -0.25652614 -0.07708622 -0.020790342 0.108722426
0.26973206 0.1157505 0.23887432 -0.22096783 0.0070817256 0.096025646 0.07505287 -0.03641142
-0.16439095 0.17082809 0.10130743 -0.06961861 -0.1493009 0.13050029 0.110000096 0.10494128
-0.03718083 -0.0076202494 0.19039185 0.09046082 0.08647536 0.09382744 0.17679466 -0.02071807
-0.037559237 -0.04247013 0.05921258 0.010789166 -0.025052486 0.06940356 0.075240225 0.017314635
0.12098347 0.022849564 0.031311486 0.17127922 -0.015556518 0.13638246 -0.04182263 -0.09246925
0.008947842 0.0137775615 0.21169233 0.13100228 -0.05814031 -0.14612405 0.09413817 0.03352749

baseModel.mlp2.layers.4.weight f4 [32, 64]
00000000: 32cc 1cbe 90e1 2ebe bcf8 13be feb1 363d
00000010: 4e3c 56bc 345c c1bd 1a68 13be 031c 5cbd
00000020: 3570 033e 4a09 183e 6c36 083e 0ea8 633e
00000030: 9be3 f93d 4297 bebd 5f04 883e 48df 113e
00000040: ddce b4bc 3dcd 993d 116d 0cbe 2861 a23c
00000050: 7175 163d f1e0 debd 3c7b f13d 0123 ef3d
00000060: 63fc c33d f6fb 073e e087 123b 312a cabc
00000070: 12c4 9e3d 02b3 c93d ec5f 963d 1a48 26bd
00000080: 4c39 73bd 1c7f 8e3d c598 44be 4602 a3bd
00000090: 9bb0 6e3d 5657 083d bd47 df3d 084b ffbd
000000a0: 4dc9 543e bb8a 50bb 1552 0c3e 0535 483e
000000b0: 3806 19be 45c6 363d d8ef 563e c9bf 1bbd
000000c0: 8723 7e3d 9aac 92bd 4532 553d d06e 13be
000000d0: 4c87 aabc fe29 1ab9 650c 213e 43e2 3b3e
000000e0: 8493 d1bd 53ca 603d 5bea 07be 5910 6e3d
000000f0: 548a 893e a185 1b3d 1cd2 a33c ddb6 53bd
00000100: 8e76 f0bb a64b 53bd 6013 dabd a8d2 3a3d
00000110: be05 963d 4d2a dc3d 7283 06be 8d33 493b
00000120: 6e78 773d e6f7 9dbd 0bad 203d 7e0c a3bc
00000130: 86a9 bc3d 7d37 b73c c614 9b3c 1796 23be
00000140: a858 ba3d b665 38bd ac2a c3bd bf3a 2f3d
00000150: 00c9 c7bd 7a07 90bd 4d40 47bd e0d7 c5bc
00000160: 444b a93d 98ed a43b 0b6b 48bd 097b c9bd
00000170: a59e 1dbe 9daa b7ba 1372 a6bd 33dd afbd
00000180: 48d0 a1bd 731b 09be 4663 c0bd 2169 29be
00000190: e9d7 ef3d 5f72 4dbc 87b4 a43c 9bbd 0dbd
000001a0: 1310 793d 0d74 e8bd 51fa 3c3d a07a 043e
000001b0: 6a9d cbbd 7393 babd ef44 6b3c f473 b03d
000001c0: e4da b73d 16d2 89bc 8009 05bd 14e3 0fbd
000001d0: 894d 5ebd c6eb 99bd c25c 6abd 86c5 96bd
000001e0: b8e9 00be 57db 1dbe 3b3e 973d 0394 dfbd
000001f0: 2837 34bd 4375 0cbe 8207 db3c 2250 9bbc
00000200: 0ed0 20be da84 26be be86 c8bc bf5a 123e
00000210: 9285 2a3d c8eb cf3b 63f2 61be 7da5 efbd
00000220: 1a37 d73d 3285 d93d 129a b13e 58d8 693e
00000230: adef 633d 784f babd ac9c 553e fef5 bebb
00000240: 6add 9abd c701 123e 3e84 cabd 5deb 88bd
00000250: 148e 593e 9625 67bd 88bb 373e 6e15 3e3d
00000260: 1051 c63d 3e58 0e3e b5f9 05be 7aa3 49be
00000270: 32ee 423e 1a22 bfbd ff5a e8bc 3b09 033e
00000280: 7f17 0c3d 57ef 123d 715d 3dbe 215a d2bd
00000290: 67ee 253e 9178 463e 725d 783e 4d05 3bbd
000002a0: c496 b43d 8a11 033e 1cc8 263d 13c5 623d
000002b0: ac33 09bd a2f1 953d 97ef 6f3e 7f6f 18bc
000002c0: 4bf5 b0bc 92dc b9bd e8ef 283e d747 47bd
000002d0: 0d88 20be 3bc6 c63b 27e1 973d 6f7c 503e
000002e0: e0f6 0cbc 3d91 b53d 0a8a 0ebe 8b03 9e3d
000002f0: a676 2e3e bfca 08bd 6d25 04bd 728b c2bd
00000300: 2485 003e e2ba 323e 23f9 243e 95fc debd
00000310: 8fc6 1fbd 2bc8 c73c 53f0 1b3e 9418 863d
00000320: d372 3cbd a103 883d f2bc 88be 145a ed3d
00000330: 21ff d0bd de9a 8d3e 782c 74bd 91c7 0bbe
00000340: 823f 303e 1da5 e83d 7020 933e 990b 09be
00000350: 50da 3bbb ce25 7a3d 5fcf 393b 1639 cd3c
00000360: 5395 c83c 24cc 85be 134c 5f3d a2b2 713e
00000370: a3df cfbd 8044 463c c7f6 dc3d 55df d23d
00000380: 7c35 7e3d 36e8 1abc dea8 bd3c 3bbb 46bd
00000390: cba8 19bd 2850 02be 4712 9bbd 0d4b 513d
000003a0: 5332 623d 6996 53be 1933 32be 6e2e 68be
000003b0: 13fe bc3d 23fc f8bd 7387 9abd 9d8b 9f3d
000003c0: 4efc 8f3c 6aef 3b3d 0b25 e5bc c6ea 553e
000003d0: 2da0 2b3e 9723 3e3c 6412 9c3d dfb8 803d
000003e0: d6c5 2a3e 1cef 15bd c008 103e 7368 edbd
000003f0: f86e 3cbe 2f8e 06bd eac9 123e 093d 433e
-0.1531227 -0.17078233 -0.14450353 0.04460334 -0.013075901 -0.094414145 -0.1439518 -0.05373765
0.12835772 0.14847293 0.1330201 0.22232077 0.122016154 -0.09306194 0.26565835 0.14245331
-0.022071296 0.07509849 -0.1371348 0.019821718 0.036733095 -0.10882748 0.11791083 0.11676598
0.09569623 0.13279709 0.002235882 -0.024678322 0.07752241 0.09848596 0.073425144 -0.040596105
-0.059380814 0.06957838 -0.19198902 -0.07959418 0.058273893 0.033286415 0.10902355 -0.12465483
0.20779915 -0.003182097 0.13703187 0.19551475 -0.14943779 0.04462268 0.2098993 -0.038024697
0.0620456 -0.071618274 0.052049894 -0.1439774 -0.020816468 -0.00014702228 0.15727384 0.18348031
-0.102332145 0.05488045 -0.13272993 0.05812106 0.26863348 0.037969235 0.019997649 -0.051688064
-0.0073383516 -0.051585816 -0.10648227 0.045611054 0.07325314 0.10750256 -0.1313608 0.0030700893
0.060417585 -0.077132985 0.039227527 -0.019903418 0.092120215 0.022365326 0.018930804 -0.15975223
0.09098941 -0.045018874 -0.095296234 0.042780634 -0.097551346 -0.07032676 -0.048645306 -0.024150789
0.08266309 0.005033206 -0.04893021 -0.0983792 -0.1539255 -0.0014012639 -0.08127227 -0.08587112
-0.079010546 -0.13389377 -0.09393935 -0.1654401 0.117111035 -0.012539475 0.020105613 -0.03460465
0.060806345 -0.1135026 0.046137158 0.12937403 -0.09942134 -0.09110155 0.014359697 0.08615866
0.08977297 -0.01682381 -0.032479763 -0.035128668 -0.054273162 -0.07515673 -0.057217367 -0.07361893
-0.12589157 -0.15415703 0.073849164 -0.10916903 -0.043997914 -0.13716607 0.026736978 -0.018959109
-0.15704367 -0.16261616 -0.024478313 0.1429243 0.04163129 0.006345246 -0.2206512 -0.11701486
0.10508557 0.10621108 0.3468786 0.22836435 0.055648495 -0.09097189 0.20860547 -0.0058276644
-0.07561763 0.1425849 -0.098885044 -0.06685517 0.21245605 -0.05643233 0.17942631 0.046407156
0.0968343 0.13900849 -0.13083537 -0.19691268 0.19036177 -0.09332676 -0.028363703 0.1279649
0.034202095 0.035872784 -0.18492676 -0.10271097 0.16204225 0.1938193 0.24254397 -0.045659352
0.08817819 0.1279966 0.040718183 0.055363726 -0.033496544 0.073214784 0.2343124 -0.0093039265
-0.02160134 -0.090752736 0.16497767 -0.048652496 -0.15676899 0.0060661114 0.07415991 0.20359968
-0.008603781 0.08865593 -0.13919845 0.077155195 0.17037448 -0.03339648 -0.032262255 -0.09499253
0.12550789 0.17454103 0.16110663 -0.1088802 -0.03900772 0.02438744 0.15228395 0.06547657
-0.046007942 0.06641317 -0.26706654 0.11589447 -0.10204912 0.27657217 -0.05961272 -0.13650347
0.17211726 0.11359618 0.28735685 -0.1338333 -0.002866406 0.06107121 0.0028352363 0.025051635
0.024485266 -0.2613231 0.05451591 0.236033 -0.10150077 0.012101293 0.107892565 0.102965035
0.062062725 -0.009454777 0.023151811 -0.0485184 -0.03751449 -0.1272589 -0.075718455 0.051096965
0.055223774 -0.20662846 -0.17402305 -0.22673962 0.09228148 -0.12157466 -0.07545366 0.07790301
0.017576363 0.04588262 -0.027971765 0.2089034 0.16760321 0.011605165 0.07620695 0.06285261
0.16677031 -0.036604986 0.14065838 -0.11592188 -0.18401706 -0.03285044 0.14334837 0.19066252

baseModel.mlp2.layers.4.bias f4 [32]
00000000: fe42 ba3d b649 76bd 71d5 b63d 4cc9 58ba
00000010: cb93 233e 6fa3 083e 0f4b b4bd 7a47 c53d
00000020: 9bd8 ab3d 73b9 75bd 70b5 713d eb7c 0b3e
00000030: 2c05 c1bd 7807 a13c a4d8 ff3d 5b87 95bc
00000040: 5486 1a3e f362 953d d8a2 d63c 56df 833d
00000050: 276f 243e d287 e23d 802f b13c 6510 d13c
00000060: 6feb 3a3d 7e13 f2bb f71f 9d3d dadb 5ebd
00000070: b752 fd3d f281 fc3d bc67 043d d198 6f3d
0.09094809 -0.06012889 0.089274295 -0.00082697417 0.15974347 0.13343595 -0.08803379 0.09632774
0.083909236 -0.05999131 0.059010923 0.13621871 -0.094248146 0.019656882 0.12492493 -0.01825302
0.15090305 0.07294264 0.026200697 0.06439082 0.16058026 0.11061062 0.021629095 0.025520513
0.045634683 -0.0073875776 0.076721124 -0.054408886 0.12369292 0.123294726 0.03232549 0.058495346

baseModel.mlp2.layers.6.weight f4 [2, 32]
00000000: aace 82be 7d6e abbd 8f04 90be 90cb 523e
00000010: baed e6bd b4fd 93be b6c0 0c3e 2180 a8bd
00000020: 84c6 873e 73a7 d3bd e2a3 ddbd 03b0 863e
00000030: f68f 1b3e 5ea0 833e 11b9 243e 33da 9ebe
00000040: 1c70 4d3e 6029 2abe 3322 c03d 29ba 5fbe
00000050: f4b3 523e 74b6 5e3e 8e3a 533e 33dd 7b3e
00000060: ea98 58be 7a32 743d 4956 5cbe f10d 91bd
00000070: b919 a53e 6d41 473e 234d 343b 35c9 303e
00000080: 55e4 313e dc4f 293e 145d 183d 37c2 26be
00000090: 1ace ce3e ed85 3b3e abbb 9fbc 7d40 553e
000000a0: 5a0b fdbd c22c 6e3d 6a8e 3f3e df24 4dbe
000000b0: 9bad aabd 77bb 73bd 00df 05be 3a1e 9a3d
000000c0: c28e c5bd eca1 b53e a431 ffbd 9c05 5a3e
000000d0: f5e1 7cbe 06b0 74be 36de 103d 07c9 1abd
000000e0: dd42 193e f8de 9cbe 63d3 863e f9d2 3ebe
000000f0: dd07 4cbe a2bf 1bbe 61d1 7f3d 370e 0bbd
-0.25548297 -0.08370683 -0.28128478 0.20585465 -0.112758115 -0.28904498 0.13745388 -0.08227564
0.26518643 -0.10334673 -0.10822274 0.2630616 0.15191635 0.25708288 0.16086222 -0.31025848
0.20062298 -0.16617346 0.09381523 -0.21848358 0.20576459 0.21749288 0.20627806 0.245961
-0.21152082 0.05961845 -0.2151729 -0.07082737 0.32246187 0.19458552 0.0027511797 0.17264254
0.17372258 0.1653437 0.03719814 -0.16285025 0.40391618 0.18312807 -0.019498667 0.20825382
-0.12355681 0.058148153 0.1870667 -0.20033596 -0.08333894 -0.059504952 -0.13073349 0.075252965
-0.096463695 0.354751 -0.1246064 0.21291202 -0.24695571 -0.23895273 0.035368167 -0.03778937
0.14966913 -0.30638862 0.2633315 -0.18635167 -0.19924875 -0.15209821 0.06245554 -0.033949103

baseModel.mlp2.layers.6.bias f4 [2]
00000000: 8b52 fcbd 1671 7c3d
-0.12320431 0.061631285
