weights/weights_lstm.pt (torch, 246189 bytes, 14 tensors)

encoder.layers.0.weight f8 [8, 4]
0	0x3fd87b1d9a079242	0.38251438180876474
1	0x3fc11f7d3dcf9a3b	0.13377347486603405
2	0x3fc2df3f90a35915	0.1474379974594703
3	0xbfdd4c6dc9a2cf1b	-0.4577898472882553
4	0xbf96a3b800000000	-0.022108912467956543
5	0xbfd954c780000000	-0.39579951763153076
6	0x3f9976b000000000	0.024866819381713867
7	0x3faaad0e00000000	0.05210155248641968
8	0xbfd696d33863051e	-0.35295563227198723
9	0x3fda70dd5a89a246	0.4131387123257223
10	0xbfd762563911fa92	-0.36537700246109595
11	0x3fe0768f22e164b6	0.514472549558511
12	0xbfd2dff9a2fcc593	-0.29492035786378173
13	0xbfd1fb4d266fee18	-0.2809632182467978
14	0x3fc976b78d8ebfaa	0.19893545543663765
15	0xbfcad37e68f75c61	-0.20957927823357905
16	0xbfcf7db480000000	-0.24602371454238892
17	0x3fbaf22200000000	0.10525715351104736
18	0x3fb6f3db00000000	0.08965843915939331
19	0xbfd0bfc240000000	-0.2617040276527405
20	0x3fddaadbbfd17770	0.4635533688759699
21	0xbfb001fc3797c388	-0.06253029210325967
22	0xbfd19e9d419b1641	-0.27530604750458926
23	0x3fd67eebe469f678	0.3514966707806262
24	0xbfd365a9c2094095	-0.3030800242313572
25	0xbfdac5b26cf39e7d	-0.41831646575744924
26	0x3fdabe5cc218aef5	0.4178687949631546
27	0x3f97179185c428fa	0.02255084399170302
28	0x3fc8bca7254ceed0	0.19325723000826267
29	0x3fd0f3550ec01d93	0.2648518222854019
30	0x3fda107b3fe9c9f7	0.40725594750907085
31	0xbfd093de5c6a3da1	-0.25902518296148896

encoder.layers.0.bias f8 [8]
0	0x3faa375cf7126095	0.051203637275819926
1	0xbfbd5e6e00000000	-0.11472213268280029
2	0x3fd94cc9a29c6af2	0.395311745452701
3	0x3fdbf6445d6e8203	0.4369059479159036
4	0xbfd422e840000000	-0.31463056802749634
5	0x3fdad9646bd73d5a	0.41951857119871294
6	0x3fd84cf88da1434b	0.3796979315857711
7	0x3fdf00eaae79feea	0.48443095244145573

encoder.layers.2.weight f8 [16, 8]
0	0xbfd670c4e7c66404	-0.35063288339875975
1	0xbfd63acf00000000	-0.347339391708374
2	0xbfb6a914f24262de	-0.08851748384985167
3	0xbfabe753f26bbf55	-0.05449926695098265
4	0xbf902257e0000000	-0.01575600914657116
5	0x3fd39e0d0e57d641	0.30652166748709325
6	0x3fb97bf9b681969b	0.09954796510427359
7	0x3fc537bb2d757e2c	0.1657632801024972
8	0x3fc8ce85f32ae9a8	0.19380258916301085
9	0xbfd57f62e0000000	-0.33590003848075867
10	0xbfd44ed9e74225b7	-0.31731269439532234
11	0x3fcf68f725085826	0.24539079006416492
12	0xbfd15f1400000000	-0.27142810821533203
13	0x3fb763086677faf6	0.09135487081219282
14	0x3fa74ccdd4305008	0.04550784316248274
15	0x3fd5ba0fe649aa22	0.33948132981336887
16	0xbfbb240d924acb0e	-0.10601887532793006
17	0x3fc83d42e0000000	0.1893695443868637
18	0x3fd145410ff64f56	0.26985193785480044
19	0xbfd2ec01cefe4003	-0.29565472807098575
20	0xbfd1ab5180000000	-0.2760814428329468
21	0x3fa86d10e307e71f	0.04770710727093629
22	0x3fb8574480c0a4cc	0.09508159774181307
23	0x3fd59d96b1b07ac1	0.33774344780423965
24	0x3fde6dee22ca9b2a	0.47545960805512044
25	0x3fcc44b7e0000000	0.22084711492061615
26	0x3fd2f9ace705b19a	0.29648897705808397
27	0x3fd133932f601fb5	0.2687728846217355
28	0x3fd3573920000000	0.3021986782550812
29	0xbfd53708f8dd3aa5	-0.331484072715208
30	0x3fb92202a40020fa	0.09817520622175727
31	0xbfa2a3b16de36f90	-0.036405129112352275
32	0xbfc15ab6b1bf2012	-0.13558086089165095
33	0x3fd66c8d60000000	0.3503755033016205
34	0x3fd3e95df269d3d9	0.3111185900991678
35	0xbfce8b3479b162b5	-0.23862319891010988
36	0xbfd4041bc0000000	-0.31275075674057007
37	0x3fd2c35ce6085571	0.29317400421253753
38	0x3fa8f323eb4faad7	0.04873001334620646
39	0x3fd0b2d787650f0e	0.2609156439032042
40	0xbfcdaf6d00000000	-0.23191606998443604
41	0x3fd1fac840000000	0.2809315323829651
42	0x3fae1bdb20000000	0.058806274086236954
43	0x3fac052da0000000	0.05472700670361519
44	0x3fba17dd20000000	0.10192663222551346
45	0xbfbe1de2e0000000	-0.11764352768659592
46	0x3f91047f00000000	0.01661871373653412
47	0xbf42be6d40000000	-0.0005720170447602868
48	0xbfdc3da56ac385c1	-0.4412625830283013
49	0x3fcab7da80000000	0.20873576402664185
50	0x3fd38dbce96c8c79	0.3055259971171789
51	0xbfd17de0f40ca1ca	-0.27330802758163186
52	0xbfceb80da0000000	-0.23999185860157013
53	0x3fc644d4993a36f3	0.17397553903395355
54	0xbfc7c592c0cf885e	-0.18571695723136633
55	0x3fd26e332c895f31	0.2879760680129833
56	0xbfd4784bc3d87ff9	-0.3198422825389567
57	0x3fd2b16100000000	0.29207634925842285
58	0x3f76f25d518141dd	0.005602230572620629
59	0x3fca40ec16c0b21a	0.20510626898739376
60	0x3f9ce6b380000000	0.028223805129528046
61	0xbfb5d2b369a4e91a	-0.08524628953174265
62	0x3fc5f9f7629c7a89	0.1716908675670832
63	0x3fc4eb5f5087da18	0.16343299324189853
64	0x3fa3becaef8b4416	0.03856500791665256
65	0x3fd0a048c0000000	0.25978296995162964
66	0x3fd475bda7e06179	0.3196863307398626
67	0x3fc15f533250ce42	0.13572158772295678
68	0xbfd26c3760000000	-0.28785499930381775
69	0x3fc154aa32dd883a	0.1353962658277526
70	0x3fd7b296cb2d197b	0.370275209821919
71	0xbfcecb3c334923b7	-0.2405772447985137
72	0xbfd5d2639bb220e4	-0.34096613125485775
73	0xbfc96e32c0000000	-0.1986754834651947
74	0x3fc4d3a6276da561	0.16270901608667557
75	0x3fcbe44b61678d28	0.21790449386672006
76	0x3fccd123e0000000	0.22513245046138763
77	0x3fae648de9b5ccaa	0.05936091878802448
78	0x3fd213d8d4217b40	0.28246136394402654
79	0x3fb7418a193b2561	0.09084380260460058
80	0xbf980f9e40000000	-0.0234970785677433
81	0x3f97792040000000	0.022922996431589127
82	0xbfa7889800000000	-0.04596400260925293
83	0xbfb5f6f940000000	-0.08579976856708527
84	0x3fd31d6620000000	0.29866936802864075
85	0xbfc93ba160000000	-0.19713227450847626
86	0x3fbf10c0a0000000	0.12134937196969986
87	0x3fc2331400000000	0.14218378067016602
88	0xbfa9e4bbee4436b1	-0.050573227725278065
89	0x3fa6197a80000000	0.04316313564777374
90	0xbf9c46c81ad9c143	-0.027613760603743442
91	0xbfd0538f18a22e72	-0.2551000347673159
92	0xbfc15a3be0000000	-0.13556621968746185
93	0x3fd5abf23cafaa87	0.3386197655333167
94	0x3fd649fddaa36e4c	0.3482660899296419
95	0xbf9f9cf671b1463b	-0.030872202576864387
96	0xbfdd91ceec5da7c4	-0.46202443201638865
97	0xbfa0526620000000	-0.03187865391373634
98	0xbfbb20e3c04ed503	-0.10597060627954495
99	0x3fca295333797dd5	0.20438613904387518
100	0x3fd31d5360000000	0.2986648976802826
101	0x3fb72f6f1b90d7d9	0.09056753561966903
102	0x3fc2628803f8a1c1	0.14363193696887147
103	0xbfa7eb784455232d	-0.04671836694848817
104	0xbfd43a824f473e2d	-0.31607110731144666
105	0xbfc9ebf060000000	-0.20251278579235077
106	0xbfb6f2d1fec3b372	-0.08964264364085553
107	0xbfcc08f137b4a287	-0.21902289600372546
108	0x3fd696d300000000	0.35295557975769043
109	0xbfc9f39d8adf619b	-0.2027470520104203
110	0x3fd2693c2419c373	0.28767303014233575
111	0x3fd19d3f5bb8944c	0.2752226253235832
112	0x3fd2530ea368a012	0.2863194080150616
113	0x3fcceb1060000000	0.2259235829114914
114	0x3fd65b15eadbc5cb	0.34930942473792176
115	0x3fb4fa50cd663199	0.08194451346043365
116	0xbfcee661a0000000	-0.2414056807756424
117	0xbfd53e42fa21cb0f	-0.3319251482673033
118	0xbfd3af3bbc815778	-0.3075703945991033
119	0xbfc06bf3d3e0d8aa	-0.12829444738026058
120	0xbfcd7d57d46aeecf	-0.23038766738851854
121	0xbfce10a280000000	-0.234882652759552
122	0xbfbc5e80d7c33f97	-0.11081700580257202
123	0x3fada5c108dbccb4	0.057905227977152945
124	0xbfa55cd8c0000000	-0.04172398895025253
125	0x3fd45e1113b2ef12	0.31824137614943127
126	0x3fd90db09791c092	0.39146055986112416
127	0x3f98a55693671a92	0.024068215128660038

encoder.layers.2.bias f8 [16]
0	0x3fbcfaeba462bd60	0.11320374263117605
1	0xbfc5086f9e2e525a	-0.1643199465148822
2	0xbfd3504c4f87eae6	-0.30177600638096036
3	0x3fc955450a4db4dc	0.19791472437956414
4	0xbfcbfb8a1d05e915	-0.21861387650626143
5	0xbfd268a540000000	-0.28763705492019653
6	0x3fc8fe89e42e8691	0.19526790277182163
7	0x3fd4cf1ab835c654	0.32514064778579166
8	0xbfbaba34a3731950	-0.10440377226323005
9	0x3fba47aa87ef7e57	0.10265603846300429
10	0xbfcbded1c0000000	-0.21773740649223328
11	0x3fc12db5a0b26b78	0.13420744272738339
12	0x3fc47e5950556823	0.16010586187877704
13	0x3fc3ed98db529d56	0.1556883879577337
14	0x3fd35194a1c8a06f	0.3018542842787672
15	0xbfb7443de7769794	-0.09088503743131887

encoder.layers.4.weight f8 [8, 16]
0	0xbfcbb215cd5da03e	-0.21637222793219907
1	0x3fcaf4e61b69bfb6	0.2105987199643075
2	0x3fad837101532cc2	0.05764344350026242
3	0x3fc455853990872c	0.15885987578172356
4	0xbfb55ab99e1a5dba	-0.08341560468612999
5	0xbf82690c00000000	-0.008989423513412476
6	0xbfc0a1e2e5170ca3	-0.12994037805592482
7	0xbfc7f5050ea3f3a4	-0.18716490950455722
8	0xbfccfa91af4f4b74	-0.22639676151319643
9	0x3fa1e8ae5e29532c	0.034978341097178095
10	0xbf746e5800000000	-0.004988044500350952
11	0xbfcf5dfbf468103c	-0.2450556701079466
12	0xbfd33f6f88c3f3f3	-0.300746806678773
13	0x3fc0d3191e7c90f8	0.13144220341303714
14	0x3fa203468ae0d76a	0.03518124051372136
15	0xbfd918a7291908d2	-0.39212969792801033
16	0xbfb71460e32ccde0	-0.09015470072045373
17	0xbfaf82382815d8e4	-0.061540369885664054
18	0x3fa8aa0368956a6e	0.048172098652419545
19	0xbf967d6fa0c29507	-0.021962875544564244
20	0xbfc37aacc0e60958	-0.15218123835445385
21	0x3fbda7b300000000	0.1158401370048523
22	0xbfb32347fbcdae44	-0.07475709817452364
23	0xbfabdbebb5766811	-0.054412237073123156
24	0xbfa62794902877ce	-0.04327072391264118
25	0xbfca46c9bff29167	-0.20528528091848416
26	0x3fca91e6c0000000	0.20757755637168884
27	0xbfb9c4f9ced1dcb6	-0.10066186236678018
28	0x3fb2a28eba2ad114	0.0727929310331244
29	0x3fcfcf4c496d7fb9	0.2485137327703322
30	0xbfcc2ac521efb651	-0.2200552383141479
31	0x3fc545172f15bc8a	0.1661709766299036
32	0xbfcafd74d809b7ac	-0.21085987614372692
33	0xbfd18c928a5c906e	-0.27420485984681064
34	0xbf9445664af65013	-0.01979598839314185
35	0xbfce8be256526079	-0.2386439248555268
36	0xbfa17f9343dd1c0c	-0.03417644694723529
37	0x3fceff8500000000	0.24217283725738525
38	0xbfc27b138c1ae6aa	-0.14438099232738938
39	0xbfcb1eebb087f312	-0.2118811237304717
40	0xbfd2b63894547267	-0.2923718880208867
41	0xbfc8f9e96ff3d6a8	-0.19512670484953287
42	0x3fc9a97a00000000	0.2004845142364502
43	0xbfb069326061ca1f	-0.06410517552448212
44	0x3fb5ca8f345b79e9	0.08512206104521848
45	0x3fcaef50bb8cccae	0.21042832524981264
46	0xbfd4f923c005a27f	-0.327706277390952
47	0x3fca9329bd3a692f	0.20761605968147864
48	0x3fc4e09935bfebd9	0.16310420155045227
49	0xbf7b6600220fd017	-0.006689072150937412
50	0xbfbd4f1911cd636c	-0.11448818859697746
51	0xbfc5fe522fbce4a8	-0.17182376223516838
52	0x3fb7df94cec75113	0.09325532959275433
53	0xbfaa065c00000000	-0.05082976818084717
54	0x3fc75719bd203fac	0.18234559759775715
55	0x3fc17e77013cd1a8	0.1366719013254969
56	0x3f97dd67e771a0e8	0.0233055338871119
57	0x3fc189216e87a580	0.1369973935791613
58	0x3fbb0c0800000000	0.1056523323059082
59	0x3fccc1938dfc6721	0.22465748246104858
60	0xbfb4bb6807a9a54c	-0.0809845942218505
61	0x3fcc0d93f267fb9c	0.2191643651603642
62	0xbf938d31ce541a09	-0.019093301981252284
63	0x3fa81efc28b3f4d5	0.04711139675962676
64	0x3fb8e09d0d97c79a	0.09717732984407093
65	0x3fc034b9b90b5f30	0.12660905394909028
66	0xbfd8ce06dd0b480b	-0.38757487856230516
67	0xbfa36589ec788ea9	-0.03788405429466241
68	0xbfcd4637d6e0e355	-0.2287053870402597
69	0x3fbfcdc180000000	0.12423333525657654
70	0xbfcc5a4ff3bc798b	-0.22150611306365095
71	0x3fc49e09f655752f	0.16107296493547937
72	0xbfa27f2513de70b3	-0.036126288104442315
73	0xbfb5d7bbe5f0f5a0	-0.08532308925437926
74	0x3f6e7f8000000000	0.0037229061126708984
75	0x3fb0173b5d666d7c	0.06285449056888653
76	0x3fa5e22f797fd3ce	0.04274128301759782
77	0xbfb21155d218ce31	-0.07057701472586399
78	0xbfce5f428eeac036	-0.2372821042858974
79	0xbfc17579f96d4613	-0.13639759711308894
80	0xbfd120c245bbccb8	-0.2676244431488146
81	0x3fd3aa05cb31ddaf	0.30725235789528943
82	0x3f93fbf1da5df232	0.019515780404150536
83	0x3fc4e1674631c70d	0.16312876632178366
84	0xbfc22dfda9636c03	-0.14202852984348632
85	0x3faecdfa00000000	0.060165226459503174
86	0xbfd0cc62032f0048	-0.2624745398607087
87	0xbfa7a88928514459	-0.04620770089298593
88	0xbfd18f5fce3b53e9	-0.2743758691770482
89	0xbfd23335356b6294	-0.28437547890420345
90	0x3fac1ebb00000000	0.054921954870224
91	0xbfae3024d285d23f	-0.05896105832917841
92	0xbfaa1557f58f8c05	-0.05094408867423542
93	0xbfc33c3d3623a704	-0.15027585166472346
94	0xbfb24dfacf612672	-0.07150237620330716
95	0xbfbf729e10af265e	-0.12284267337158769
96	0x3fa1938c8a7428c6	0.03432883443936556
97	0xbfc71d59e3121700	-0.18058322513041247
98	0xbfb37e6264208946	-0.07614722198971888
99	0x3fc161987ed795dc	0.13579088395560646
100	0xbfbaed7c1e013d61	-0.10518623096981151
101	0x3fcb0f2640000000	0.21139982342720032
102	0xbfc577e1ccce9e14	-0.16772100925776157
103	0x3fca48181791b092	0.2053251376231669
104	0x3fb284c470187203	0.07233836876589099
105	0x3fcaa101941cb483	0.2080385182574994
106	0xbfb90c2280000000	-0.09784141182899475
107	0xbfb732effe8c11a7	-0.09062099422960178
108	0x3fd0721af6c9c0f6	0.2569644365348859
109	0xbfaf4d44233f24a4	-0.06113636904007905
110	0xbf8947b55342763e	-0.0123438039811915
111	0x3f9874e0fade9ab0	0.023883357345449496
112	0x3fbc208d9f6e9057	0.10987172262554289
113	0x3fca092d4ea9d63b	0.2034050592516666
114	0x3fcf4f9360542ef6	0.24461595729405133
115	0x3fc6e04c56ca5c80	0.17872003782096968
116	0xbfa180f194b719c7	-0.03418688717242762
117	0x3fa555ff00000000	0.04167172312736511
118	0xbfb22148cb279a84	-0.07082037887412623
119	0xbfcceaae54325b3a	-0.22591189490477764
120	0xbfc2f2f0fddc312a	-0.14803898234857488
121	0xbfc39d1d4c7f066e	-0.15323225245633715
122	0x3fcb75b8c0000000	0.2145300805568695
123	0x3fcb904afbb32de6	0.2153409699443351
124	0xbfb2ed81f489ec5c	-0.07393657894310607
125	0x3f9bcd36037fdfcd	0.027150005305855807
126	0xbfd121de5e73b458	-0.26769217704606296
127	0x3fb9a5df6768f222	0.10018726610810139

encoder.layers.4.bias f8 [8]
0	0x3f992e4f67a2208d	0.024590721798205584
1	0xbfd1e7d8820b75a7	-0.27977574062046034
2	0xbfc742dac1253e31	-0.18172773772174503
3	0x3faacb37c243d288	0.05233167883298956
4	0x3fd072737ab25cf6	0.25698554021933206
5	0x3fbfb73cf1c3a112	0.12388974096723285
6	0xbfcf8e47df1d0025	-0.2465295638485269
7	0x3f8d0baa6c1701f2	0.014182406829491765

lstm.weight_ih_l0 f8 [256, 12]
0	0xbf7fc9b0d42b157c	-0.0077607066511452515
1	0x3faef630de80c3a3	0.060472037468918736
2	0xbf835073cded5472	-0.009430794450660172
3	0x3fc0462b161f333e	0.12714136676950177
4	0x3fc5b3a870306720	0.16954522588712795
5	0x3fb36968034614ae	0.07582712249684917
6	0xbfbf24efb68880d5	-0.12165735441567745
7	0x3f9a33b2aadf18f7	0.025587836913268238
8	0xbfc18a001d37a4ec	-0.1370239393866436
9	0x3fc370cad34ba472	0.15187964741861354
10	0xbfbd53dbde6e1935	-0.11456083469793017
11	0x3f93de512cccb3e9	0.019402759894706554
12	0xbfc7a71042a89aa8	-0.1847858739358419
13	0xbfd0c41a71324eeb	-0.261969194930528
14	0xbfb1ac1de890865e	-0.06903254440160242
15	0x3fa6167500a812fc	0.04314008362783814
16	0x3fc06d17da3fd5ea	0.12832925945956158
17	0xbfc9d0ab9a47dfd3	-0.20168061288109004
18	0xbfccb284a3c1797d	-0.22419794078718872
19	0xbfb58aea0e1da528	-0.08415091366409355
20	0xbf9862f2f6380c7a	-0.023814960744868753
21	0x3fce56de45e19706	0.2370260087220048
22	0x3fca678d80ddf85c	0.2062851790651078
23	0x3f7ae1acfc449584	0.006562877392103931
24	0xbfb64cf1341c64fd	-0.08711154482115897
25	0x3f9aba57582510ff	0.026101460223132197
26	0xbfb4264778e3f605	-0.07870909406116063
27	0xbf9eefd0ed2d245a	-0.030211700893492434
28	0x3f8f51d7b884f963	0.015292821234308368
29	0xbfb370cf3b66a4e0	-0.0759400863668307
30	0xbfc1efbc7b90cf68	-0.14012867005805707
31	0x3f78334d521187f4	0.005908300431743275
32	0xbfb44e5100eee2a0	-0.07932001374036668
33	0x3fc96df678c172f1	0.19866829773209063
34	0x3fa00bab4d39c759	0.03133902852722654
35	0xbfb279398d2862af	-0.07216224380716584
36	0xbfbf1f939883d5f3	-0.12157556985388122
37	0xbfc1ea5931bed642	-0.13996424607255348
38	0xbfa8b3e12846b6c6	-0.04824737183240084
39	0x3f7f9dde237446ea	0.0077189137730486555
40	0x3fa8e21e8b02809d	0.04860015341660182
41	0xbfc149913e0c903c	-0.1350575974439624
42	0xbfb701560ce760ff	-0.08986413779291878
43	0xbfbd49ac86907b6d	-0.11440542493117585
44	0x3fc6c93cd01e1291	0.1780162826727474
45	0xbfb7ad7e91ba079d	-0.09249106462269059
46	0xbfaa4779dc18fabe	-0.05132656871545781
47	0x3fc5b79baede755b	0.16966577566646887
48	0x3f76844c7f810214	0.005497263737254805
49	0x3f976084918dbf60	0.022829123863118084
50	0xbfb7f9f2a3ec8665	-0.09365765096711128
51	0x3fb07fb12699fd43	0.06444842522067966
52	0xbfc154f431ad151a	-0.13540508676138857
53	0xbfbd6951ebbacb65	-0.11488830571287918
54	0xbfc3e58348797a32	-0.1554416755561348
55	0xbfa3eed6cc634850	-0.03893157238930256
56	0x3fb02480cce9d0ac	0.06305699351088617
57	0x3fc62dc51b96a1ae	0.17327178809251848
58	0xbfbbbd088e6c13ff	-0.10835317113021857
59	0x3fc6ce7647c28ddb	0.17817572120576028
60	0xbfb9d3f2364c50f1	-0.10089029145848706
61	0xbfaa13c4c6f68b55	-0.05093207291363081
62	0xbfcb643f583763ab	-0.21399680907668758
63	0x3f93d71f89ab773e	0.019375317361542736
64	0xbfca68bd6179e62b	-0.20632140407160313
65	0xbfc3a84491990a7b	-0.15357262715595596
66	0xbfc8bb3009eee71f	-0.19321251378078672
67	0xbfb6d91307ddae5e	-0.08924979154624554
68	0x3fa4b564ac5cc02a	0.04044642070800848
69	0xbfb60a62db3b0193	-0.08609598018938973
70	0x3fc4742e1d33ea86	0.15979553628843152
71	0xbfa012e70e4e6619	-0.03139421510350022
72	0xbfc6762b71fd8998	-0.17548125329910813
73	0x3fa107170b174507	0.03325721750628401
74	0xbfb0993b77031154	-0.06483813911024089
75	0x3fc42cd8b4f58037	0.1576186069096381
76	0xbfbbae94bdd78bdd	-0.10813264498533166
77	0xbfc5fe8bc69fffd2	-0.17183062742696947
78	0xbfa8ce7c91a19736	-0.04845036771511817
79	0xbfb4bc292e8e9970	-0.08099610697408877
80	0x3fb16a0463656209	0.06802394320164508
81	0x3fd292326f4085a8	0.2901731573529909
82	0xbf97fdf22859e08c	-0.023429664337954167
83	0xbfc2ae0edd7be8e8	-0.1459368306603388
84	0xbfb011c239d53f15	-0.0627709761804421
85	0xbfb0386dd1bf587f	-0.06336103792941293
86	0xbf9e5f7648e73033	-0.029661033820772963
87	0x3f62c3c4484586c4	0.002290614475143867
88	0xbfbb9e4baa89234d	-0.10788414872616876
89	0xbfbeaebbf86e4475	-0.11985373320773525
90	0xbfc432f5534a845b	-0.15780512396762245
91	0xbf7783a8d48d6ab8	-0.005740794652264007
92	0xbfbd8ef9ab625543	-0.11546287950689753
93	0x3fc9f74d54788bee	0.20285956024699153
94	0xbf7d8446c450bdad	-0.007206226761851492
95	0x3fb0b21ab3c0600e	0.06521765602553861
96	0xbfc223321a1f12b9	-0.1416990878625677
97	0xbf955e793550b690	-0.020868200186831276
98	0xbfc150ed12408b9b	-0.13528216735093399
99	0x3f4eb14728cf1f1e	0.0009366605241831504
100	0xbf917c5881b19f8c	-0.017075903812297663
101	0xbfc3c152ccfa38f6	-0.15433726318992286
102	0xbfa1bd955cacd118	-0.034649531901239594
103	0x3fa39242a9c8a13d	0.038225253320265364
104	0x3fb02432e0caff3a	0.06305234897717762
105	0x3fcfc6f2a1b33453	0.24825890441425943
106	0x3fa49d35ce4d7f5f	0.0402619184812909
107	0xbfb48c670e09808d	-0.08026737301543303
108	0xbfba1bb709c1429f	-0.10198539722592635
109	0x3f8c11bddbc692a6	0.01370571448280462
110	0x3fb6c886fd8e3f45	0.08899730387042577
111	0xbfa17eebcdeb6d72	-0.034171456228899624
112	0x3fd315789f407303	0.2981854968254966
113	0x3f8693933c2f83da	0.011023664736002848
114	0x3fa5da6edf08bd6a	0.04268213722786636
115	0xbf85c2b3a39742f7	-0.01062527029981329
116	0x3fa4c1ee0fd6c878	0.040542067941161386
117	0x3fc3c134b9debdb0	0.15433367801368325
118	0x3fbab4f33c66ed81	0.10432358002338128
119	0xbfb97c4ad55b3ed3	-0.09955280026337769
120	0xbfcc8d5a743105d0	-0.22306376145756568
121	0xbf92f78b856ddac7	-0.018522434252612265
122	0xbfa8f4316e55587e	-0.04873804542391812
123	0x3fd10d98c97d1e9e	0.2664548843062934
124	0x3fb54647ee9e496c	0.08310365272180825
125	0xbfca7bcd001494d4	-0.20690310005117019
126	0xbfadf5bd6eea8438	-0.05851547221141867
127	0xbfc95d355c6aa9f3	-0.19815699589283006
128	0x3fb40c34673fd85b	0.07831122894990143
129	0x3fc4d5d7cc0ef765	0.16277596916000472
130	0xbfc2821a0d8f5e7c	-0.1445953909121619
131	0x3facbe44767bcf87	0.056139125312170406
132	0x3f415fd05b761522	0.0005302207345471469
133	0xbfc176cc5b13afc9	-0.13643793532480533
134	0xbfc3c0a50e96329c	-0.1543165513252419
135	0xbf90c02d75d1dc5c	-0.016358099285266867
136	0xbfcbdd6aca91f4b9	-0.21769461527938974
137	0xbfc3806762bdfcc5	-0.15235607453721492
138	0x3faca7c1e38245d6	0.05596738722045884
139	0x3f90080d819865ce	0.015655718836659997
140	0xbfca24b772fda7db	-0.20424550165927155
141	0x3fab4a7554d4ab89	0.05330244694263004
142	0xbfa06fe9cbdcd3bd	-0.032103830466815954
143	0x3fcac710c83c61ec	0.20919999863760042
144	0x3fa37e1888352c89	0.03807140982333929
145	0xbfa735f62943bbb4	-0.04533356908529332
146	0xbfa23b639fa9a207	-0.03560935329443642
147	0x3f8b53ea24d9114d	0.013343648194798741
148	0xbfc3655ce950f7b7	-0.1515308512916229
149	0xbfc35cea5556036d	-0.15127305189892173
150	0xbf69c0ccfdaed93a	-0.003143692372272214
151	0x3f6a2af90b88ed5a	0.0031943191682139273
152	0xbf8b8cdc886e6918	-0.013452265656998239
153	0x3fb8c6552ce29789	0.09677631707981339
154	0xbfb5d5f105422c05	-0.08529573801403963
155	0x3f6f19c5c33e88db	0.0037964689781385514
156	0x3fa793a42b1f6dea	0.046048288597116585
157	0xbfb8a3d1765a0df0	-0.09624966754386555
158	0xbfacb9c92d9132dd	-0.056104933559799376
159	0x3facc61f547014ad	0.05619905381903698
160	0xbfcab66a76b2a493	-0.20869189067642377
161	0xbfbd68d397b68f86	-0.11488077596601273
162	0xbfc81a7c0dd06d28	-0.18830824541587643
163	0x3fb539ea8b546a96	0.08291498090367563
164	0x3f97bb348f1e3cd8	0.023175069079624716
165	0x3fb39591fdd049a4	0.0765010113393943
166	0x3fbdd5b2c6e9c01f	0.11654202801014478
167	0xbfc3c98306dbb1a4	-0.15458715281364477
168	0xbfca85bcc07bfb53	-0.20720633886954917
169	0xbfc4356013d3ff10	-0.15787888496560543
170	0xbfb0cd15408a30e3	-0.06562931848219793
171	0x3fc0c6d6e7e1a376	0.1310680992349053
172	0x3f9e01e47acc5574	0.02930409430981258
173	0xbfb64400bc4623a5	-0.08697514149220227
174	0xbfc115cfd9cfbbb1	-0.1334781468899258
175	0xbfa3f8e6bba23bf5	-0.03900834122133993
176	0xbfc059bda0e8e125	-0.12773866993826136
177	0x3fc4465204cc9836	0.15839600786529368
178	0xbfa8c850be0d119c	-0.04840328521689516
179	0xbfab81d334965acf	-0.0537248613065252
180	0xbfa62e392aa39b9d	-0.04332140584465736
181	0x3fa480eea2a4f27e	0.040046174387019726
182	0xbfa6e452904e74ef	-0.04471071254304514
183	0xbfa2119724094fa5	-0.03529045405289758
184	0xbf4217274947b581	-0.0005520765139956225
185	0xbfc03e07a73076e1	-0.126893002162368
186	0x3f6f42cbb4b1bb08	0.003816030371630478
187	0x3fa09a7335b20498	0.03242836027585233
188	0xbfca6956951e43aa	-0.20633966714060864
189	0x3fc4d9a2bca748b5	0.16289171420664209
190	0xbfb68df703c88b63	-0.0881037124859581
191	0x3fc499b2bb388593	0.16094049588813827
192	0xbfafee5dd32d4816	-0.06236546709864414
193	0xbfb5a8dc399e6713	-0.08460785299976363
194	0xbfa7272573fc071c	-0.045220537575018066
195	0x3fa3657ee7261a7b	0.03788372584954388
196	0xbfd14cb1948dac0a	-0.27030601031464185
197	0xbfc528a30c2ba260	-0.1653026399065025
198	0xbfcba26e4e318e3b	-0.21589449708982208
199	0xbfbc1016bb18b7fd	-0.10962049548899695
200	0xbfa2f6cf44feaeee	-0.0370392581674802
201	0x3fc9e9040b5f1b3c	0.20242357783555487
202	0xbfb3d9e89a81531b	-0.07754377147768958
203	0x3f95120b7e26a8ae	0.020576648306509675
204	0x3fad98fff0f10a0f	0.05780792061024808
205	0xbfa547268992bd93	-0.04155846051559844
206	0x3fa08c49d6cedb6a	0.032320315810855885
207	0x3f895255b47537fa	0.012364072389257064
208	0xbfd5c872236ede68	-0.34035924396764594
209	0xbfb4ca5e506539aa	-0.08121289694574921
210	0xbfc71fa260cb2f79	-0.18065290189985797
211	0xbfb1fec948fb055b	-0.0702939799475834
212	0x3fb2206d50fcb81d	0.07080729701257878
213	0xbfc5095f4136cd9c	-0.16434851345330237
214	0xbf933f1df9dfeb86	-0.01879546010603008
215	0x3fb023ce6203d58d	0.06304635899490148
216	0x3f87e2b0d0b083cf	0.011662846916864837
217	0xbfb92ab794234561	-0.09830806128163296
218	0xbf89e4c8d5021be0	-0.012643403053756275
219	0x3faf07e73dbc494b	0.060607172285147635
220	0x3f95865f86388279	0.021020405356582537
221	0x3fa18e1a71867c4a	0.03428728709990787
222	0x3fa37fb56aa0ebab	0.03808371473902324
223	0x3f8e9501b94be730	0.014932645289707475
224	0xbf98396c63f2d0bf	-0.023656552887317824
225	0xbfa6c292df7a6408	-0.04445322969440474
226	0x3fb04725e64c4543	0.0635856330157099
227	0x3fb8ce968635d4d3	0.09690228249185688
228	0xbfb7704349113ff2	-0.09155674489852553
229	0xbfc0677114dfdc54	-0.12815679091702015
230	0xbfc1c035f431b651	-0.1386783068041262
231	0x3fb1a01cde5d4d7f	0.06884937695331493
232	0x3fd02c6663eda72d	0.25270995863557993
233	0xbfc85504e86806d2	-0.19009457920042522
234	0xbf87e86dac6420b4	-0.01167379076333961
235	0xbf92822a8c0ac51d	-0.018074669644822728
236	0x3fa4e60ab2fc8c37	0.040817579602184066
237	0xbf7d66f049d57e39	-0.007178248049370555
238	0x3fa91ccce73eb8ab	0.049047854641103804
239	0x3fd2f3124dc20725	0.2960859069208815
240	0x3fb1808eb10381be	0.06836788007377145
241	0xbfbfec66cd3dd04d	-0.12470095167901825
242	0x3fb586ec2589a4cd	0.08409000317046207
243	0xbfa4a733b3700a72	-0.04033814969445339
244	0x3fc9be7a79c9ce1e	0.20112544008917238
245	0xbf8c867e74e691de	-0.013928401892209171
246	0xbfb8357c53fbe33d	-0.09456612635029855
247	0xbfa7a7bd7074db48	-0.046201629617306283
248	0xbfb006cc7d2f029a	-0.06260374122849513
249	0xbf958592da54ee6d	-0.02101735551444366
250	0xbfc0f0c565305998	-0.13234775009977962
251	0xbfca8f1d623052f2	-0.20749251646397898
252	0xbfce6f280acb7cf0	-0.2377672245702125
253	0xbfaac45016544d11	-0.05227899811338877
254	0xbfd048be40bf08b9	-0.254439891079652
255	0x3fb0c6f487a47b08	0.06553581534943131

lstm.weight_hh_l0 f8 [256, 64]
0	0xbfa82d4a26670675	-0.047220532596395616
1	0xbfc1fb0b7afbd779	-0.14047378068033448
2	0xbf9a2c2eafae645a	-0.025559167359095226
3	0xbfbf9637852c8a71	-0.12338587762182286
4	0xbfb7db6b6505e029	-0.09319182602291733
5	0xbf63e67eeac105e3	-0.002429244885235647
6	0x3fb11274fc7bccc9	0.06668788112783654
7	0xbfc164f82c286517	-0.1358938422788831
8	0x3fa41698ad01f650	0.03923489677343339
9	0x3fb36483d7bcead6	0.07575248734512327
10	0xbfbbdf824217e335	-0.10887922395330636
11	0xbfb07b3f7b53be4a	-0.06438061486164162
12	0x3fb33c76d635734c	0.07514136056620407
13	0xbfaeb8d0146bc8d2	-0.06000375985412777
14	0xbfbfd532dcf33ebd	-0.12434690374652298
15	0x3fb836086dac52fe	0.0945744769818013
16	0x3fa68d585e15a818	0.04404712818616491
17	0x3fa4a4d9c5cd0ce5	0.04032021083414764
18	0xbfc0ee74d17508b3	-0.1322771094074305
19	0xbfbb49c2322f5fd7	-0.10659421658726785
20	0x3fb062d6eb4394c2	0.06400817149877283
21	0xbfc1d653c963d3f6	-0.1393532498692875
22	0x3fb379a45450c1b7	0.07607485826952752
23	0x3fa79dfd5076b4d6	0.0461272392961775
24	0x3fb41e5caf00d8d9	0.07858828804532737
25	0x3f9f2bd9e17c8556	0.030440716159437407
26	0x3fb0803a659a854d	0.06445660572582775
27	0x3fb911fa7e66f971	0.0979305800055721
28	0xbfb2bbc58c3b3117	-0.07317766831983295
29	0x3fc651df1dc8db91	0.17437352136923015
30	0xbf8bdc1f1b2c71bf	-0.013603442208073411
31	0x3f918f25d783fd05	0.01714762809660632
32	0xbf9b5f113caff59e	-0.02672984059244287
33	0x3fa1077c6a2faf4e	0.03326023861140347
34	0x3fbd8d45320581e6	0.11543686362484315
35	0xbfc3e8cea37d8fbb	-0.15554221136983223
36	0xbf7b62a809772857	-0.006685882944518515
37	0xbfb2f6368410ab59	-0.0740694115089985
38	0xbfc436b87d0cc0b1	-0.15791994195888528
39	0xbf9811fc392c7114	-0.023506108274078022
40	0xbfa6639739b9b6c4	-0.04372856692940055
41	0x3fc28890bb604f22	0.1447926440165413
42	0x3fba593d8353603c	0.10292419868653807
43	0xbfc59a108f86a9ab	-0.16876418121439704
44	0xbfae283cbf704cf3	-0.05890073620698812
45	0x3fa551744137b923	0.041637070618764115
46	0x3fb2778331869ecc	0.07213611563804107
47	0x3fac2b87668a2eda	0.055019599215567275
48	0x3fc2007ef02113c9	0.14064013218935958
49	0x3fb5858fe81dd450	0.08406924645335434
50	0xbfa8460a0152ef23	-0.047409355794540774
51	0x3fc21c0bdce72a5c	0.1414809063556558
52	0xbfb4d6a50724df36	-0.08140021728911226
53	0xbfb9b278e4b84540	-0.10037952026347785
54	0x3f9af770df675154	0.026334537158463192
55	0xbfc22582fe9399ed	-0.14176976614471873
56	0x3fb9d284e456c48a	0.1008685166805369
57	0x3f9fea330a4acdb7	0.03116683721846211
58	0x3fb43587b9ea4e3e	0.07894180573412599
59	0x3fb8b7fe06d2f761	0.09655749956706706
60	0xbfa35ebe19a3f3e1	-0.03783220351213124
61	0xbfabfc3e62c0004e	-0.05465884166187661
62	0x3fb5f5f6b3ed0c8a	0.08578435795520725
63	0xbf8c2929fc68454a	-0.013750389113769263
64	0xbfa19358ebdbaa97	-0.034327296057957195
65	0x3facc0a16b83a6ad	0.05615715444021183
66	0xbfaa15f0a0ed1b80	-0.05094863857680476
67	0xbfb69071adc44f84	-0.08814154140810443
68	0x3fd0cbaf6755b3a5	0.26243195620809906
69	0x3fb1d664af4a96b1	0.06967763213705315
70	0x3fb1d97dd071b0a0	0.0697249063393337
71	0xbfb9e21151b5b4b1	-0.1011057686316288
72	0xbfc0e17ddfb16149	-0.1318814604044383
73	0xbfb864b2064ef491	-0.09528649000181334
74	0xbfc0a1e8e71b151b	-0.12994109425032083
75	0xbfa1e6e07ea47d45	-0.03496457620553398
76	0x3fc348b1397aa471	0.150655892435029
77	0x3fc411ffabafaec5	0.15679927714460554
78	0xbfbaedc4efedeeb5	-0.10519057138111061
79	0x3fb08de0629dd7b7	0.0646648636592023
80	0x3fcda33077cc099a	0.2315426430651087
81	0x3fb9699caa155fa2	0.09926776077679603
82	0xbfbe3c92317ccefa	-0.11811174114410142
83	0xbfafc5a467ca1459	-0.06205476538620109
84	0x3fcf1d64b6212ba4	0.2430845155052711
85	0xbfa5924e5b375e05	-0.04213185180168114
86	0xbfb2113fd49d6d5a	-0.07057570400995897
87	0x3f898d2704866298	0.012476258111562985
88	0xbfa8dc5d32a97832	-0.04855624431068896
89	0xbf9baee335189194	-0.02703433047840205
90	0xbfa92fe0524d66df	-0.049193391844438265
91	0x3fbbf884395cab5a	0.10926081085623932
92	0xbfbe703afec32772	-0.11890000076087207
93	0x3fce8171163fc3d2	0.23832524858838028
94	0xbfd01adaed375011	-0.25163911023742097
95	0xbfbf9f6b864d6480	-0.12352630642762286
96	0x3fbd3bf666b1d36d	0.1141962052077596
97	0xbfb39b0749ad530f	-0.07658429669147558
98	0x3fb9d3f9fa9b61c8	0.10089075439771655
99	0xbfbfb11f8d75c1e1	-0.12379643634427097
100	0x3fc5894d534757cf	0.16825262609807942
101	0xbfb77862fa60ee4a	-0.09168070423850697
102	0xbfc5d066201aabeb	-0.17042233054721065
103	0x3f9effb25e175e53	0.030272280686260377
104	0x3fc0baa552c58c0f	0.13069597760758753
105	0x3fbb4c5140f44276	0.10663326106829082
106	0x3fc727af4e7597bd	0.18089858370802672
107	0xbfc2d48ceae5c307	-0.14711152524571267
108	0x3fbc91b4874c9458	0.11159828475190758
109	0x3fc656eeb699f1a6	0.17452796856003977
110	0x3fc41d430b10634d	0.15714300194010847
111	0x3fbd1a221b1dc3d0	0.11368001138704575
112	0x3fb4fc0ffde71d15	0.08197116802977107
113	0x3fcb58798a766676	0.21363753567566207
114	0x3fc1e1d159b16215	0.13970391158615372
115	0x3fc6631c8c175754	0.1748996433295199
116	0x3fb0d7506f5cad02	0.06578543394850914
117	0xbfc6244953c29b79	-0.1729823740945127
118	0xbfa3c504f9bc53bf	-0.0386125140050022
119	0xbfb2edf1f65de1e9	-0.07394325508892731
120	0x3fc61420332f8c1a	0.17248919009497926
121	0x3fcb2ddeaeeb04c3	0.2123373369304656
122	0xbfccc049ef4d6ef4	-0.22461818871203543
123	0x3fc0802e8a2bfb7f	0.12891179796858052
124	0x3fc20fd818451f49	0.14110852418002143
125	0x3fb92c7bfb98d4c2	0.09833502666954799
126	0x3fb68871457ef350	0.08801944681813478
127	0x3fc5511da8d42e7e	0.16653795951457434
128	0xbfbc6224c451461a	-0.11087255280406119
129	0x3fbd7b9ec69e7acd	0.1151675448331659
130	0xbfb87eeddb5ba30d	-0.09568678479594102
131	0xbfa7b58e134e65ec	-0.04630702958747776
132	0xbf843a96f15585db	-0.009877375831538629
133	0x3fb68d39b3e024d1	0.08809242860310752
134	0xbfaa714ffb96f7a9	-0.05164575525439769
135	0xbfb91a8824b44333	-0.09806109329316541
136	0xbfb863371f281a61	-0.0952639056268736
137	0x3fb34643c0e295aa	0.07529090365513605
138	0xbfaecd89ec941fcd	-0.06016188633844841
139	0x3f92db52b0ba0278	0.018414775883231788
140	0x3fb2ebaf3edc6b1a	0.07390876087849244
141	0xbfb521a47e72e2e0	-0.08254459464195518
142	0xbf893377b5496bb6	-0.012305197925504757
143	0x3fc00f0ca89d146d	0.12545927270017235
144	0x3fb57496a1d2a887	0.08381024790529255
145	0xbf853b3f5b348067	-0.010366911860330853
146	0xbfc050fa504e47c8	-0.1274712459676819
147	0xbfc4be90e5ea582c	-0.16206561304415013
148	0xbf974bf34f237cef	-0.022750665383566234
149	0xbfb4674ad02423e6	-0.0797011144787941
150	0x3fb26d2980da6933	0.07197818179921427
151	0x3fbe2c06b84f38bc	0.11785928725950873
152	0xbf8eae967d110325	-0.014981437389111793
153	0x3fb28f3979472c5f	0.07249793253792934
154	0xbf8a28993694f915	-0.01277274797268694
155	0xbfb6a5e658de561a	-0.0884689299549212
156	0x3fbd418ab5f945e8	0.11428133909910054
157	0x3fa8bc0529bd5814	0.04830948004261884
158	0xbfb616482d0ed7ff	-0.08627749538467809
159	0xbfc4cba57fb7a1fa	-0.16246479736516034
160	0xbfa0ee6d8b9949c2	-0.03306906060301486
161	0xbf9f8068fbffb6ae	-0.03076328313902959
162	0xbf8a2b8a29a623a6	-0.012778357883478208
163	0x3fb992dea7dbd162	0.09989730451690584
164	0x3fb2cb4df5ff047f	0.07341468101278002
165	0xbfa67ea67ddf5041	-0.043935015549920305
166	0xbf62e8e25c4d40e8	-0.0023083134750906294
167	0x3fb485631bee0593	0.08016032630805218
168	0xbfa626d7651876e3	-0.04326508626057348
169	0x3fbdc3dd06574013	0.1162698879700204
170	0x3fa3d89cbd23cd33	0.03876199539981897
171	0x3f90004594509579	0.015626036813178843
172	0x3fb37325b5e0a135	0.07597575846069023
173	0xbfb2f57b850ba53e	-0.07405826566868698
174	0x3fbbf6ac2d56cbf6	0.10923267466459649
175	0xbf90af338538bf78	-0.016293339735227147
176	0x3faaf931dad87a78	0.05268245502906138
177	0x3fbb92e6bc1ab367	0.10771028606786857
178	0xbfb676a814bf89bc	-0.08774805552051296
179	0x3fa96b7ea0794ee0	0.04964824398908063
180	0x3fa0cc4fd8e79e16	0.0328087761188806
181	0xbfb6728dc2ea8da8	-0.08768545159050822
182	0xbfbcf54e01206152	-0.1131180527448852
183	0xbfa84605f4b7ae1e	-0.047409235117666024
184	0xbf99d04a60591d30	-0.025208627825375973
185	0xbfa839c008692ecf	-0.04731559851333388
186	0xbfb421cac84978c5	-0.07864062681025803
187	0x3fb1ff5363917f3c	0.07030221157901634
188	0x3f6becd620d9e19d	0.0034088308519210756
189	0x3fc0f7f06c8a3564	0.13256650256918612
190	0x3fbba9e2a880e0b4	0.1080609952340435
191	0x3faba63c926b6345	0.05400265967700205
192	0xbfa874bd735fb4ac	-0.04776565583584022
193	0x3f960e3760b56110	0.021538605954760703
194	0xbfc0f49e0f09d959	-0.13246513113308359
195	0x3fb16c8fe97dc4f8	0.06806277704687946
196	0x3fb3cc7751053841	0.07733865478550773
197	0xbfb9c1c801cc57af	-0.10061311763669666
198	0x3fae42aec27ca55a	0.05910249828441279
199	0x3fa49b1af7913c53	0.040245859833355845
200	0xbf6519d5724eb09f	-0.0025757950665675346
201	0xbfc018a268a8f2af	-0.1257517825159957
202	0x3fc22ab7d85327a5	0.14192865431533366
203	0x3f829b6d9ed4bc6b	0.009085518273961498
204	0x3fc03e9b11b076ba	0.126910575520858
205	0x3fb35029f3a5f30e	0.07544195364421233
206	0x3fa19887e594951c	0.03436684300894852
207	0x3fc2ad87bc08aad6	0.14592072182980215
208	0x3fc6b0a930a11db6	0.17726626276474428
209	0x3fc52268937f5d4a	0.16511256410624703
210	0xbfae8463249da187	-0.05960378477067523
211	0xbfb11af1ec15dbd1	-0.0668173982029281
212	0xbfb088e03ade6808	-0.06458856045938444
213	0x3fa3ce43609c0b8a	0.038683038275869455
214	0x3fb541aa64c35827	0.08303322753940333
215	0xbfc587185ee07113	-0.1681852782502423
216	0xbf9084dad39e5413	-0.016131800810018925
217	0x3fb394948b87da43	0.07648590475569343
218	0x3fa3345124fe055a	0.03750852181020532
219	0xbf9a652d3a4afbf7	-0.025776583369175623
220	0xbfcd4e4b57e7edb3	-0.2289518527248738
221	0x3fa3d355392bef38	0.03872171709914912
222	0xbfb98ab869168a53	-0.09977295461298157
223	0xbf903cbf139a74fe	-0.015856729098790538
224	0x3fc28765314665d4	0.1447569361305755
225	0x3fb23b1e23e260be	0.07121456504899279
226	0x3f770e01e4e8cfb2	0.005628592871790449
227	0x3fb4cfb04d0897b3	0.08129407768919243
228	0x3fb203ab3b23c0e4	0.07036848253096967
229	0xbfc62ef4fbd61a46	-0.17330801293083392
230	0xbfc4488524ebd66e	-0.15846313765330272
231	0xbfb8e48eafd45283	-0.09723750870427676
232	0x3f8b1725619765ea	0.0132277412803203
233	0xbf9f84075a76d916	-0.030777087112903244
234	0xbfb3364243403975	-0.07504667417399509
235	0xbfc173d7755962f9	-0.13634770612659233
236	0x3fb32762eda62a3d	0.07481973936061422
237	0xbf96039a962150b4	-0.021498122609344875
238	0x3fb723e9406da44f	0.09039171050030002
239	0x3fa36a02af5ac6d7	0.03791817083891907
240	0xbf88fd12c5194597	-0.012201449050879982
241	0x3fb9e1923ebcc96c	0.10109819442440021
242	0x3fb2f78ebdf9a426	0.07408992899003461
243	0x3fc6d1809fd99be7	0.17826850705316064
244	0x3fbb454280ec9ba8	0.10652557036938382
245	0xbfc94607158ca41b	-0.19744957496848844
246	0xbfa3d9439cfef74c	-0.038766968645616545
247	0xbf9e11a07c5e7813	-0.029364116278536367
248	0x3fbe48c4a7d33812	0.11829785439769605
249	0x3fbc77247abeb09d	0.11119297024441939
250	0xbfb8ceef5d920e45	-0.0969075778430631
251	0x3f9622faa9228a40	0.021617809842277902
252	0x3fb951094be4ae4e	0.0988927660261478
253	0x3fa645a80294329c	0.043500185313040535
254	0x3f7f7c3cb3670b2e	0.007686841118302463
255	0xbf9500785af3d0ec	-0.020509605933470107

lstm.bias_ih_l0 f8 [256]
0	0xbfa391182b29bc0d	-0.03821635748760608
1	0x3fca700de0a8f369	0.20654462308621227
2	0xbfac53bfeecba3e2	-0.05532645978912122
3	0x3fae3dffba8ae545	0.05906676437502737
4	0x3f95aa769e9a5296	0.021158078604076445
5	0x3fafd50c21e84478	0.06217229761035353
6	0x3fc4c602890bb597	0.16229278270422462
7	0xbfa2217cdebedff4	-0.03541174143850859
8	0x3fbedc8d9ac5c881	0.12055287388446524
9	0xbfa905ba1bd43c13	-0.0488718184443472
10	0x3fbe342239961499	0.11798299699701643
11	0xbf8a09392271029e	-0.012712904323167348
12	0x3f69ce155ab5b457	0.003150026042638514
13	0x3fc49f3052659be5	0.16110805533682462
14	0xbf90243770838f41	-0.01576315521459937
15	0x3f7a6f5f7380b27a	0.006453869682485286
16	0x3fcef648550c91be	0.2418909468916705
17	0x3f9f7fe4b27166ed	0.030761311904234857
18	0xbf9205a1ef9a1a09	-0.017599611519949963
19	0x3fb2d92bac147add	0.07362626029178494
20	0xbf250089f265af46	-0.00016023334428482745
21	0x3fc3595d0e2b5119	0.15116465751510402
22	0x3fc7d3d567222aa9	0.18615214858831067
23	0x3fcebc023c49a906	0.24011257117974355
24	0xbfb52af3b68f678f	-0.08268664557490822
25	0x3fa1e8370778c820	0.03497478452881375
26	0x3fc72184b287cc47	0.1807103988390699
27	0x3fbf0101bedf296f	0.12110911283449409
28	0x3fc33cdcc72f558f	0.15029487348389778
29	0x3fbd76193912eda8	0.1150832905140563
30	0x3faf2df7b46f182e	0.06089757993281385
31	0x3fa9645141d45768	0.049593486104796025
32	0x3fc4462da851ff1b	0.15839167326702683
33	0x3fcf24dff88fbe66	0.24331283222953742
34	0x3fc61992db0fa55a	0.17265544601768107
35	0xbf774ee2a85af5f9	-0.005690465337179423
36	0x3fa8358b85a5e3d3	0.04728351599164395
37	0x3fad7aa77fbdacae	0.05757640299165111
38	0x3f92465aaa2d3e1d	0.017846504818690535
39	0x3fa16c8eba0fbea6	0.03403135319956378
40	0x3fb93cd26031d54e	0.09858431671621767
41	0x3f89ff2d9c3a291d	0.012693744974303695
42	0x3f7758f08ff0dd72	0.00570005387913085
43	0x3fb44d8f27e2ff7e	0.07930845950886398
44	0x3fca8b476181a6db	0.2073754526239132
45	0x3fa74a5c2ab9b2f5	0.045489196982861836
46	0x3fbb15aa625ff824	0.10579934026461096
47	0x3fb740a18c89cf10	0.09082994156943536
48	0x3fb4333e34fbb8f2	0.07890690606629727
49	0x3fbff0f2c7f36cad	0.12477033025372704
50	0xbfa592e182ac16da	-0.042136237336348706
51	0x3fc8a4b60928260c	0.19252658316717974
52	0xbf73eedd9cc9684e	-0.004866471933008111
53	0x3fb255d4048227b8	0.07162213430470288
54	0x3fbf26688b04e13d	0.1216798152353293
55	0x3fc4f11faac9b536	0.16360851134542437
56	0x3f96d6921d1cf29e	0.02230289747898217
57	0xbf44f3731f131544	-0.0006393730274331451
58	0x3f7381574b9b1ef5	0.004762021062283618
59	0xbf976e3dffcd7d22	-0.02288147805972785
60	0x3fc2e5953c54e6bc	0.14763131566887988
61	0xbf957531e4830e92	-0.020954875538122204
62	0x3fc932992332947c	0.19685663431770084
63	0x3fb16ba71df95ad0	0.06804890138424047
64	0x3f96a4d6e64db628	0.022113187605489554
65	0xbfc136ebcebd7492	-0.1344885596726369
66	0x3faa2c90950566cc	0.05112125224213812
67	0x3f903f8ee7af074d	0.01586745537839045
68	0x3fa1c956f6b611fd	0.03473922502147173
69	0xbfb3a140199db0df	-0.07667923570051326
70	0xbfbecf9ea35c0af0	-0.1203555249049193
71	0xbfbe27a1c4f4884a	-0.1177922349784534
72	0xbfb364e9c6541d33	-0.0757585629654514
73	0xbfb44ff1fb42cfc3	-0.0793448675565847
74	0x3fa0bfcf59120f58	0.032713393805379354
75	0x3fbbe2895ec7dfc3	0.10892542423232414
76	0xbfb74a3528d890be	-0.09097606894698892
77	0xbf9b8e2b14556766	-0.026909516445221902
78	0x3fb6287d9aabcac8	0.08655533815526006
79	0xbf9dd4f60ed442c7	-0.02913269486913597
80	0xbfabc3b98aa4b8b0	-0.05422763650345652
81	0x3fa92ca54a306a78	0.049168744379319784
82	0xbfbd13b70c3da8be	-0.11358207749222779
83	0x3fadac84fe4b04ce	0.057956844369536506
84	0xbfb63d4e063570a3	-0.08687293674069223
85	0xbfc7623accafcdf0	-0.18268523210973298
86	0x3fa6059ffd50bb17	0.04301166503170444
87	0x3f979c13bedeacaa	0.02305632450558607
88	0x3f901eec952f17d6	0.015742966275659707
89	0xbfbe227d292e9fb0	-0.1177137589971824
90	0xbfc20c4a767cefff	-0.14100008760021862
91	0x3fb8e5e9039dd525	0.097258151419585
92	0xbfc80a9b3bcb2055	-0.1878236810646309
93	0xbf9f87eed52a1ccf	-0.030791980515030567
94	0x3fbd33453e7d5d8c	0.11406357551219609
95	0x3fa334a1935aaa5a	0.037510918843811594
96	0x3fbf3ce8d7755462	0.12202315578663694
97	0xbfa914840afcf41a	-0.04898464807636334
98	0x3fb1b1f2f4e40e4e	0.06912153700619081
99	0xbf9f4b16c70f4791	-0.03055987920726683
100	0xbfacb388d26e5747	-0.056057239234333305
101	0x3f704a47ded4ce86	0.003977089637647096
102	0xbfc04b56b906b599	-0.12729915651781878
103	0xbfaf1f07065a7426	-0.06078359558635098
104	0xbfacb5bd24f66325	-0.056074057352083075
105	0xbfc4aed22796fb2b	-0.16158511097997894
106	0xbfb3f657dc452274	-0.0779776489990896
107	0xbfc61e9e36395ce0	-0.17280938766155085
108	0xbfc7661b270a0f0f	-0.18280352979865497
109	0x3f958b8c627689d6	0.0210401473137923
110	0x3fad90f67b63fbff	0.05774660354835958
111	0xbfb3f54b36cb4e1f	-0.07796163642643038
112	0x3f9be4dc7675f995	0.027240223627353528
113	0x3fa110146d865a15	0.033325804109313996
114	0x3faa02e90e24cbe4	0.050803454376726426
115	0x3fc1433e05283f44	0.1348645711118427
116	0x3f9935b3b1db420e	0.02461891911554131
117	0xbfc8a17cf26cf601	-0.19242822491825964
118	0x3fae0106d29350b7	0.0586015827226744
119	0x3fbf5c233c9205c1	0.12249965885896243
120	0xbfbfc68b0e84fa7c	-0.12412327866057099
121	0xbfc24a669afcdd12	-0.14289553230057855
122	0x3fbdbd118d374591	0.1161662072911638
123	0x3fafdc79b214889d	0.06222896860914882
124	0xbfcda8b525f10201	-0.231711047674267
125	0xbfc5230d87fba0c9	-0.16513222827712173
126	0x3fc149ca21dec7c8	0.13506437925167192
127	0xbfc213a0202fd7d1	-0.1412239224588903
128	0xbfb9f3e1a2703166	-0.10137758460786514
129	0x3fb2e08ed63f8fd6	0.07373898249312502
130	0x3fa84d000baf403b	0.04746246473916967
131	0xbfbd09a404d6bf9e	-0.11342835538994087
132	0x3f73672eb2a67733	0.004737074292646959
133	0xbfbeecb66ad1aa23	-0.12079944713483619
134	0xbfa5e703b569f433	-0.04277812566304142
135	0xbfa7b49b44e79e73	-0.04629979339716508
136	0xbfbe00a0a570a654	-0.11719707526267459
137	0xbfb3174eaa6fe989	-0.074574390993723
138	0x3f9186820ce6ed68	0.017114669835547686
139	0xbfae2776314be366	-0.05889481879962126
140	0x3fb6ec905e3cbcb5	0.08954717922891826
141	0xbfb7d32a8feec5cf	-0.0930658913992126
142	0x3fa8871443f2d57e	0.047905572218421164
143	0x3fb9c9a9c0f34a1e	0.10073338471128365
144	0xbfa16d8136b0b1d2	-0.03403857987027305
145	0x3fb42b142394667c	0.07878232830662485
146	0xbfbc31ff228c711c	-0.11013788789245321
147	0xbfc1c8093d10662c	-0.1389171169437743
148	0x3fc63a4716e5ccd8	0.1736534940533605
149	0x3fb8d679e1830da1	0.09702264552747987
150	0xbfa704f138641108	-0.044959581502583446
151	0x3fbb3c0c271d3787	0.10638500170645503
152	0xbfc506a1aaae26c7	-0.1642648776435662
153	0xbfbe495cbe84eed6	-0.11830691958760595
154	0xbfa68b33b5a69f35	-0.04403077690522964
155	0x3fb15cb8dc029646	0.06782107707348314
156	0x3fb1bce344f81bda	0.06928844865625142
157	0x3fbedc0c91a809c4	0.12054518276276044
158	0xbfc16c7fd43184b0	-0.13612363682753914
159	0x3fbd42ff3bb40308	0.11430354316327052
160	0x3fbdf1036fcd46af	0.1169588230088958
161	0xbfb428cc0099028e	-0.07874751104919595
162	0x3fb03b99295a38ff	0.06340939769345154
163	0x3fa9f3cfcf39aa3c	0.05068826107602262
164	0x3fb9db949970f74e	0.10100678201794475
165	0xbfaee5d2c6a98d2b	-0.060347162962694455
166	0xbfb0681b049ccc61	-0.06408852446183878
167	0x3fbd137825bfcd2c	0.11357832833873677
168	0x3fb3d74bf9f9b285	0.07750391819872433
169	0x3fb7ecbe6e164e02	0.09345617473291415
170	0x3f9b8019164225d4	0.026855842574638647
171	0x3fa60a1ddd9736f3	0.043045934009212326
172	0x3fb06fe92da3a2fa	0.06420762409437578
173	0x3f7a272ecf867317	0.0063850239315825985
174	0x3fbac1d81d87704e	0.10452032776760342
175	0xbf8b605c2f906238	-0.013367386056459471
176	0xbfaf58b8733a8282	-0.06122375876043852
177	0x3fb68cfe816bf367	0.08808890018185665
178	0x3faf116f557fe0a2	0.06067989271827058
179	0x3fc9fbbe65f8dd1b	0.2029951093588601
180	0x3fc00b7235880025	0.1253493081458156
181	0x3f9f0d5441d4ff90	0.030324284093921572
182	0xbfaebacf3cf93825	-0.060018993561797886
183	0xbfb37bcd47f443e1	-0.07610781676000002
184	0xbfa9eb44d6abb179	-0.050623084263722036
185	0x3fbb479a67c87b22	0.1065613273026256
186	0xbfb349c248db8cf0	-0.07534422186613532
187	0x3fc00ef42823b425	0.12545635185179652
188	0x3f9d1d744ed41d4b	0.0284326718438284
189	0x3fbe0021074d59e5	0.11718946865344256
190	0x3fc02829cdfd1c41	0.12622568662684056
191	0xbf6423610743edba	-0.0024582762799789356
192	0x3fa226029bda6411	0.035446244740519835
193	0x3fcc33f48edc6acf	0.22033555007586478
194	0x3f813a3ca10c2a5f	0.008411859192638703
195	0xbf869cfce749fe25	-0.011041618164426012
196	0xbfaba04705de2d99	-0.053957194773001045
197	0x3fb402ddf24d2d35	0.07816874661982783
198	0x3fad7e7b6b135ac0	0.057605606861832026
199	0x3f82d70a89e1beb8	0.009199220974749664
200	0x3fbc6fefd77f50ca	0.11108302127042005
201	0xbfb4ee86f82af229	-0.08176463660033363
202	0x3fb4b27449f95b65	0.08084799581534481
203	0xbfb2f1d6d43bfeff	-0.074002672972707
204	0x3fc3fdfb054f8a13	0.15618837127028992
205	0x3fb1ae9b4da3f1a7	0.0690705360938809
206	0x3fb2914eada244a8	0.07252971400363839
207	0x3fb0f6f4b7176730	0.06626824827199296
208	0x3fb39c6acc7ac802	0.07660548679521642
209	0x3fb945c1ccfda606	0.09872065786989745
210	0x3f984f3c5dfe68be	0.023739760624814414
211	0x3fb9d2b72de660d7	0.10087151404002569
212	0x3fbdbba2f33e8724	0.11614435614185631
213	0x3fc703807af14459	0.17979436877297664
214	0x3fb9bf87edaeadc1	0.1005787806777141
215	0x3fb586a36c187dcf	0.08408566845945774
216	0x3fbd7d7a2cad645c	0.11519588080172255
217	0x3fc87b234ef9222b	0.19125787120926083
218	0x3fbd8f8fa2aabbd3	0.11547181817398604
219	0x3fbd014760e1ee88	0.11330076327606708
220	0x3fbc2d65963e8e3b	0.11006770055842534
221	0x3fc3b4613100676d	0.1539422501817244
222	0x3fa91ac68671ea80	0.049032405769101395
223	0xbf92f27879116116	-0.018503076924703064
224	0x3fc2d172832c3d8a	0.14701682476923522
225	0x3fc7e8fb8530b8f7	0.1867975616782542
226	0x3fc5f7d7401f3116	0.17162600165318825
227	0xbfa0d7f63b1e8908	-0.03289765807791595
228	0x3f64492ed301eabb	0.0024763025795072314
229	0xbfa66071fbb9c9e6	-0.04370456884216249
230	0x3fc4f84a77988fbf	0.16382723655362771
231	0x3fbb821860b490bf	0.10745384560556469
232	0xbf8d2e306845ef5d	-0.014248254949727085
233	0x3fc89e33987f19f4	0.19232792802922882
234	0x3fb02fd19d41a2bb	0.0632296570708019
235	0x3fc0bc36fc2569e1	0.13074385940383507
236	0x3fbcbd2d2d9d4900	0.11226160396225637
237	0x3fc685fcaa016efc	0.17596395779661822
238	0x3fa5fd5fbebec683	0.04294871524269885
239	0xbfb4f296709e96a1	-0.0818265938711087
240	0xbf68667017212f54	-0.0029785336746836286
241	0x3fc80d1efdc7736a	0.18790042296941617
242	0x3f9e581545a149b3	0.029632885336761294
243	0xbfae147ef20d608a	-0.058750121161836935
244	0x3fbdd116f656a1ba	0.11647170557137701
245	0x3fcbc062f3f7e827	0.21680867111700872
246	0x3fbce5e4a30a871c	0.11288289051529116
247	0x3fbb1c03e7cbcb67	0.10589622887691306
248	0x3fc1ac3b5cd0e5d9	0.1380686000064049
249	0xbf9c32c2652678b3	-0.02753738157627401
250	0x3fc1b2a69e27f276	0.1382644912954622
251	0xbfb25de776de35db	-0.07174536373187072
252	0x3fc357d1b99d25c3	0.15111753047157891
253	0x3fc32efab235213b	0.1498711939004894
254	0x3fa12921605fdef8	0.03351692487188801
255	0x3fa50db0cf21ed1a	0.04112007645104594
