weights/weights_MOCA_5.pt (torch, 52845 bytes, 14 tensors)

baseModel.mlp1.layers.0.weight f4 [32, 20]
-0.025293436 0.04709978 -0.08525457 0.27608693 -0.10399701 -0.14309192 -0.05275455 0.012174621
-0.1319654 0.068145886 0.113079265 0.18109657 -0.05145074 0.10028736 0.13298738 0.0032830955
0.120622315 -0.18527031 0.14477839 0.053157806 0.10119684 0.073821045 0.21635197 0.15346286
0.016761964 -0.1787353 -0.3046063 0.09235877 0.19064483 -0.10636706 -0.3182042 -0.24169937
0.12474051 0.031349577 0.107404634 0.019043561 0.022390915 -0.12915054 -0.07362464 0.07825173
-0.061713167 -0.23529947 0.44261348 0.13412924 -0.26064643 -0.14379796 -0.16315074 -0.16161883
-0.061647717 -0.01742797 0.13351148 0.15196745 -0.118824154 0.15808484 0.15093006 0.24217333
0.053671546 -0.024494497 0.155002 0.044797875 -0.007546116 -0.17518447 -0.3989189 0.061342668
0.39642775 -0.32966566 -0.23354028 -0.014644026 -0.040831737 0.33674645 -0.103132 0.19913831
0.04987368 -0.08401401 -0.20514952 0.16472688 0.1409893 0.121553816 0.14803922 -0.10712909
-0.23128124 -0.17413709 -0.048335943 -0.11768118 -0.27409375 -0.055277325 -0.13089642 -0.20468497
0.17714038 0.13870838 -0.15287441 0.18542397 -0.27086526 0.12648185 -0.21992113 0.2320078
-0.18775089 -0.08318821 -0.11029434 0.221498 0.17777564 -0.053177714 -0.2862294 0.051556617
-0.13212965 -0.041392624 0.057549123 0.030942611 -0.16497473 0.1262984 -0.30766022 -0.107881114
0.0024158477 -0.0035250613 -0.2779546 -0.09370298 0.013910899 0.113139965 -0.00880438 0.033181485
-0.019267056 0.16141768 -0.1145808 -0.18653901 -0.24889661 -0.21475005 0.21145098 -0.040490218
0.11191226 0.0853268 0.24136452 0.1518173 0.04253647 0.027842479 0.0666143 0.09602871
0.062092498 0.14732087 -0.18260193 0.229142 -0.14425793 -0.09450503 0.16376309 0.13272601
-0.31521115 -0.21421474 0.1638208 -0.101459324 0.08027783 -0.0051513123 -0.14472832 0.042612642
0.1624022 0.14830111 0.03488092 -0.40713236 0.14228018 0.067576036 0.08891272 -0.12107644
0.090658344 -0.2008735 -0.10103607 -0.2129459 0.031485125 0.1387667 0.24515381 -0.18298633
0.21728526 -0.027926596 -0.24226162 0.08738467 0.056825906 0.12369964 0.15948308 -0.13104588
0.04530105 -0.27151492 0.049639124 -0.20221867 0.14242503 -0.12870738 0.121757045 -0.13977063
0.29498926 -0.25504032 -0.15101692 0.18126158 -0.12409831 -0.27561772 -0.15762927 0.14713243
-0.056515615 0.11232107 -0.015229041 -0.22693758 -0.0045685926 -0.12390149 0.03069486 0.13679484
-0.20422325 0.117821895 -0.036144212 -0.21244983 0.26006344 0.064448886 -0.05784296 0.20540176
-0.42150596 -0.022252973 0.0027397128 -0.22706333 -0.23498811 0.20416614 -0.15381315 0.06938272
0.17287117 0.1468322 -0.2510336 0.1725464 0.1557296 -0.17267364 0.18037133 0.12677228
0.088401556 0.27888992 -0.05236619 0.28059137 -0.14985561 0.13204153 -0.0010752585 0.07008398
-0.19727375 -0.060987674 0.011107351 0.09903734 -0.112440184 0.1934788 -0.057044834 0.13981438
-0.063465424 0.12744601 0.319226 -0.25291535 -0.04062733 0.0962645 -0.0874266 0.016058223
0.08667124 -0.14185232 -0.29344785 0.0491907 -0.09931986 -0.20614468 0.18188748 0.05026546
00000000: 2e34 cfbc b3eb 403d f399 aebd 445b 8d3e
00000010: 62fc d4bd b086 12be 2815 58bd 1078 473c
00000020: f021 07be 1290 8b3d 1a96 e73d 6171 393e
00000030: 03be 52bd 7663 cd3d d82d 083e 3429 573b
00000040: d508 f73d 80b7 3dbe c940 143e 00bc 593d
00000050: 4a40 cf3d 7d2f 973d 5f8b 5d3e 5e25 1d3e
00000060: 6350 893c 6306 37be 5bf5 9bbe 9826 bd3d
00000070: 6638 433e f9d6 d9bd a9eb a2be 0a80 77be
00000080: f477 ff3d 6a68 003d f6f6 db3d 3e01 9c3c
00000090: 276d b73c 0a40 04be 84c8 96bd 7142 a03d
000000a0: f2c6 7cbd 58f2 70be 3c9e e23e 2d59 093e
000000b0: 7373 85be c63f 13be fd10 27be 687f 25be
000000c0: 5182 7cbd 1ac5 8ebc 3cb7 083e 5b9d 1b3e
000000d0: 145a f3bd fee0 213e 698d 1a3e 49fc 773e
000000e0: b2d6 5b3d afa8 c8bc d8b8 1e3e fa7d 373d
000000f0: 6945 f7bb 8f63 33be 193f ccbe 7342 7b3d
00000100: 94f8 ca3e f0c9 a8be 2f25 6fbe 7fed 6fbc
00000110: 2e3f 27bd 086a ac3e df36 d3bd eaea 4b3e
00000120: 5848 4c3d 8a0f acbd b712 52be 2aae 283e
00000130: 805f 103e 35f1 f83d 9897 173e 7f66 dbbd
00000140: fdd4 6cbe fe50 32be e9fb 45bd d502 f1bd
00000150: 0456 8cbe 7a6a 62bd b609 06be f098 51be
00000160: 4a64 353e 9209 0e3e 1c8b 1cbe c8df 3d3e
00000170: daae 8abe 7584 013e 0133 61be 7493 6d3e
00000180: c541 40be 955e aabd 00e2 e1bd 5fd0 623e
00000190: d10a 363e e0d0 59bd a98c 92be 082d 533d
000001a0: ff4c 07be 508b 29bd a1b8 6b3d 5c7b fd3c
000001b0: 23ef 28be 5e54 013e a485 9dbe c6f0 dcbd
000001c0: 3353 1e3b b704 67bb 1150 8ebe 59e7 bfbd
000001d0: 8aea 633c edb5 e73d 3f40 10bc 4fe9 073d
000001e0: f2d5 9dbc ad4a 253e 57a9 eabd 1504 3fbe
000001f0: c1de 7ebe 70e7 5bbe 9b86 583e 12d9 25bd
00000200: 4132 e53d d1bf ae3d 4328 773e ff75 1b3e
00000210: b93a 2e3d e915 e43c 146d 883d b3aa c43d
00000220: b454 7e3d 48db 163e 00fc 3abe 33a4 6a3e
00000230: 5ab8 13be da8b c1bd 83b1 273e 54e9 073e
00000240: 5b63 a1be 1c5b 5bbe a4c0 273e e8c9 cfbd
00000250: b468 a43d 57cc a8bb a933 14be 988a 2e3d
00000260: c34c 263e 3fdc 173e 4cdf 0e3d a773 d0be
00000270: e5b1 113e 4e65 8a3d df17 b63d edf6 f7bd
00000280: 15ab b93d c8b1 4dbe 00ec cebd 7d0e 5abe
00000290: 8cf6 003d dc18 0e3e 9a09 7b3e c560 3bbe
000002a0: 0780 5e3e 51c6 e4bc 6e13 78be bcf6 b23d
000002b0: 48c2 683d 3d56 fd3d 884f 233e e430 06be
000002c0: 988d 393d 0104 8bbe 6552 4b3d 6912 4fbe
000002d0: ded7 113e decb 03be c25b f93d 0820 0fbe
000002e0: d508 973e a594 82be 2ea4 1abe a39c 393e
000002f0: 4127 febd c41d 8dbe 9169 21be e2a9 163e
00000300: eb7c 67bd 9708 e63d 3a83 79bc 5362 68be
00000310: 22b4 95bb 10c0 fdbd c973 fb3c f213 0c3e
00000320: e61f 51be 9b4c f13d f40b 14bd 738c 59be
00000330: 0927 853e c7fd 833d bdec 6cbd d754 523e
00000340: a1cf d7be de4b b6bc c18c 333b 4a83 68be
00000350: b9a0 70be ee10 513e 3281 1dbe 8718 8e3d
00000360: 2405 313e 2e5b 163e 7a87 80be 01b0 303e
00000370: 9577 1f3e 5cd1 30be 43b3 383e 98d0 013e
00000380: e00b b53d a9ca 8e3e ee7d 56bd aca9 8f3e
00000390: c073 19be e535 073e b0ef 8cba 3188 8f3d
000003a0: 2102 4abe 36ce 79bd 9bfb 353c 17d4 ca3d
000003b0: 0a47 e6bd 4e1f 463e d8a7 69bd 802b 0f3e
000003c0: 29fa 81bd 3581 023e 9771 a33e 1f7e 81be
000003d0: d868 26bd 5226 c53d b80c b3bd 898c 833c
000003e0: b180 b13d bc41 11be cc3e 96be 307c 493d
000003f0: 3668 cbbd 9717 53be b640 3a3e 28e3 4d3d

baseModel.mlp1.layers.0.bias f4 [32]
0.07649901 -0.14813526 0.11223975 0.276793 0.18214872 0.13860178 0.14179567 -0.13006282
0.043249764 -0.09586273 -0.039862216 0.24889897 -0.11975413 0.22067742 -0.025976632 -0.10777396
-0.07900329 -0.0072838007 -0.01372839 0.32651648 -0.079821214 0.2294348 0.08555484 0.16046296
-0.12566034 0.08262974 0.07507349 0.23632236 0.064077154 0.086293995 0.21471946 -0.25680247
00000000: 83ab 9c3d c5b0 17be f4dd e53d d0b7 8d3e
00000010: 3285 3a3e a0ed 0d3e e232 113e 302f 05be
00000020: aa26 313d ae53 c4bd 9046 23bd 5fdf 7e3e
00000030: a741 f5bd 43f9 613e f2cc d4bc 98b8 dcbd
00000040: 7acc a1bd f3ac eebb 0bed 60bc 2b2d a73e
00000050: 4e79 a3bd f5f0 6a3e 6037 af3d 6750 243e
00000060: 1bad 00be c839 a93d 21c0 993d 7dfe 713e
00000070: e23a 833d e8ba b03d 6bdf 5b3e 9d7b 83be

baseModel.mlp1.layers.2.weight f4 [64, 32]
0.0693727 0.21710779 0.2687313 -0.27019203 -0.07661394 -0.01483975 0.059413977 0.008101301
-0.12771301 0.01371001 -0.19191092 0.03276453 0.0173049 0.26227632 -0.041560654 -0.03513419
-0.24237023 0.12405785 -0.21667436 0.053971615 -0.070390694 -0.012081033 0.11031167 0.0022281767
0.09464665 0.07026565 -0.24462841 0.074582346 0.035689235 0.10160695 -0.048903435 -0.1651798
0.12449863 -0.11992254 0.11541184 0.114492245 -0.2009724 0.013790626 0.12341262 0.106091276
-0.28590733 -0.2053033 0.19640526 -0.00059784687 0.039123114 0.1797819 -0.009625072 -0.08109061
-0.0068735722 -0.17346257 -0.10921502 -0.19055581 -0.096252955 -0.1492425 0.14025006 0.06386796
-0.15957457 0.09129954 -0.17293239 -0.07622854 0.17200482 0.0666765 -0.0056500565 -0.14835024
-0.1672265 -0.14656802 -0.0796718 0.07689493 0.21027668 -0.0097919 -0.020614404 -0.0100990115
-0.024819773 -0.056236185 -0.0068496075 0.104185894 -0.21002583 -0.10663464 -0.1570689 0.054150287
-0.060133625 0.097678795 -0.13727827 0.19529174 -0.15924548 -0.08782462 -0.108105175 -0.0034037076
0.17831707 0.003695521 0.18653756 0.10736149 0.17532948 -0.14168093 0.20613621 -0.10432957
0.1558461 0.048966143 -0.18694548 -0.010994126 -0.052106258 0.19059442 0.01351038 -0.15754451
-0.0826566 0.10631596 0.11214648 -0.11344413 -0.057247125 0.040110204 -0.06812574 0.21691102
0.09593675 0.21963164 0.08527927 -0.0047884467 0.08708046 0.15311849 -0.040163323 0.100830935
-0.06580081 -0.17142579 -0.11724297 -0.21424857 -0.031504977 0.05383388 0.31724656 0.21497709
-0.046365127 -0.053224247 0.0801704 -0.21951613 0.030210812 -0.043379977 0.17398025 -0.055640444
0.10648418 -0.23142363 -0.0527592 -0.15033646 -0.30674618 -0.5158923 -0.06565409 -0.085328996
-0.003815813 -0.107433714 -0.08349471 0.023135308 -0.20378824 -0.18674636 0.20693044 0.09636023
-0.23962072 0.16019252 -0.082259834 -0.014953293 0.14139126 -0.13418418 -0.076475136 -0.2505848
0.00089413655 -0.13294236 -0.03631722 -0.1584916 -0.11301792 -0.15035832 0.13723022 0.19453807
-0.15498988 0.17560025 0.1891132 -0.039366007 0.11670108 -0.12339425 0.22949484 0.092442356
0.23934445 0.11536006 0.009353674 -0.13684072 -0.02657509 0.040917665 -0.14764476 -0.08672493
0.16617082 0.052429277 -0.20023492 0.11500051 -0.014704127 -0.035695106 0.015281808 0.25121462
-0.0045926617 -0.08647333 0.23295826 0.19981527 0.026902458 0.06471446 0.25024247 0.12641792
-0.106237635 -0.11340113 0.07467039 -0.06809391 -0.03934486 0.120316125 0.05285134 0.006058704
-0.20900491 0.0218162 0.30585 -0.14327556 0.074924566 0.15111117 -0.24823798 0.08294997
-0.1127149 -0.13239218 -0.0050079823 0.015215376 -0.15098406 0.10464487 -0.13475502 -0.29257348
0.13511065 0.038359392 -0.019137684 -0.11454588 0.07928835 0.082287066 -0.22922528 -0.07336092
-0.06441062 0.17713493 0.081676796 -0.08662785 -0.066784166 -0.12368765 -0.16706344 -0.07825525
-0.057258748 0.002855275 -0.04364381 0.01095142 0.18335801 0.19539922 0.12938099 0.09338292
-0.030955793 -0.1637143 -0.20046924 -0.07244665 -0.122956984 -0.207524 0.1344588 0.08369175
00000000: 4613 8e3d 8151 5e3e 2697 893e 9c56 8abe
00000010: c5e7 9cbd 6c22 73bc 125c 733d 52bb 043c
00000020: 33c7 02be f39f 603c 4c84 44be 1a34 063d
00000030: 01c3 8d3c 1549 863e 813b 2abd dee8 0fbd
00000040: e72f 78be 0b12 fe3d e2df 5dbe 5711 5d3d
00000050: ff28 90bd 86ef 45bc 16eb e13d 9a06 123b
00000060: 1ad6 c13d 70e7 8f3d df7f 7abe a1be 983d
00000070: e02e 123d 4e17 d03d f84e 48bd e524 29be
00000080: 23f9 fe3d f399 f5bd 0b5d ec3d e97a ea3d
00000090: b5cb 4dbe 14f2 613c c1bf fc3d 6246 d93d
000000a0: 7262 92be 073b 52be 761e 493e d3b8 1cba
000000b0: 8f3f 203d bf18 383e 7ab2 1dbc d512 a6bd
000000c0: b43b e1bb 2ca0 31be 20ac dfbd 1021 43be
000000d0: 4520 c5bd 07d3 18be b69d 0f3e 34cd 823d
000000e0: 8467 23be 41fb ba3d 3015 31be b51d 9cbd
000000f0: 0822 303e b08d 883d 1c24 b9bb 20e9 17be
00000100: 6c3d 2bbe ed15 16be f82a a3bd 177b 9d3d
00000110: c552 573e 356e 20bc 8adf a8bc 5376 25bc
00000120: d652 cbbc ea57 66bd ac72 e0bb 6a5f d53d
00000130: 0311 57be 4363 dabd abd6 20be b1cc 5d3d
00000140: ad4e 76bd d20b c83d ad92 0cbe 8ffa 473e
00000150: 3f11 23be 65dd b3bd 3f66 ddbd bd10 5fbb
00000160: c098 363e 8e30 723b b403 3f3e 57e0 db3d
00000170: 9289 333e ce14 11be 5f15 533e beaa d5bd
00000180: 1f96 1f3e b990 483d a36e 3fbe b520 34bc
00000190: 5f6d 55bd 2f2b 433e a45a 5d3c 5953 21be
000001a0: dd47 a9bd 2fbc d93d 0ead e53d 6555 e8bd
000001b0: f67b 6abd 994a 243d 8285 8bbd ec1d 5e3e
000001c0: 7d7a c43d 1ee7 603e e6a6 ae3d 67e8 9cbb
000001d0: 3d57 b23d 18cb 1c3e 4c82 24bd 7380 ce3d
000001e0: 93c2 86bd 3e8a 2fbe 151d f0bd fa63 5bbe
000001f0: 5d0b 01bd ea80 5c3d 246e a23e f422 5c3e
00000200: 5ce9 3dbd ab01 5abd 6130 a43d d6c8 60be
00000210: aa7c f73c 34af 31bd e127 323e 3ce7 63bd
00000220: 6114 da3d 51fa 6cbe 081a 58bd cdf1 19be
00000230: d60d 9dbe 8511 04bf a775 86bd f8c0 aebd
00000240: b812 7abb 3506 dcbd 46ff aabd 4286 bd3c
00000250: ddad 50be 703a 3fbe 93e5 533e 8358 c53d
00000260: 225f 75be 8209 243e d877 a8bd a8fe 74bc
00000270: dfc8 103e 9467 09be ff9e 9cbd a74c 80be
00000280: 7d64 6a3a 0b22 08be 5ec1 14bd 9f4b 22be
00000290: f075 e7bd 88f7 19be 1486 0c3e fd34 473e
000002a0: abb5 1ebe 8dd0 333e e4a6 413e 403e 21bd
000002b0: fa00 ef3d 20b6 fcbd b200 6b3e 6b52 bd3d
000002c0: b616 753e e541 ec3d 2740 193c f91f 0cbe
000002d0: 01b4 d9bc 4899 273d 3030 17be d79c b1bd
000002e0: af28 2a3e 15c0 563d 620a 4dbe 6385 eb3d
000002f0: 94e9 70bc 0835 12bd 8c60 7a3c 349f 803e
00000300: 0a7e 96bb ee18 b1bd 9c8c 6e3e 609c 4c3e
00000310: 8b62 dc3c 0489 843d c81f 803e b373 013e
00000320: 1e93 d9bd da3e e8bd caec 983d d274 8bbd
00000330: 1328 21bd 4d68 f63d a67a 583d 1888 c63b
00000340: 6205 56be e3b7 b23c 5f98 9c3e d4b6 12be
00000350: 0d72 993d e3bc 1a3e 1932 7ebe ade1 a93d
00000360: 12d7 e6bd d191 07be 001a a4bb ea49 793c
00000370: 919b 1abe 0d50 d63d 38fd 09be 31cc 95be
00000380: 725a 0a3e bd1e 1d3d a2c6 9cbc 0897 eabd
00000390: ee61 a23d 1f86 a83d 08ba 6abe 403e 96bd
000003a0: b7e9 83bd dc62 353e 2a46 a73d f169 b1bd
000003b0: 23c6 88bd f34f fdbd ae12 2bbe 4a44 a0bd
000003c0: 2688 6abd 911f 3b3b dac3 32bd 966d 333c
000003d0: 34c2 3b3e bc16 483e 737c 043e 8b3f bf3d
000003e0: 0197 fdbc b9a4 27be cf47 4dbe e95e 94bd
000003f0: dfd0 fbbd 2c81 54be 91af 093e 9566 ab3d

baseModel.mlp1.layers.2.bias f4 [64]
0.19280218 0.05808385 0.28902867 -0.014864259 -0.021117775 -0.08618358 0.15750565 0.25633344
-0.115007505 -0.004773262 0.09112383 -0.084961854 0.031071536 -0.0035969228 -0.015520493 -0.09152023
0.089424975 -0.071613036 -0.1044772 0.17384072 -0.06852085 -0.0624841 0.22284397 0.21983159
0.12189555 0.020669127 0.19163042 0.14177242 0.09544029 0.17324066 -0.09889085 0.09636878
0.14876246 0.017828086 0.03856158 -0.17694257 -0.103237666 0.17109753 0.026529362 -0.018488586
-0.17583895 0.16356361 -0.026868034 -0.12452944 0.21685727 0.17132647 0.05073052 0.14556803
-0.19653098 0.22197665 0.04782499 -0.03443719 -0.14045677 0.23567432 -0.018778548 0.09133574
0.1683944 -0.030827625 0.06815607 -0.13364382 0.15093459 0.28031534 0.10747158 -0.02117842
00000000: ef6d 453e 55e9 6d3d 91fb 933e 3989 73bc
00000010: 2fff acbc 0481 b0bd 2949 213e 233e 833e
00000020: 0e89 ebbd 0669 9cbb 219f ba3d 7b00 aebd
00000030: bc89 fe3c 5aba 6bbb aa49 7ebc f56e bbbd
00000040: 7124 b73d dba9 92bd 24f8 d5bd 4d03 323e
00000050: a954 8cbd 54ef 7fbd 3631 643e 881b 613e
00000060: 60a4 f93d 4d52 a93c c43a 443e ca2c 113e
00000070: 3376 c33d 0066 313e 4987 cabd ff5c c53d
00000080: 3055 183e 350c 923c bff2 1d3d 6f30 35be
00000090: 456e d3bd 3134 2f3e 1b54 d93c 6075 97bc
000000a0: 200f 34be 387d 273e 5a1a dcbc 4b09 ffbd
000000b0: d50f 5e3e 3570 2f3e ceca 4f3d c90f 153e
000000c0: 6b3f 49be d94d 633e 23e4 433d 030e 0dbd
000000d0: e6d3 0fbe 9c54 713e 78d5 99bc 3c0e bb3d
000000e0: 956f 2c3e 378a fcbc 6995 8b3d edd9 08be
000000f0: 998e 1a3e 7e85 8f3e 0f1a dc3d 5e7e adbc

baseModel.mlp1.layers.4.weight f4 [32, 64]
0.049571563 -0.17708564 0.040134314 0.020475674 -0.10910987 -0.16625085 -0.14249906 0.14481387
-0.1253684 -0.13373101 -0.021251217 0.03480168 0.08460885 -0.19077499 0.14763443 -0.054914918
0.009479146 -0.10395894 0.09800322 -0.11541812 0.04285741 -0.015730502 -0.050098345 0.18138918
0.059156843 0.20963968 -0.10636051 -0.12179365 0.25897843 -0.022050053 -0.060911555 -0.12377659
0.054936275 -0.23431784 -0.012510568 -0.26904696 -0.0804991 0.11100385 0.13384263 0.042329933
0.011768715 -0.13838632 -0.26507354 -0.13090475 -0.15670332 -0.07020128 0.15503798 -0.09846947
-0.0019523988 0.18025449 -0.092054464 0.19269744 0.18665022 0.093928255 -0.10873842 0.10416365
0.19428575 0.12525003 0.12376745 0.14944679 -0.31140283 0.019714678 0.017237721 0.09861209
0.053165108 0.09085243 -0.14358665 -0.0650644 0.027614916 -0.121068686 -0.0016043588 -0.07598238
-0.040941585 0.031432997 -0.08861616 0.012416622 0.0010115439 0.16874878 -0.132551 0.056933988
-0.19129117 -0.08102843 -0.12929754 -0.098303154 -0.10370269 0.029872013 -0.0816162 -0.1860645
0.121958815 -0.13077405 0.08389058 -0.06845268 -0.12368045 -0.16990623 0.12947536 0.054933675
0.25909975 0.117492035 0.16617703 0.13822423 0.14003065 -0.07891276 0.09719625 -0.10193937
0.21864015 0.1667694 0.06402706 0.08686106 -0.069796436 -0.055502176 -0.048280098 0.03079667
-0.033737052 0.1590765 0.002963184 0.014394167 -0.005032851 -0.098111674 0.08737206 -0.038540233
0.0729374 0.2046969 -0.10997474 -0.035017956 0.0071783694 0.02642875 0.045718487 -0.09064572
-0.015702669 0.19982994 0.07861097 -0.054799356 0.29183206 0.085858166 0.0848723 -0.03546224
0.20794879 -0.048712075 0.10599113 0.11450756 0.0031733415 0.2218209 0.09077504 0.08278633
0.027690113 0.11726011 -0.090665385 0.05066436 0.024720293 0.09547345 -0.0442647 0.09969624
-0.037943747 0.03831576 -0.08342332 0.1473764 0.02776625 0.104119495 -0.1069928 -0.13603215
-0.08995329 0.09624134 0.05299895 -0.08958626 0.18619707 0.034257915 0.06654208 0.10155042
-0.15040731 0.10863129 0.056299165 -0.087580204 0.04608705 -0.12909333 -0.144856 0.12734821
0.06962747 -0.098976284 0.053865507 -0.07637384 -0.02082342 -0.14361931 0.0370343 0.046807773
0.13712592 0.06565353 -0.015199327 -0.019339921 -0.09243959 0.07511107 0.1874321 -0.076512836
-0.100773744 -0.068145685 -0.06536462 0.18729168 -0.0010030912 0.15615827 0.11054902 -0.0876891
0.08340815 0.096266694 -0.07214289 -0.15400285 -0.057840727 0.09004921 -0.089915894 -0.07486812
-0.011039493 -0.10334094 -0.06575522 -0.00403301 0.03638686 0.13619849 0.03303026 -0.040019017
-0.013318837 -0.18274638 0.14711392 0.005314704 -0.11687481 -0.04803724 0.19508824 -0.02904277
-0.13245487 0.2686055 -0.040943876 0.14558765 -0.1470337 -0.037946567 0.18760636 0.13133211
0.16863485 -0.12372273 -0.0144722015 -0.004321662 0.03782145 -0.11036997 -0.06430644 0.04757402
-0.06651601 0.15504822 0.13093473 -0.20695199 0.13095112 -0.14175498 0.009903153 -0.021191576
0.024285642 -0.06508189 0.039504953 0.14017193 0.028326223 -0.1496561 0.0665406 -0.3700867
00000000: 8d0b 4b3d f055 35be e163 243d 9abc a73c
00000010: ff74 dfbd aa3d 2abe 46eb 11be 164a 143e
00000020: 9360 00be c8f0 08be 0817 aebc 358c 0e3d
00000030: 6847 ad3d 855a 43be 7b2d 173e 77ee 60bd
00000040: 6c4e 1b3c 6de8 d4bd eab5 c83d 5660 ecbd
00000050: 408b 2f3d 41dd 80bc ec33 4dbd 16be 393e
00000060: 724e 723d c9ab 563e 8ad3 d9bd f36e f9bd
00000070: d298 843e 50a2 b4bc 657e 79bd 957e fdbd
00000080: dc04 613d 04f1 6fbe 20f9 4cbc 86c0 89be
00000090: b6dc a4bd fd55 e33d 0b0e 093e 2762 2d3d
000000a0: 92d1 403c 25b5 0dbe b8b7 87be e50b 06be
000000b0: d676 20be b0c5 8fbd 47c2 1e3e 5daa c9bd
000000c0: a2e7 ffba a294 383e 0d87 bcbd 7a52 453e
000000d0: 3c21 3f3e 755d c03d 40b2 debd c053 d53d
000000e0: d8f2 463e 8b41 003e ca79 fd3d 9408 193e
000000f0: 3170 9fbe ad80 a13c 1f36 8d3c 23f5 c93d
00000100: a8c3 593d d710 ba3d 6108 13be 7c40 85bd
00000110: ad38 e23c dcf2 f7bd 5949 d2ba a69c 9bbd
00000120: 5db2 27bd e3bf 003d 647c b5bd 166f 4b3c
00000130: c895 843a 7bcc 2c3e 73bb 07be 9d33 693d
00000140: d5e1 43be 3cf2 a5bd 9366 04be 2a53 c9bd
00000150: 1362 d4bd 27b6 f43c 6526 a7bd b187 3ebe
00000160: 8bc5 f93d a2e9 05be d3ce ab3d eb30 8cbd
00000170: 2d4c fdbd e6fb 2dbe 3095 043e 2202 613d
00000180: b9a8 843e aa9f f03d 502a 2a3e a78a 0d3e
00000190: 3264 0f3e 039d a1bd d40e c73d 97c5 d0bd
000001a0: 34e3 5f3e 99c5 2a3e 9f20 833d 36e4 b13d
000001b0: 6ff1 8ebd 4056 63bd 5ac1 45bd 4c49 fc3c
000001c0: dd2f 0abd f3e4 223e fa31 423b 83d5 6b3c
000001d0: 9dea a4bb c6ee c8bd 1ff0 b23d 5ddc 1dbd
000001e0: 3460 953d 109c 513e 703a e1bd fd6e 0fbd
000001f0: 8738 eb3b 1b81 d83c 4f43 3b3d 77a4 b9bd
00000200: e2a2 80bc 38a0 4c3e cafe a03d 4a75 60bd
00000210: 036b 953e 68d6 af3d 87d1 ad3d db40 11bd
00000220: 87f0 543e 5086 47bd e111 d93d f182 ea3d
00000230: d6f7 4f3b 0525 633e 44e8 b93d e18b a93d
00000240: 60d6 e23c 1226 f03d c6ae b9bd 6f85 4f3d
00000250: 3682 ca3c 9687 c33d e74e 35bd 8b2d cc3d
00000260: e76a 1bbd fdf0 1c3d d8d9 aabd d7e9 163e
00000270: 0c76 e33c 9a3c d53d 0b1f dbbd 034c 0bbe
00000280: 6e39 b8bd 2e1a c53d 6d15 593d 0079 b7bd
00000290: 72aa 3e3e 0752 0c3d 3747 883d abf9 cf3d
000002a0: 6004 1abe 157a de3d f499 663d 405d b3bd
000002b0: c6c5 3c3d 0b31 04be 2255 14be 9267 023e
000002c0: d998 8e3d 14b4 cabd 14a2 5c3d e369 9cbd
000002d0: e095 aabc f110 13be 47b1 173d 82b9 3f3d
000002e0: bd6a 0c3e 5c75 863d 9906 79bc c16e 9ebc
000002f0: f850 bdbd d5d3 993d 33ee 3f3e c3b2 9cbd
00000300: 7762 cebd f78f 8bbd e3dd 85bd 64c9 3f3e
00000310: 287a 83ba f4e7 1f3e 8667 e23d 5896 b3bd
00000320: e4d1 aa3d 7927 c53d a7bf 93bd ecb2 1dbe
00000330: 66ea 6cbd b86b b83d d325 b8bd 7554 99bd
00000340: fdde 34bc 6aa4 d3bd acaa 86bd 5727 84bb
00000350: 630a 153d 9e77 0b3e bd4a 073d fbea 23bd
00000360: 4037 5abc de21 3bbe 08a5 163e f826 ae3b
00000370: 0f5c efbd b2c2 44bd 36c5 473e 1aeb edbc
00000380: 40a2 07be a986 893e c4b4 27bd ee14 153e
00000390: 0190 16be dc6d 1bbd e21b 403e ed7b 063e
000003a0: 9dae 2c3e 5862 fdbd d01c 6dbc ba9c 8dbb
000003b0: aaea 1a3d a709 e2bd 18b3 83bd fadc 423d
000003c0: 8c39 88bd f6c4 1e3e c113 063e 39eb 53be
000003d0: 0d18 063e 3828 11be d640 223c f599 adbc
000003e0: aff2 c63c a749 85bd f2cf 213d 3b89 0f3e
000003f0: 650c e83c 733f 19be 7046 883d 017c bdbe

baseModel.mlp1.layers.4.bias f4 [32]
0.16033234 -0.045307707 0.06654263 -0.10492289 0.20166394 -0.21468168 0.029216643 -0.055992495
-0.04912449 0.076670356 -0.09242648 0.040681314 -0.19960207 0.20329134 0.09190853 0.05252723
0.06714705 0.15351157 0.019023344 0.057777155 -0.07233675 0.24324042 -0.18508889 0.17125598
-0.019854624 -0.02717138 0.17479815 -0.012645895 -0.07324504 0.11701921 -0.07574202 -0.10814122
00000000: 292e 243e 9394 39bd 8147 883d d0e1 d6bd
00000010: fe80 4e3e 84d5 5bbe be57 ef3c 6358 65bd
00000020: c336 49bd 5905 9d3d 184a bdbd 73a1 263d
00000030: 7c64 4cbe 9b2b 503e 8a3a bc3d cb26 573d
00000040: 6484 893d 2332 1d3e d8d6 9b3c bda7 6c3d
00000050: 4a25 94bd 0414 793e f187 3dbe ba5d 2f3e
00000060: 2aa6 a2bc 8496 debc 49fe 323e ba30 4fbc
00000070: 7f01 96bd c4a7 ef3d a21e 9bbd 2579 ddbd

baseModel.mlp2.layers.0.weight f4 [32, 84]
-0.13157274 -0.23569427 0.18192755 -0.10046209 0.019937208 0.14138307 0.021544844 -0.008110566
-0.110575825 0.124636576 0.17720768 0.1890682 -0.17191878 0.22939876 -0.041092925 -0.022332963
-0.09036617 -0.10293932 0.25566363 0.00041306834 -0.0923921 0.030158851 -0.046331525 0.052720252
0.07629782 -0.04308471 -0.09074566 0.14744268 -0.14602596 -0.029802142 -0.08670206 0.14496744
0.036664847 0.083486244 0.07842482 0.07225382 -0.007866584 -0.06100535 -0.0032358412 0.078481466
0.029237121 0.05455486 -0.115776 0.0071670325 0.056308016 -0.024750208 -0.028907532 0.012941563
0.09953969 -0.07551158 0.00036503855 0.024938826 0.08538394 0.036604255 0.07508861 0.068041906
0.0675346 -0.10417015 -0.109654136 -0.07511582 -0.040921755 -0.12814733 -0.10443717 -0.03847999
-0.021541866 -0.045861747 -0.010432695 0.06597849 0.015227997 -0.07017066 0.0749039 -0.07934505
-0.005658653 0.046811044 0.01172935 0.04838275 0.06999087 -0.04837507 0.06697682 -0.11168135
-0.047097065 0.0076636933 -0.0192572 0.06985081 0.047868717 -0.10384337 -0.19843893 -0.15667474
-0.11934348 0.05923577 -0.17259806 -0.10303438 0.09446991 -0.16165829 0.14224371 0.19055422
-0.037503242 0.1322611 -0.014377573 0.18518749 -0.099941485 0.05073291 0.15679844 -0.01949079
-0.0014609642 -0.001935076 0.015807532 0.0981998 -0.09592247 -0.04921356 -0.033019423 0.021760343
0.09428849 -0.015308652 0.010116265 0.028787913 0.12755214 0.025364747 0.00428945 -0.067797445
-0.084066935 0.037747633 0.11886186 0.10447163 -0.019418376 -0.0013696414 -0.071373515 0.034197938
0.040674876 -0.08955662 0.03047037 0.093737595 -0.079045326 -0.10641616 0.12933426 -0.111769535
-0.04494493 -0.018050436 -0.01707078 -0.06260958 -0.07092535 0.041318193 -0.11615588 -0.16925038
-0.019018324 -0.044576474 0.09794854 0.14446345 -0.007570877 0.025258468 -0.16313092 0.05420885
0.0057557034 -0.036939565 0.12241341 0.07180874 -0.035770174 -0.0729415 0.04708311 -0.13549648
0.043957848 -0.061495654 -0.09381817 0.06863482 0.009756164 -0.014312297 -0.05119129 0.18384309
0.1161159 0.21341619 -0.01521877 -0.039390177 0.00037132975 -0.059655223 -0.14871512 0.08096997
0.0074796933 -0.096533015 -0.0061297803 0.11585321 -0.10327295 0.14225647 0.0029885408 -0.34786284
0.16777392 0.12475584 -0.10780695 -0.115106374 -0.09730798 0.034350585 -0.042009987 0.09817445
0.05491779 0.09503517 0.090247795 -0.012137946 0.0569656 0.0898698 -0.15546286 -0.0094131185
0.021693911 0.009614537 -0.052786738 -0.06712213 -0.09097025 -0.14502382 -0.08288521 0.03634872
0.121538624 0.040691093 -0.09145764 0.017101306 -0.027328175 0.17634909 -0.04603951 0.06842671
0.13843937 -0.019835731 -0.006039188 -0.034403723 0.13500164 -0.061143108 -0.061003316 -0.016303709
-0.068454534 -0.06873944 -0.03958606 0.08473402 0.016371548 0.0057874983 -0.013626632 0.10530384
0.07189725 0.014611789 0.06733656 0.07172878 -0.013536825 0.064907044 0.012722832 0.004032819
0.0028916954 0.024745807 0.110406786 0.09016163 0.041544903 0.026566489 -0.014504148 0.06621222
-0.10043559 0.084801964 -0.112831146 -0.014122203 -0.0881188 -0.04593492 -0.1993526 0.12866756
00000000: 01bb 06be d759 71be 374b 3a3e 11bf cdbd
00000010: 5b53 a33c b9c6 103e d07e b03c 2ee2 04bc
00000020: 9475 e2bd 7641 ff3d ee75 353e 189b 413e
00000030: 7a0b 30be 82e7 6a3e 0e51 28bd 9ef3 b6bc
00000040: e611 b9bd dad1 d2bd 58e6 823e 1891 d839
00000050: 1238 bdbd b20f f73c 20c6 3dbd 31f1 573d
00000060: 0842 9c3d 9879 30bd dcd8 b9bd 37fb 163e
00000070: d487 15be 9f23 f4bc da90 b1bd 5872 143e
00000080: e12d 163d d6fa aa3d 319d a03d d0f9 933d
00000090: d8e2 00bc bfe0 79bd 6810 54bb e4ba a03d
000000a0: b082 ef3c eb74 5f3d f81b edbd 6dd9 ea3b
000000b0: 3ca3 663d f3c0 cabc 7dcf ecbc d908 543c
000000c0: 77db cb3d d1a5 9abd a562 bf39 824c cc3c
000000d0: c6dd ae3d 58ee 153d 0fc8 993d 8e59 8b3d
000000e0: 954f 8a3d 2957 d5bd 5992 e0bd 53d6 99bd
000000f0: 929d 27bd 0e39 03be 28e3 d5bd 329d 1dbd
00000100: 9178 b0bc 87d9 3bbd e5ed 2abc bb1f 873d
00000110: d97e 793c a3b5 8fbd 3767 993d a87f a2bd
00000120: 396c b9bb f0bc 3f3d 762c 403c fe2c 463d
00000130: 6057 8f3d f024 46bd 252b 893d 31b9 e4bd
00000140: dae8 40bd b81f fb3b 47c1 9dbc f10d 8f3d
00000150: fd11 443d d5ab d4bd 9333 4bbe 586f 20be
00000160: 5b6a f4bd 35a1 723d 8cbd 30be b003 d3bd
00000170: 7179 c13d c089 25be 56a8 113e a520 433e
00000180: 009d 19bd 746f 073e e98f 6bbc caa1 3d3e
00000190: 1fae ccbd 50cd 4f3d c58f 203e 26ab 9fbc
000001a0: d37d bfba 60a2 fdba cc7e 813c fa1c c93d
000001b0: 0073 c4bd 2894 49bd 603f 07bd bf42 b23c
000001c0: 531a c13d 24d1 7abc b1be 253c a1d4 eb3c
000001d0: 079d 023e bbc9 cf3c 848e 8c3b 63d9 8abd
000001e0: 492b acbd 439d 1a3d d96d f33d 39f5 d53d
000001f0: 4913 9fbc 8a85 b3ba 472c 92bd 2313 0c3d
00000200: b39a 263d 7669 b7bd ff9c f93c 7ff9 bf3d
00000210: 84e2 a1bd b7f0 d9bd 3370 043e 6de7 e4bd
00000220: 2d18 38bd 82de 93bc 05d8 8bbc 7439 80bd
00000230: 4f41 91bd 443d 293d 22e3 edbd f94f 2dbe
00000240: 51cc 9bbc d295 36bd 3e99 c83d 3aee 133e
00000250: 1f15 f8bb d9ea ce3c cb0b 27be 190a 5e3d
00000260: 579a bc3b f14d 17bd e2b3 fa3d 7610 933d
00000270: bf83 12bd 5a62 95bd 38da 403d 97bf 0abe
00000280: 250d 343d dee2 7bbd be23 c0bd 6a90 8c3d
00000290: 51d8 1f3c 207e 6abc f5ad 51bd 5d41 3c3e
000002a0: 2cce ed3d c689 5a3e 2658 79bc 9857 21bd
000002b0: 09af c239 0959 74bd c748 18be 95d3 a53d
000002c0: 3718 f53b 1ab3 c5bd 53dc c8bb 7344 ed3d
000002d0: c580 d3bd aeab 113e 65db 433b 141b b2be
000002e0: edcc 2b3e fd7f ff3d e4c9 dcbd e4bc ebbd
000002f0: 6849 c7bd 33b3 0c3d aa12 2cbd b00f c93d
00000300: 7af1 603d cda1 c23d d6d3 b83d 3cde 46bc
00000310: c354 693d a80d b83d a831 1fbe 7b39 1abc
00000320: 6eb7 b13c 4a86 1d3c e836 58bd 5477 89bd
00000330: 9c4e babd 2081 14be b9bf a9bd 65e2 143d
00000340: 3ee9 f83d b4ab 263d 254e bbbd 0a18 8c3c
00000350: 56df dfbc db94 343e ed93 3cbd 4e23 8c3d
00000360: 0dc3 0d3e 8b7e a2bc 61e4 c5bb ebea 0cbd
00000370: df3d 0a3e 3271 7abd 9dde 79bd 5b8f 85bc
00000380: e431 8cbd 43c7 8cbd fe24 22bd 0889 ad3d
00000390: a01d 863c 0ea5 bd3b 3d42 5fbc 8aa9 d73d
000003a0: de3e 933d 4966 6f3c c0e7 893d 8ae6 923d
000003b0: 8fc9 5dbc fced 843d 6d73 503c bd25 843b
000003c0: 9982 3d3b b8b7 ca3c f41c e23d a9a6 b83d
000003d0: fd2a 2a3d f7a1 d93c cea2 6dbc 469a 873d
000003e0: 2db1 cdbd a7ac ad3d 0414 e7bd d060 67bc
000003f0: a177 b4bd 4126 3cbd 1723 4cbe 6ec1 033e

baseModel.mlp2.layers.0.bias f4 [32]
0.088218465 0.075521976 -0.02438008 0.09021091 -0.018875506 -0.038433358 -0.11574952 -0.074981
0.040904157 -0.025894616 -0.030022802 0.0008350075 0.015731027 0.17428502 0.024284534 0.07899944
0.051569503 -0.026176952 -0.059711125 -0.09171863 0.12177525 0.025356488 -0.058402408 0.069542415
0.09002751 0.14547175 -0.052873027 -0.10523805 0.066197164 -0.10859274 0.0024303936 0.032875698
00000000: e2ab b43d 44ab 9a3d bcb8 c7bc 7fc0 b83d
00000010: cea0 9abc 4c6c 1dbd 160e edbd a38f 99bd
00000020: 1e8b 273d f220 d4bc 61f2 f5bc 68e4 5a3a
00000030: 5bde 803c c677 323e 5cf0 c63c 75ca a13d
00000040: 8b3a 533d 0c71 d6bc a793 74bd fad6 bbbd
00000050: 4d65 f93d 69b8 cf3c 5d37 6fbd 416c 8e3d
00000060: 5860 b83d 8cf6 143e 6391 58bd 0c87 d7bd
00000070: 6192 873d df65 debd 3d47 1f3b aba8 063d

baseModel.mlp2.layers.2.weight f4 [64, 32]
-0.33793467 0.044622604 -0.07978653 0.04675901 -0.10137873 -0.14322199 0.14708674 0.039083727
0.27218506 -0.1502121 -0.10088679 0.1123649 -0.053851273 0.061483104 0.0073120873 -0.15597777
0.070263155 0.05285739 0.08485752 -0.15360554 -0.039867397 -0.018166043 -0.13203377 -0.4089184
-0.091139875 -0.124296695 0.18627192 0.026162848 0.16954893 -0.20220591 -0.19005702 -0.09139338
0.141005 -0.21425445 0.0065586907 -0.032963607 0.11829013 -0.027344156 0.18174224 0.20121902
0.15265869 0.14227815 -0.06330686 0.152265 -0.06725095 0.051717587 -0.042257585 0.04819639
-0.25120533 0.15062968 0.022573603 0.044341955 0.10295111 -0.16171002 -0.081205934 -0.06794592
0.051903903 0.24268816 -0.10904488 -0.17619614 0.14286338 -0.06767165 0.038930066 0.18147586
-0.26268208 0.0049360706 0.11439393 0.079417296 -0.046871204 -0.20359118 -0.13993494 0.006408407
-0.049321808 0.13905315 0.1890126 0.16869372 0.1839151 -0.20949544 -0.007664591 0.09694456
-0.24301273 0.20936286 0.073356636 -0.0022073698 -0.08090482 -0.02227424 0.00993969 -0.14395247
0.17980854 -0.15829802 0.08783241 0.1381426 -0.072331995 -0.0055257045 0.0057536243 -0.07614522
-0.03173528 0.002962895 -0.033451196 -0.23036097 0.040908813 -0.011042234 0.051315896 -0.02042666
0.07093787 0.21084625 -0.06461857 -0.19486149 -0.012736379 0.08313614 -0.3436953 0.07219098
-0.1880878 -0.13122305 -0.06026384 -0.27456445 0.019583361 -0.17188028 0.1390922 0.14474602
-0.0065521174 -0.2510738 0.07918317 0.17105472 -0.05808282 0.034201667 0.20250088 0.080226764
-0.17419471 -0.04042537 0.040993426 0.000341723 -0.017268172 0.13366978 0.10505739 0.06491339
0.04078076 -0.0440824 0.045763932 0.016507253 0.17983745 -0.13391922 0.04657815 0.23396675
-0.16445966 -0.06396573 0.02524064 0.073287755 -0.07551818 -0.009151394 0.046661384 -0.027876114
0.12663108 0.005001425 -0.0119993165 0.109541014 -0.009596689 0.15685353 0.19693851 -0.017279232
-0.051181737 -0.20854151 -0.069607936 0.046514824 -0.027788986 0.0077822823 0.1354019 0.17049961
-0.2971211 0.23150061 -0.21004315 -0.06944093 -0.06823446 -0.19282256 -0.11907687 0.11659383
-0.18999906 0.07693739 -0.3273764 -0.040916964 -0.011443388 -0.07594212 0.13412973 0.026917834
-0.03164556 0.030460877 -0.1844752 0.059194706 0.12874603 -0.086544305 0.06521052 -0.02831179
0.04632713 -0.20754428 0.25502864 0.21458921 -0.14351223 0.047683343 -0.053226616 0.008142213
0.11146805 -0.03194431 0.16490057 0.1275286 -0.03885368 -0.13937895 -0.089162014 -0.118193895
0.10258636 0.042730052 -0.11327605 -0.23805563 -0.05359849 0.08606992 0.1191393 0.20128487
-0.019123862 0.035548862 0.121994354 -0.062041167 0.1332129 0.04929495 -0.2736305 -0.19363198
-0.12382616 0.081872895 0.037729315 0.14133754 -0.10215625 0.1701978 -0.32207912 -0.16244064
0.09628099 -0.004737721 0.19664404 0.11247835 -0.19402842 -0.11324677 0.20281135 0.15429805
0.0035692626 -0.20137657 -0.18871102 0.028756399 -0.07478471 0.11653766 -0.029813945 0.2260527
0.076997004 0.016957633 0.112757936 -0.10939819 -0.25866303 -0.085959345 0.13454418 0.090999834
00000000: c605 adbe 31c6 363d 1f67 a3bd 6086 3f3d
00000010: a79f cfbd c9a8 12be e89d 163e 4216 203d
00000020: d75b 8b3e 33d1 19be bc9d cebd 921f e63d
00000030: 2793 5cbd b5d5 7b3d 3c9a ef3b a3b8 1fbe
00000040: 21e6 8f3d fe80 583d c8c9 ad3d c54a 1dbe
00000050: ff4b 23bd f4d0 94bc dc33 07be c15d d1be
00000060: 8ba7 babd 448f febd 11be 3e3e 7853 d63c
00000070: 3c9e 2d3e 110f 4fbe 4f9e 42be 742c bbbd
00000080: 9d63 103e 8565 5bbe 49ea d63b d904 07bd
00000090: 1842 f23d da00 e0bc a31a 3a3e 5c0c 4e3e
000000a0: 8f52 1c3e 5db1 113e 07a7 81bd 5beb 1b3e
000000b0: deba 89bd d2d5 533d 4a16 2dbd 9469 453d
000000c0: fc9d 80be ab3e 1a3e 47ec b83c e99f 353d
000000d0: 08d8 d23d 5097 25be 4c4f a6bd 3b27 8bbd
000000e0: 3099 543d 3f83 783e ec52 dfbd c36c 34be
000000f0: c74a 123e 6f97 8abd 2275 1f3d cfd4 393e
00000100: 447e 86be c3be a13b 5d47 ea3d 89a5 a23d
00000110: 05fc 3fbd 357a 50be 1b4b 0fbe 9dfd d13b
00000120: aa05 4abd f363 0e3e 858c 413e 0cbe 2c3e
00000130: 3d54 3c3e f985 56be 4027 fbbb df8a c63d
00000140: 54d8 78be 3863 563e 013c 963d 85a9 10bb
00000150: 6db1 a5bd 7878 b6bc 15da 223c 4768 13be
00000160: bb1f 383e e018 22be 7be1 b33d 4175 0d3e
00000170: cc22 94bd f810 b5bb e688 bc3b 06f2 9bbd
00000180: dafc 01bd 212d 423b 1f04 09bd bfe3 6bbe
00000190: 0090 273d 7cea 34bc 9e30 523d d055 a7bc
000001a0: e047 913d 14e8 573e be56 84bd c589 47be
000001b0: 3fac 50bc 4843 aa3d d5f8 afbe ddd8 933d
000001c0: 179a 40be 565f 06be 37d7 76bd b693 8cbe
000001d0: 496d a03c 6201 30be 306e 0e3e 4d38 143e
000001e0: 25b3 d6bb bf8c 80be c92a a23d f828 2f3e
000001f0: 40e8 6dbd 0c17 0c3d 645c 4f3e ee4d a43d
00000200: 1960 32be 1395 25bd b9e8 273d 4929 b339
00000210: fb75 8dbc bbe0 083e 5428 d73d 50f1 843d
00000220: ba09 273d bf8f 34bd f672 3b3d 383a 873c
00000230: 4f27 383e 1f22 09be bbc8 3e3d fb94 6f3e
00000240: 1d68 28be 7700 83bd 75c5 ce3c e417 963d
00000250: 47a9 9abd baef 15bc 0220 3f3d 735c e4bc
00000260: 94ab 013e fee2 a33b c898 44bc 0a57 e03d
00000270: 6e3b 1dbc 369e 203e 40aa 493e 2d8d 8dbc
00000280: f1a3 51bd e88b 55be 9b8e 8ebd 5486 3e3d
00000290: baa5 e3bc 8402 ff3b cca6 0a3e 7397 2e3e
000002a0: 4220 98be 7f0e 6d3e 8d15 57be 0c37 8ebd
000002b0: 82be 8bbd 4773 45be 93de f3bd bfc8 ee3d
000002c0: 1d8f 42be 5a91 9d3d e19d a7be 8c98 27bd
000002d0: 0c7d 3bbc 8b87 9bbd 4e59 093e ca82 dc3c
000002e0: c69e 01bd 1789 f93c 11e7 3cbe 2676 723d
000002f0: 00d6 033e 243e b1bd 188d 853d 21ee e7bc
00000300: 84c1 3d3d 7d86 54be 1d93 823e 46bd 5b3e
00000310: dff4 12be 9c4f 433d 2704 5abd eb66 053c
00000320: 5c49 e43d 09d8 02bd b2db 283e db96 023e
00000330: 0925 1fbd 5bb9 0ebe 939a b6bd a40f f2bd
00000340: cc18 d23d b505 2f3d 46fd e7bd dbc4 73be
00000350: 178a 5bbd 6d45 b03d 4eff f33d 9f1d 4e3e
00000360: a5a9 9cbc af9b 113d 2dd8 f93d e11e 7ebd
00000370: f668 083e 80e9 493d 4c19 8cbe 7647 46be
00000380: 9298 fdbd faac a73d 0e8a 1a3d caba 103e
00000390: 4c37 d1bd 5548 2e3e 8ee7 a4be d756 26be
000003a0: f82e c53d e23e 9bbb 0e5d 493e 0d5b e63d
000003b0: 63af 46be eced e7bd c7ad 4f3e 4f00 1e3e
000003c0: 4aea 693b a935 4ebe 763d 41be 8a92 eb3c
000003d0: ba28 99bd 4cab ee3d 603c f4bc 5c7a 673e
000003e0: 9bb0 9d3d bcea 8a3c a2ed e63d 290c e0bd
000003f0: 7b6f 84be 740b b0bd f3c5 093e 1f5e ba3d

baseModel.mlp2.layers.2.bias f4 [64]
-0.080000564 -0.117601946 -0.034111153 0.011609994 0.1588384 0.10324652 -0.05759247 -0.16537236
0.013572561 0.062456783 0.021103412 0.009387105 -0.10766485 0.06404084 -0.09396712 0.1334756
0.091613926 0.11687031 0.117535934 -0.0882369 0.11660053 0.030509278 0.097097464 0.10637154
0.13276541 -0.0032615212 -0.13371427 0.06768064 0.13524267 -0.0017752706 -0.018744932 -0.017134009
0.022495488 0.12741855 -0.051950093 -0.0076889237 0.038322493 0.072643064 0.1344721 0.018524073
-0.16518162 0.003565871 -0.12261868 -0.11634251 -0.008971155 -0.1364187 0.09263438 0.04492886
-0.101372644 0.053716946 0.00010722155 0.10395583 -0.119242094 0.025879147 -0.10122188 -0.1402323
0.107660964 0.103106804 0.10922297 -0.10222704 0.2294616 -0.014070357 0.031316586 -0.13722181
00000000: 56d7 a3bd 4ad9 f0bd 23b8 0bbd d837 3e3c
00000010: 89a6 223e e972 d33d 15e6 6bbd 5f57 29be
00000020: 725f 5e3c afd2 7f3d 10e1 ac3c 5fcc 193c
00000030: 647f dcbd d827 833d d571 c0bd d4ad 083e
00000040: 15a0 bb3d b359 ef3d aeb6 f03d 8cb5 b4bd
00000050: 42cc ee3d 98ee f93c 09db c63d 52d9 d93d
00000060: a8f3 073e 3fbf 55bb 65ec 08be 269c 8a3d
00000070: 0e7d 0a3e 32b0 e8ba f98e 99bc 9f5c 8cbc
00000080: 7548 b83c 027a 023e 9fc9 54bd 5ef3 fbbb
00000090: 0cf8 1c3d e3c5 943d 0eb3 093e ccbf 973c
000000a0: 5f25 29be 63b1 693b 811f fbbd fb44 eebd
000000b0: c0fb 12bc 58b1 0bbe 18b7 bd3d 5307 383d
000000c0: 769c cfbd 4d06 5c3d 22dc e038 cbe6 d43d
000000d0: 3335 f4bd 8100 d43c 6b4d cfbd 0e99 0fbe
000000e0: 5a7d dc3d a929 d33d 4bb0 df3d 695c d1bd
000000f0: fbf7 6a3e 5b87 66bc d245 003d e083 0cbe

baseModel.mlp2.layers.4.weight f4 [32, 64]
-0.26600507 0.16191581 0.13310479 0.0019094691 0.12679008 -0.13971396 -0.14151303 -0.17590933
0.16353327 0.15710919 0.13024199 -0.03151974 -0.1612801 -0.03581658 0.17062344 0.14787962
-0.0737638 -0.15500575 -0.11163191 0.16007894 0.14272267 -0.047331635 0.17249893 -0.0436363
-0.0012176656 0.07304097 -0.13308449 0.21431339 0.060458068 0.07941101 0.22812214 0.1816878
0.14386667 -0.078929916 -0.059911698 -0.09899983 -0.34029466 0.0066708107 0.17878309 -0.0718868
-0.12754808 0.17083204 0.12131658 0.14734831 -0.14325094 -0.124884404 0.043201607 0.08486295
0.20188697 -0.027214982 -0.11037477 0.1847756 0.15766679 -0.09156521 0.0023331076 0.13861026
-0.09646068 0.14047755 0.10715464 -0.15361446 -0.2045159 0.0053022425 -0.13444208 -0.058273092
0.17964472 0.09438598 -0.2659943 0.02487221 -0.047791176 0.028218964 0.03390179 0.2026007
-0.10711529 0.05638946 -0.13632493 0.17585969 0.08159212 -0.059986442 -0.1673041 -0.031357266
-0.059854876 0.001737287 0.06582327 -0.18627542 -0.23645118 0.09564045 -0.09461087 0.120270364
-0.04489826 -0.07754386 0.01770142 -0.18425621 -0.22023012 0.044936355 -0.23031627 -0.045261346
-0.13886534 0.15603833 0.1523805 0.12830123 0.28044805 -0.14575641 -0.054170713 0.1999522
0.07969043 -0.1511522 -0.09656894 -0.030207613 -0.020363081 0.193959 -0.21870996 0.003966179
-0.13182612 0.096147396 0.14874093 0.0005339155 -0.055622637 0.10077334 -0.15794627 -0.06108848
0.12630029 0.010139084 -0.008830587 0.0351572 0.25436106 0.1704536 -0.021463433 0.11854901
0.15907817 0.027446074 -0.074307665 0.16400097 0.06642928 0.12720957 0.21079075 0.07542807
0.11629557 0.061538354 -0.07366191 0.26546782 0.102001525 0.144413 0.011742431 -0.12984903
-0.03412579 -0.1324422 0.19485112 -0.18667872 -0.13081796 -0.08211204 -0.17289433 0.08525354
0.20044579 0.033082884 0.07781277 -0.0708443 -0.036453914 0.030095475 -0.05726634 0.014023954
0.0546862 0.22380018 -0.009754389 0.18388878 0.058346495 -0.08497263 -0.05728199 0.027876431
-0.0010037259 0.09033345 -0.22126508 -0.08566961 0.2062396 -0.00667659 -0.08120812 -0.082210615
-0.20883662 0.10891655 0.19227394 -0.070011064 0.011542678 0.15371813 -0.2054209 0.05355571
-0.09471722 -0.020909188 0.054846823 -0.01553006 0.16202204 0.075889505 -0.020068588 0.072624944
0.45563015 0.0023419934 -0.12253528 -0.007237576 0.06849013 0.1883072 0.04162094 -0.022459455
0.074512996 -0.07077553 -0.16517535 0.00038090502 0.15951626 0.16018409 0.023545502 -0.05226478
-0.02690189 0.13656278 0.051555764 -0.18837167 -0.04519213 0.06300341 0.0018234288 0.019743804
0.21042845 -0.064623296 0.14001077 -0.17475 -0.22933163 0.04427019 -0.14944778 -0.2326086
-0.06638852 -0.033168044 0.0074605723 0.23992106 0.24241252 0.1172528 0.04956887 0.03366825
-0.15445983 -0.050654467 -0.069554254 -0.015713077 0.031276643 0.15102157 -0.066819675 -0.02142975
0.038518835 0.033621486 0.009108726 -0.11952559 -0.20103781 0.13864474 -0.16246763 -0.00039449078
0.17154112 0.12964165 -0.030201634 0.06163854 0.14414318 -0.0876208 0.0060412665 0.19282338
00000000: d131 88be 42cd 253e 9f4c 083e 2747 fa3a
00000010: 42d5 013e 2d11 0fbe cbe8 10be 9321 34be
00000020: 4475 273e 3be1 203e 285e 053e d81a 01bd
00000030: 9c26 25be 68b4 12bd e9b7 2e3e c16d 173e
00000040: 7a11 97bd d4b9 1ebe 459f e4bd bceb 233e
00000050: e425 123e d1de 41bd 8fa3 303e fabb 32bd
00000060: 149a 9fba 8196 953d 4d47 08be f874 5b3e
00000070: e1a2 773d 3da2 a23d da98 693e 5e0c 3a3e
00000080: c951 133e 02a6 a1bd f865 75bd 6cc0 cabd
00000090: 1a3b aebe d196 da3b ea12 373e 6339 93bd
000000a0: f79b 02be 98ee 2e3e d474 f83d 7ae2 163e
000000b0: 60b0 12be 65c3 ffbd 2bf4 303d a0cc ad3d
000000c0: 75bb 4e3e f4f1 debc 2b0c e2bd d135 3d3e
000000d0: 6773 213e 8a86 bbbd 0de7 183b d9ef 0d3e
000000e0: 2d8d c5bd 59d9 0f3e e473 db3d 1c4d 1dbe
000000f0: 9e6c 51be 6fbe ad3b 2fab 09be c4af 6ebd
00000100: c9f4 373e 704d c13d 6830 88be cec0 cb3c
00000110: aec0 43bd 752b e73c 9adc 0a3d 8f76 4f3e
00000120: 435f dbbd a2f8 663d c398 0bbe 9014 343e
00000130: c519 a73d 58b4 75bd c451 2bbe 7a70 00bd
00000140: 632a 75bd aeb5 e33a 5ace 863d fcbe 3ebe
00000150: 4220 72be 24df c33d 58c3 c1bd 4f50 f63d
00000160: 3de7 37bd 51cf 9ebd 9102 913c a9ad 3cbe
00000170: 0184 61be 2f0f 383d 07d8 6bbe f663 39bd
00000180: b732 0ebe 83c8 1f3e a209 1c3e 6661 033e
00000190: e396 8f3e 2b41 15be 1ce2 5dbd 45c0 4c3e
000001a0: bc34 a33d a4c7 1abe f0c5 c5bd f575 f7bc
000001b0: 7ad0 a6bc 309d 463e 81f5 5fbe b9f6 813b
000001c0: 6dfd 06be ede8 c43d 8b4f 183e 76f6 0b3a
000001d0: 90d4 63bd 4162 ce3d abbc 21be ea37 7abd
000001e0: dd54 013e 671e 263c 2bae 10bc ff00 103d
000001f0: 9d3b 823e 638b 2e3e 15d4 afbc d3c9 f23d
00000200: 63e5 223e 97d6 e03c 9e2e 98bd dfef 273e
00000210: 130c 883d 3a43 023e 88d9 573e 087a 9a3d
00000220: 5f2c ee3d a40f 7c3d 0edc 96bd 66eb 873e
00000230: 2de6 d03d 00e1 133e 5363 403c 25f7 04be
00000240: 7cc7 0bbd ee9e 07be 0d87 473e b528 3fbe
00000250: 25f5 05be 5b2a a8bd 360b 31be 6899 ae3d
00000260: a941 4d3e eb81 073d 4d5c 9f3d d116 91bd
00000270: b350 15bd c98a f63c 1c90 6abd bac4 653c
00000280: a3fe 5f3d e02b 653e dfd0 1fbc 574d 3c3e
00000290: bcfc 6e3d 2106 aebd 85a0 6abd 1d5d e43c
000002a0: 748f 83ba be00 b93d 5093 62be 8c73 afbd
000002b0: 7930 533e 4cc7 dabb 7150 a6bd 0a5e a8bd
000002c0: 44d9 55be a40f df3d 76e3 443e f661 8fbd
000002d0: 801d 3d3c 4968 1d3e db59 52be 3b5d 5b3d
000002e0: 1afb c1bd bf49 abbc 10a7 603d cb71 7ebc
000002f0: 1be9 253e f56b 9b3d e166 a4bc 63bc 943d
00000300: 5b48 e93e 217c 193b c7f3 fabd 3029 edbb
00000310: 8e44 8c3d 9ad3 403e b87a 2a3d e4fc b7bc
00000320: 459a 983d c3f2 90bd ba23 29be 35b4 c739
00000330: 3b58 233e 4c07 243e 7fe2 c03c 9813 56bd
00000340: 5a61 dcbc 1dd7 0b3e 232c 533d 81e4 40be
00000350: 621b 39bd ef07 813d 1e00 ef3a c2bd a13c
00000360: 8e7a 573e 3859 84bd fc5e 0f3e aaf1 32be
00000370: e9d5 6abe a954 353d d708 19be f330 6ebe
00000380: b4f6 87bd 37db 07bd d177 f43b dead 753e
00000390: fd3a 783e 3c22 f03d ba08 4b3d b8e7 093d
000003a0: b82a 1ebe 0f7b 4fbd 7672 8ebd b6b8 80bc
000003b0: f01b 003d 66a5 1a3e c1d8 88bd 718d afbc
000003c0: edc5 1d3d afb6 093d c43c 153c d5c9 f4bd
000003d0: dbdc 4dbe e3f8 0d3e ea5d 26be a8d3 ceb9
000003e0: 7aa8 2f3e c8c0 043e 6b69 f7bc b278 7c3d
000003f0: 459a 133e 8972 b3bd d1f5 c53b 7e73 453e

baseModel.mlp2.layers.4.bias f4 [32]
0.08900002 0.122806005 -0.011712535 0.18796594 0.06913221 -0.012528174 0.16646482 0.090723306
-0.02517501 -0.11183973 -0.043125343 0.16902603 -0.02184039 -0.054492753 0.026477294 0.09652222
-0.08282386 0.055595364 0.13213643 0.14831254 -0.07857124 0.08578548 -0.06030047 -0.010175848
0.07838312 -0.12947738 -0.058910515 0.06783824 -0.015364812 -0.040023066 0.0032378905 0.059473045
00000000: a445 b63d b781 fb3d efe5 3fbc 257a 403e
00000010: 3095 8d3d f842 4dbc c175 2a3e 24cd b93d
00000020: d33b cebc 3a0c e5bd 33a4 30bd 2915 2d3e
00000030: 9eea b2bc cb33 5fbd e9e6 d83c 71ad c53d
00000040: 8e9f a9bd f7b7 633d c64e 073e 3edf 173e
00000050: f5e9 a0bd 4cb0 af3d a0fd 76bd 9ab8 26bc
00000060: 5487 a03d b895 04be 274c 71bd c6ee 8a3d
00000070: b1bc 7bbc 3aef 23bd ca32 543b 029a 733d

baseModel.mlp2.layers.6.weight f4 [2, 32]
-0.31317 0.29714304 0.28870004 0.09280232 0.09062989 0.064969756 -0.37535897 -0.3070174
0.117715664 0.13478 0.18995905 0.07470923 -0.16627102 -0.03951002 -0.2686991 -0.042778894
0.27635762 -0.10295116 -0.33835018 0.17890804 -0.2160086 0.052292816 0.27575845 0.10040348
0.114464015 -0.06554012 0.2647201 0.2830351 -0.3812674 0.2786657 0.3274968 0.19508228
0.2923641 -0.2926212 -0.066514775 -0.2542371 0.003008951 -0.24874894 0.16002972 0.04697261
-0.30411023 -0.38022685 -0.29677275 -0.26052836 0.2843553 0.14627884 0.22693098 0.3142245
-0.073540516 0.15890661 0.30435154 -0.23949972 0.15153997 -0.20445393 -0.3119024 -0.21219712
-0.27054584 0.05181698 -0.23323652 -0.22613691 0.20538634 -0.034152403 -0.21691783 -0.17018485
00000000: d157 a0be 2223 983e 7ed0 933e 250f be3d
00000010: 2a9c b93d dd0e 853d 0d2f c0be 6231 9dbe
00000020: e914 f13d c503 0a3e a084 423e 2701 993d
00000030: f342 2abe 42d5 21bd ee92 89be ec38 2fbd
00000040: bf7e 8d3e 0fd8 d2bd 3c3c adbe ab33 373e
00000050: 5c31 5dbe fe30 563d 3630 8d3e 57a0 cd3d
00000060: 1c6c ea3d e639 86bd 6589 873e fae9 903e
00000070: 7b35 c3be 45ad 8e3e a9ad a73e a6c3 473e
00000080: bfb0 953e 72d2 95be e638 88bd 5d2b 82be
00000090: d231 453b 0bb8 7ebe d5de 233e 5a66 403d
000000a0: 56b4 9bbe 18ad c2be 99f2 97be f963 85be
000000b0: 0597 913e 1fca 153e 9860 683e 09e2 a03e
000000c0: 699c 96bd 6ab8 223e f7d3 9b3e 6a3f 75be
000000d0: 4b2d 1b3e 5f5c 51be acb1 9fbe 344a 59be
000000e0: fc84 8abe 0b3e 543d 8ed5 6ebe 6f90 67be
000000f0: cc50 523e 64e3 0bbd b51f 5ebe f044 2ebe

baseModel.mlp2.layers.6.bias f4 [2]
-0.062308144 0.005059995
00000000: d336 7fbd 51ce a53b
