weights/weights_MOCA_50.pt (torch, 52845 bytes, 14 tensors)

baseModel.mlp1.layers.0.weight f4 [32, 20]
-0.31947902 -0.07220721 -0.07364716 -0.0032153637 0.080800384 -0.07029087 0.33322632 0.054643817
0.36499953 0.14527349 0.03671372 0.051662873 0.3093381 -0.09956149 -0.17759615 0.39565507
0.17820714 -0.1941832 -0.17184484 -0.07862353 0.13316317 -0.23798016 0.21370137 -0.073616154
-0.042432666 0.07840625 -0.19547574 0.2037931 -0.3986197 0.059629396 -0.058063176 -0.27049932
0.3335001 0.007867035 -0.1420433 0.14464581 -0.11200074 -0.24005957 -0.091301806 0.07556086
0.16134545 -0.09723894 0.29718983 -0.17679448 0.3361713 -0.048716445 0.16847782 0.17824627
-0.27726734 -0.10177133 0.0149233835 0.081485815 -0.27670226 0.19301079 -0.26088464 -0.22434804
-0.09233104 -0.13122766 -0.019445246 0.05261177 0.061931197 -0.072119586 0.14818446 -0.0012298514
0.3189626 0.1414113 0.030663483 -0.06394887 -0.158165 0.28904346 -0.15175086 -0.094645016
-0.08484757 0.1963113 -0.2375835 0.0029983302 -0.08822942 0.33325312 -0.059976086 0.3691879
0.06954606 0.14004733 0.0034415033 0.16946444 0.17213376 -0.10337336 -0.27272725 0.18410975
-0.105209485 -0.08049501 -0.45623666 0.123209044 -0.29365146 -0.10096 -0.11464537 -0.18945932
-0.008017388 0.23682193 -0.29724145 0.08399287 -0.048689287 0.089439996 0.016893478 -0.101227544
0.3051295 0.15134005 0.28710666 -0.3071484 -0.17971282 -0.20030922 -0.041354373 0.0126694245
0.1804148 0.08492673 0.056991737 0.032907672 -0.35996744 0.10368141 -0.019974971 0.029950587
-0.051079553 -0.09074502 -0.35306203 0.42056516 -0.100697875 -0.21982324 -0.25248763 -0.13167606
-0.24946909 0.21647865 -0.1176476 0.0039404943 -0.039697606 0.17522435 -0.42084256 0.027148841
0.13950497 0.10811572 -0.03260171 -0.03625022 -0.05821861 0.17944139 0.23166184 0.28092894
0.33001393 0.28225988 0.032967817 -0.038617507 0.2148146 0.058173504 0.047118265 -0.051751934
0.08561323 -0.09908171 0.038361877 -0.47097516 0.2293335 0.286769 -0.13681851 -0.20010316
0.13783252 0.03674556 -0.031870928 0.08718928 -0.07798282 -0.22658236 0.23057619 0.2856937
0.16757753 -0.20095165 -0.13501361 -0.11911691 0.13080883 -0.24747907 0.40027308 0.04229755
-0.021506181 0.18045208 0.12641048 0.050670464 0.01447551 0.28556386 -0.03507952 0.20146987
0.087373324 -0.079526044 0.035757806 0.17955957 -0.026262002 0.12850966 0.074049175 0.12575419
-0.12915136 -0.34170222 0.0481293 -0.0678378 0.1056896 -0.12613316 -0.031838354 0.34385931
0.1333953 -0.33965912 -0.23704569 -0.038897973 0.3718245 -0.2542011 -0.17288762 -0.044866007
-0.098320425 0.12385094 -0.144391 -0.07177707 0.21735641 0.018385654 0.053688627 -0.07122287
-0.23911399 -0.104724325 0.13022827 -0.06706435 0.09869658 0.1043531 -0.27798495 0.16850065
0.12011286 -0.021192897 -0.23888975 -0.11824336 0.101014435 0.29752484 0.11900323 0.13475516
-0.0979264 0.2990995 -0.109451026 0.041694805 0.23388651 0.40282905 0.07185591 -0.041444074
-0.067561164 0.40254912 0.25523308 -0.2199775 -0.23250122 -0.12273441 -0.32095087 0.04763294
0.20436351 0.087899104 -0.20508766 -0.11457257 0.074378885 -0.19566737 0.17289495 -0.18621433
00000000: c192 a3be 60e1 93bd 52d4 96bd dab8 52bb
00000010: ac7a a53d a9f4 8fbd a49c aa3e 32d2 5f3d
00000020: 38e1 ba3e 93c2 143e 2061 163d 739c 533d
00000030: 9061 9e3e e5e6 cbbd c4db 35be 4d93 ca3e
00000040: ef7b 363e f6d7 46be 18f8 2fbe 6005 a1bd
00000050: ed5b 083e 12b1 73be 88d4 5a3e 11c4 96bd
00000060: e0cd 2dbd 7593 a03d cb2a 48be 23af 503e
00000070: e217 ccbe f43d 743d a7d3 6dbd e37e 8abe
00000080: 86c0 aa3e bde4 003c cd73 11be 081e 143e
00000090: a560 e5bd 2dd2 75be 71fc babd a7bf 9a3d
000000a0: be37 253e 3625 c7bd 4429 983e 9d09 35be
000000b0: a51e ac3e e58a 47bd 7385 2c3e 3186 363e
000000c0: fcf5 8dbe 7d6d d0bd 3581 743c 09e2 a63d
000000d0: ebab 8dbe 9fa4 453e ac92 85be 7ebb 65be
000000e0: 0e18 bdbd 8b60 06be a34b 9fbc 707f 573d
000000f0: 91ab 7d3d 6fb3 93bd abbd 173e f732 a1ba
00000100: 114f a33e 20ce 103e fc31 fb3c a0f7 82bd
00000110: 01f6 21be 81fd 933e 9464 1bbe 3fd5 c1bd
00000120: 90c4 adbd d405 493e 1749 73be a27f 443b
00000130: a0b1 b4bd 27a0 aa3e 7ca9 75bd 3206 bd3e
00000140: 2a6e 8e3d 9168 0f3e d88a 613b 1688 2d3e
00000150: d543 303e 6ab5 d3bd e8a2 8bbe 4487 3c3e
00000160: 1278 d7bd 91da a4bd da97 e9be 0655 fc3d
00000170: 7c59 96be 1ec4 cebd 31cb eabd a001 42be
00000180: 5d5b 03bc 7381 723e 0830 98be 7404 ac3d
00000190: 6b6e 47bd 512c b73d 3164 8a3c 6350 cfbd
000001a0: ef39 9c3e e3f8 1a3e a5ff 923e 8e42 9dbe
000001b0: a306 38be dc1d 4dbe 3463 29bd 6b93 4f3c
000001c0: a8be 383e 11ee ad3d 2b70 693d 32ca 063d
000001d0: a74d b8be eb56 d43d 8da2 a3bc ef5a f53c
000001e0: cb38 51bd 86d8 b9bd 8cc4 b4be 5154 d73e
000001f0: b03a cebd 5819 61be 0f46 81be 17d6 06be
00000200: d374 7fbe 94ac 5d3e 3af1 f0bd 431f 813b
00000210: f599 22bd 036e 333e ad78 d7be 3f67 de3c
00000220: 64da 0e3e c66b dd3d 5f89 05bd 1c7b 14bd
00000230: a376 6ebd 7cbf 373e c338 6d3e ebd5 8f3e
00000240: 96f7 a83e 5e84 903e 4309 073d 642d 1ebd
00000250: 5cf8 5b3e 5747 6e3d 15ff 403d d6f9 53bd
00000260: fd55 af3d 5aeb cabd 5821 1d3d a823 f1be
00000270: 67d6 6a3e 63d3 923e 271a 0cbe d8e7 4cbe
00000280: f823 0d3e 8382 163d 178b 02bd 4b90 b23d
00000290: 75b5 9fbd 3505 68be 2a1c 6c3e 7246 923e
000002a0: 7299 2b3e 45c6 4dbe 0241 0abe 91f3 f3bd
000002b0: c0f2 053e 276b 7dbe 98f0 cc3e 3240 2d3d
000002c0: bb2d b0bc 6ec8 383e c071 013e d58b 4f3d
000002d0: b12a 6d3c 6d35 923e 8baf 0fbd 1e4e 4e3e
000002e0: c9f0 b23d 8dde a2bd c776 123d 77de 373e
000002f0: 6923 d7bc 0998 033e 18a7 973d b5c5 003e
00000300: 4140 04be 98f3 aebe 3b23 453d 8bee 8abd
00000310: ca73 d83d 0d29 01be ef68 02bd 540e b03e
00000320: c798 083e cde7 adbe 1bbc 72be 7b53 1fbd
00000330: c85f be3e a626 82be 7409 31be 6bc5 37bd
00000340: 385c c9bd 90a5 fd3d 3cdb 13be dbff 92bd
00000350: ae92 5e3e 839d 963c 9be8 5b3d 4cdd 91bd
00000360: 4cda 74be b579 d6bd 8f5a 053e 0959 89bd
00000370: 6f21 ca3d 14b7 d53d 0b54 8ebe 6f8b 2c3e
00000380: bbfd f53d ba9c adbc 849f 74be 9329 f2bd
00000390: a8e0 ce3d 2d55 983e f7b7 f33d 42fd 093e
000003a0: a38d c8bd 9223 993e dc27 e0bd 2cc8 2a3d
000003b0: f27f 6f3e 9c3f ce3e 3129 933d 43c1 29bd
000003c0: 825d 8abd eb1a ce3e e9ad 823e c841 61be
000003d0: cd14 6ebe 2e5c fbbd ac53 a4be c21a 433d
000003e0: ab44 513e 7204 b43d 8002 52be 06a5 eabd
000003f0: f553 983d 075d 48be 600b 313e f8ae 3ebe

baseModel.mlp1.layers.0.bias f4 [32]
0.046054784 0.21471576 -0.10151513 -0.06942987 0.36883008 0.41033173 0.2548382 0.113250546
0.007488157 0.25383088 0.33117867 -0.22246268 0.15648866 0.118644826 0.12283426 0.46650448
0.17815052 0.429884 0.28690803 0.063544296 -0.13307777 0.030607292 0.050594505 0.1474201
0.083010025 -0.012854307 0.30119482 -0.012741092 -0.088583685 0.031764857 0.19021547 -0.027727399
00000000: f1a3 3c3d 73de 5b3e 2ae7 cfbd 3f31 8ebd
00000010: 4cd7 bc3e 0017 d23e 277a 823e e7ef e73d
00000020: 375f f53b 1ff6 813e 4090 a93e 42cd 63be
00000030: 903e 203e 0ffc f23d 8790 fb3d add9 ee3e
00000040: 176d 363e c119 dc3e 9ce5 923e 8323 823d
00000050: 8a45 08be 25bc fa3c 2f3c 4f3d 4bf5 163e
00000060: 2901 aa3d df9a 52bc 3536 9a3e 03c0 50bc
00000070: 5d6b b5bd de1b 023d d8c7 423e 9224 e3bc

baseModel.mlp1.layers.2.weight f4 [64, 32]
-0.0019754341 0.12387356 -0.10404864 -0.15928942 -0.19705407 -0.39288026 -0.24722184 0.055459972
0.26302293 0.2031395 0.058430515 -0.3486727 -0.2083084 0.14096762 -0.078132346 0.067440525
0.121006735 -0.0603153 0.008557362 0.23188366 0.30675393 -0.16342449 0.065615535 -0.12562752
0.060728844 0.08758233 0.09615293 0.31387234 0.036652017 0.10344912 0.019843057 -0.09247914
0.17878914 0.059134126 0.015790435 0.19474016 0.1939386 0.25975952 -0.032198466 0.052077513
-0.007844275 -0.1484303 -0.032275088 0.17748435 0.080204494 -0.17275614 0.03843629 -0.12545373
-0.019720577 0.30093664 -0.19013512 0.07168996 -0.052095193 0.025145251 -0.20765725 0.12852408
-0.14424711 0.24734415 0.077192985 0.15956137 -0.09649138 -0.14389822 -0.28143418 0.14774944
-0.11202651 0.21039313 -0.14899498 -0.046512358 -0.33845466 0.20519367 0.108531244 0.29762897
-0.20576721 -0.18957256 0.18324013 0.109023064 0.023906773 0.07408045 0.1318529 0.20181364
-0.18415155 0.28764105 0.12786178 -0.32205087 0.13690633 -0.037685506 -0.11767823 0.07616459
0.23131673 0.31740648 -0.29501653 0.22054473 0.12521067 0.30513245 -0.22700489 -0.2576247
0.07244207 -0.2009251 -0.12068789 0.10634089 -0.19145729 0.1337945 -0.011829876 0.02359698
-0.07110873 -0.013733033 0.25931507 0.11356327 -0.1434678 0.031563465 -0.078401685 0.23987214
-0.32986978 0.19909127 0.124616325 -0.24726772 0.1069184 0.19865447 -0.21621631 0.051751193
0.059993196 -0.13555281 -0.3261302 -0.09198322 0.07761147 0.056700647 0.31735682 0.32062304
-0.00019189897 -0.19440372 0.077108204 -0.23774043 -0.5955002 0.09804029 -0.11672765 0.22629248
0.119546816 0.113808386 0.098978475 -0.07079278 -0.1213965 -0.00845554 -0.29231846 0.044178642
-0.4277504 0.09561266 0.033592355 0.28556037 -0.19675842 0.072388336 -0.012035862 0.2335187
0.23819692 0.018196465 -0.34771937 0.03779974 -0.08025757 0.1463018 0.2025288 0.06220136
-0.064838685 0.16092768 0.08881683 -0.11486813 -0.34653077 -0.17695376 -0.11080014 0.10922671
0.045911852 0.09038216 -0.11018188 -0.19306871 0.22924875 -0.021298649 -0.2317366 0.07595809
0.07647712 0.1817743 -0.0036084515 0.21120249 0.10280741 -0.033357065 0.06709009 -0.2101812
0.19904596 0.093181334 0.26210192 0.27004385 0.20812273 0.14901613 -0.18802625 0.07216063
0.34712386 -0.10185172 0.09473494 0.04373576 0.31564462 0.20216262 0.12519059 0.13978168
-0.01417309 -0.009602068 0.1582872 -0.0024017354 0.06010398 -0.25518164 0.07827991 -0.038455904
-0.115472496 0.21453312 0.0038205096 -0.056811754 0.090665326 0.035490304 -0.045435354 0.036321305
-0.21754284 0.19408439 -0.34002525 -0.28109238 -0.2216833 -0.097992465 0.30136758 -0.03993953
0.07131793 0.09030995 -0.034011886 0.33590686 0.1890835 -0.13805656 0.26009592 -0.021079557
0.25331315 0.035564765 0.085695855 0.22192584 0.10901927 0.23732059 0.18596967 -0.104762904
0.06748373 -0.055760063 0.017735522 0.19917367 0.09640379 -0.06390189 0.048163444 0.24980937
-0.09354791 0.04362611 0.19226292 -0.018452508 0.045217216 0.09742466 -0.20744587 -0.13310929
00000000: 4976 01bb 6cb1 fd3d 7417 d5bd c41c 23be
00000010: 8bc8 49be 9a27 c9be b927 7dbe ff29 633d
00000020: f1aa 863e cd03 503e d654 6f3d 3a85 b2be
00000030: cc4e 55be d159 103e da03 a0bd 421e 8a3d
00000040: 61d2 f73d 2d0d 77bd 2d34 0c3c e972 6d3e
00000050: da0e 9d3e c058 27be 7061 863d 80a4 00be
00000060: cfbe 783d 5d5e b33d d4eb c43d e0b3 a03e
00000070: 6d20 163d 22dd d33d e88d a23c b465 bdbd
00000080: 8014 373e a036 723d f15a 813c f769 473e
00000090: d797 463e 33ff 843e 8ae2 03bd 3b4f 553d
000000a0: 4685 00bc 1dfe 17be e232 04bd 75be 353e
000000b0: 4142 a43d fce6 30be 5f6f 1d3d f176 00be
000000c0: 0c8d a1bc 5e14 9a3e c8b2 42be 30d2 923d
000000d0: c561 55bd 6afd cd3c 1aa4 54be d19b 033e
000000e0: 84b5 13be c947 7d3e 5b17 9e3d 0e64 233e
000000f0: 469d c5bd 0e5a 13be 2418 90be a14b 173e
00000100: 286e e5bd 4c71 573e 2492 18be be83 3ebd
00000110: ee49 adbe 4a1e 523e a145 de3d d362 983e
00000120: a4b4 52be 4f1f 42be 4da3 3b3e 7c47 df3d
00000130: 23d8 c33c 7eb7 973d 7204 073e 3ca8 4e3e
00000140: 3992 3cbe b045 933e 33ee 023e dae3 a4be
00000150: 2c31 0c3e 1e5c 1abd 4901 f1bd 2efc 9b3d
00000160: 4bde 6c3e 1a83 a23e 680c 97be 7ad6 613e
00000170: 3a37 003e 523a 9c3e f873 68be 62e7 83be
00000180: 825c 943d 4fbf 4dbe 362b f7bd 41c9 d93d
00000190: 610d 44be 6d01 093e 19d2 41bc 744e c13c
000001a0: 74a1 91bd 8400 61bc f2c4 843e dc93 e83d
000001b0: 39e9 12be b148 013d 1091 a0bd 0ba1 753e
000001c0: b1e4 a8be 95de 4b3e d836 ff3d c033 7dbe
000001d0: 09f8 da3d 146c 4b3e cf67 5dbe 0ff9 533d
000001e0: 6dbb 753d 5bce 0abe 8afa a6be b361 bcbd
000001f0: c3f2 9e3d f03e 683d 987c a23e b428 a43e
00000200: 7d38 49b9 c511 47be e8ea 9d3d 3a72 73be
00000210: b372 18bf 59c9 c83d e80e efbd 37b9 673e
00000220: f6d4 f43d 5f14 e93d 3ab5 ca3d cefb 90bd
00000230: ba9e f8bd 1b89 0abc c4aa 95be aaf4 343d
00000240: 1a02 dbbe 92d0 c33d 2398 093d f834 923e
00000250: 0a7b 49be 5640 943d 1032 45bc 871f 6f3e
00000260: e5e9 733e c110 953c 4608 b2be e6d3 1a3d
00000270: 155e a4bd 24d0 153e b663 4f3e dac6 7e3d
00000280: 25ca 84bd 3aca 243e 99e5 b53d fb3f ebbd
00000290: 7b6c b1be 5e33 35be 2feb e2bd 41b2 df3d
000002a0: 110e 3c3d 481a b93d 0aa7 e1bd ceb3 45be
000002b0: 2fc0 6a3e 817a aebc 5c4c 6dbe ea8f 9b3d
000002c0: 09a0 9c3d 0b23 3a3e c57b 6cbb 7745 583e
000002d0: b18c d23d 6ba1 08bd 8766 893d be39 57be
000002e0: b4d2 4b3e dbd5 be3d 3932 863e 3043 8a3e
000002f0: 201e 553e af97 183e f489 40be f4c8 933d
00000300: 38ba b13e a297 d0bd 6404 c23d 4524 333d
00000310: 2c9c a13e b803 4f3e f631 003e ee22 0f3e
00000320: 4036 68bc fe51 1dbc 0a16 223e 6f66 1dbb
00000330: 972f 763d 2ba7 82be 3851 a03d f083 1dbd
00000340: d87c ecbd 92ae 5b3e 8461 7a3b 71b3 68bd
00000350: beae b93d 485e 113d 6c1a 3abd a6c5 143d
00000360: 8dc3 5ebe 0fbe 463e ca17 aebe 57eb 8fbe
00000370: f200 63be 46b0 c8bd da4c 9a3e a297 23bd
00000380: 230f 923d 6cf4 b83d 0c50 0bbd fcfb ab3e
00000390: 1b9f 413e b35e 0dbe 4b2b 853e 09af acbc
000003a0: 43b2 813e 5cac 113d 4f81 af3d 8740 633e
000003b0: 7f45 df3d 2b04 733e d56e 3e3e ef8d d6bd
000003c0: e934 8a3d aa64 64bd 164a 913c 2ff4 4b3e
000003d0: 5a6f c53d fede 82bd 0847 453d 07ce 7f3e
000003e0: 0c96 bfbd 4bb1 323d 92e0 443e b729 97bc
000003f0: b035 393d 9586 c73d b16c 54be cd4d 08be

baseModel.mlp1.layers.2.bias f4 [64]
-0.04982178 0.09775015 -0.02756122 0.2238285 0.043209225 0.20519145 0.041301534 0.20033297
-0.08637958 0.20835157 0.09979087 -0.11091331 0.19986565 0.1899204 0.022299172 0.17768578
0.37809548 0.2348688 0.116938815 -0.11636674 0.10182835 -0.045500193 0.2945384 -0.13882887
0.20477657 0.21596867 0.08806725 0.087138355 0.089743435 0.359362 0.073081926 0.0992431
0.24795103 -0.062365137 0.2453059 0.0815421 0.15930301 0.34000978 0.07779227 0.31371453
0.06730628 0.01491583 -0.003049557 -0.01625938 0.26328257 0.09195526 -0.062433053 0.07703706
0.103013 0.3483901 0.071944565 -0.051773615 0.18640885 -0.024825288 0.030556522 -0.047858242
0.24271 -0.118041545 0.13162582 0.3539137 0.34085217 0.23294364 0.20073268 -0.22106344
00000000: ec11 4cbd 3b31 c83d 11c8 e1bc 4c33 653e
00000010: 28fc 303d b51d 523e cc2b 293d 1624 4d3e
00000020: c7e7 b0bd 1d5a 553e 285f cc3d 8426 e3bd
00000030: 95a9 4c3e 7e7a 423e c1ac b63c 43f3 353e
00000040: bb95 c13e 7281 703e 9e7d ef3d af51 eebd
00000050: 628b d03d 695e 3abd bdcd 963e 2829 0ebe
00000060: f3b0 513e e426 5d3e 9a5c b43d 9875 b23d
00000070: 68cb b73d 4cfe b73e faab 953d f73f cb3d
00000080: e0e6 7d3e 9672 7fbd 7831 7b3e 8bff a63d
00000090: 5420 233e c315 ae3e 8e51 9f3d 319f a03e
000000a0: e0d7 893d 8761 743c 14db 47bb 6432 85bc
000000b0: f9cc 863e 0a53 bc3d cdb9 7fbd 9bc5 9d3d
000000c0: 7bf8 d23d 3060 b23e ac57 933d 9210 54bd
000000d0: f6e1 3e3e 675e cbbc ac51 fa3c 0107 44bd
000000e0: f888 783e c4bf f1bd ebc8 063e 2d34 b53e
000000f0: 2d84 ae3e c788 6e3e de8c 4d3e 745e 62be

baseModel.mlp1.layers.4.weight f4 [32, 64]
0.0876084 -0.0110875545 0.07117333 -0.10608522 -0.06256848 -0.053477123 -0.1430877 -0.0017862212
-0.10102876 -0.15767592 -0.042111117 -0.15613508 0.0001037794 0.013761174 -0.12575415 0.018274184
-0.14755313 -0.049333956 -0.1531563 0.0527355 0.061096303 0.091755696 -0.16289608 0.12672424
0.08872969 -0.12809496 -0.12197239 -0.2142702 -0.08224831 0.0019883744 -0.12373267 -0.048662327
-0.036023606 0.10070896 -0.07657013 -0.07296762 -0.00094202335 0.06848849 0.012173201 0.027145471
-0.030082496 0.17947425 -0.030340208 0.17127848 -0.093076564 0.07855496 -0.0779594 -0.013350777
-0.06466356 -0.08319675 -0.021859122 -0.05804212 -0.047362704 0.030230138 0.053840045 -0.16667837
-0.11832935 -0.05074545 -0.05937409 -0.17325857 -0.10109493 -0.22440906 -0.1859885 0.021687405
0.093366794 -0.029444033 -0.13767964 -0.15567063 0.14610565 -0.029217932 -0.024606427 -0.14774574
-0.0021426887 0.038630135 0.040316515 0.055321384 -0.106983386 -0.03855272 -0.12834974 -0.064950064
-0.15763631 -0.16291995 0.035123147 -0.09904616 -0.099942006 0.019119121 0.087617844 0.084625706
0.037257623 -0.10164332 -0.079587944 0.050020877 -0.16904148 -0.12667872 -0.18928109 -0.16222586
-0.16528763 0.41922486 0.043261986 0.0974354 -0.20475489 -0.24682909 0.025113648 -0.233155
-0.08585414 -0.17753124 -0.03514112 0.08861224 -0.17121662 0.037200965 0.008696764 0.025910381
-0.05971918 -0.12480407 -0.14124101 -0.10214822 -0.055889923 -0.05876514 -0.2061305 -0.029763002
0.03088985 0.069787346 -0.18895583 -0.04505398 -0.0063894386 0.02468675 -0.08017135 -0.120526835
0.110148676 0.24494012 0.02649721 -0.06839608 -0.004954591 0.038828507 0.2205519 0.11822774
0.021464745 0.109535195 0.015862131 -0.17689998 -0.039610412 0.13080952 -0.15095396 -0.27493832
0.17067996 -0.0030975235 -0.16225147 0.3546924 0.05452022 0.32959527 -0.04396088 -0.0754073
-0.25083667 0.19538237 0.20299003 0.09673096 -0.0931106 -0.027205 0.21598846 0.013105018
0.032474596 0.14066789 -0.05718929 0.14712034 -0.14187457 -0.1292483 -0.046882764 0.1324775
0.0069354437 -0.27074203 -0.26780602 0.059178993 -0.087805174 -0.0958707 -0.002324934 -0.07893082
0.07996658 0.07231325 -0.3584237 -0.29972476 -0.07258511 -0.058050733 0.17546561 -0.08540659
0.055267423 -0.29621327 0.14129812 -0.036911532 0.15037484 -0.11585033 -0.24250242 -0.07108156
0.11653235 -0.18846324 -0.17139168 -0.07761089 0.07265563 0.039078526 -0.25641012 0.046657924
-0.09068867 -0.29379687 -0.10170303 -0.25445718 0.055244997 -0.0680036 -0.0577761 -0.010093787
-0.2826875 0.26349276 -0.109553374 -0.24902561 0.11220152 -0.052800596 -0.19719411 0.05709585
0.044679035 -0.093760684 -0.3596704 0.023581365 0.0045900433 -0.048164383 0.027522422 -0.06288163
-0.28047332 0.3648965 -0.00987045 -0.16713852 0.106126994 0.076420635 0.18481469 -0.0051852153
0.15517971 0.20351472 -0.06206117 -0.1606653 -0.013053387 -0.07815956 -0.071980216 0.1772379
0.076775245 -0.031710114 -0.09489852 0.08671176 0.0009862412 0.25215444 -0.019490141 -0.15601197
-0.1501038 -0.111623734 0.045641065 -0.22604549 -0.13978662 -0.13597631 0.023031326 -0.19394422
00000000: 086c b33d 93a8 35bc 53c3 913d 3543 d9bd
00000010: e723 80bd d40a 5bbd 9585 12be a31f eaba
00000020: 2be8 cebd cc75 21be b57c 2cbd e0e1 1fbe
00000030: 24a4 d938 8c76 613c b2c5 00be beb3 953c
00000040: 2b18 17be 6712 4abd 01d5 1cbe 2e01 583d
00000050: 1e40 7a3d 69ea bb3d 3bce 26be 00c4 013e
00000060: e9b7 b53d 532b 03be a9cc f9bd a669 5bbe
00000070: cd71 a8bd 634f 023b 8e67 fdbd 2652 47bd
00000080: 7d8d 13bd 8040 ce3d cdd0 9cbd 0c70 95bd
00000090: 1ef2 76ba b243 8c3d 1b72 473c 2e60 de3c
000000a0: 916f f6bc 19c8 373e 078c f8bc a063 2f3e
000000b0: ed9e bebd 6ce1 a03d 2ea9 9fbd 38bd 5abc
000000c0: 546e 84bd 0f63 aabd e711 b3bc 93bd 6dbd
000000d0: 65ff 41bd 32a5 f73c 6187 5c3d bcad 2abe
000000e0: a956 f2bd 76da 4fbd 3f32 73bd b26a 31be
000000f0: dc0a cfbd 7dcb 65be c573 3ebe c9a9 b13c
00000100: 1737 bf3d 9d34 f1bc e4fb 0cbe 1f68 1fbe
00000110: b89c 153e 725a efbc 6b93 c9bc a94a 17be
00000120: 5a6c 0cbb a23a 1e3d ee22 253d ad98 623d
00000130: 1b1a dbbd 75e9 1dbd 1d6e 03be 8a04 85bd
00000140: 6a6b 21be 7dd4 26be 4add 0f3d b7d8 cabd
00000150: 65ae ccbd b49f 9c3c fc70 b33d 3e50 ad3d
00000160: 739b 183d 5f2a d0bd 01ff a2bd b1e2 4c3d
00000170: 3619 2dbe 11b8 01be e7d2 41be 891e 26be
00000180: 2941 29be a4a4 d63e 7b33 313d 368c c73d
00000190: 44ab 51be c4c0 7cbe 23bb cd3c 2fc0 6ebe
000001a0: 4cd4 afbd c0ca 35be 23f0 0fbd 567a b53d
000001b0: 6953 2fbe 0a60 183d df7c 0e3c 0242 d43c
000001c0: 199c 74bd 4799 ffbd 7ca1 10be 1633 d1bd
000001d0: d5ec 64bd b7b3 70bd e013 53be 8ad1 f3bc
000001e0: b60c fd3c abec 8e3d a37d 41be 868a 38bd
000001f0: 7f5e d1bb de3b ca3c e030 a4bd c6d6 f6bd
00000200: a195 e13d 95d1 7a3e ad10 d93c 3e13 8cbd
00000210: 1f5a a2bb a40a 1f3d 5bd8 613e 6321 f23d
00000220: d5d6 af3c fd53 e03d 4df1 813c 4525 35be
00000230: 873e 22bd eef2 053e ad93 1abe b7c4 8cbe
00000240: bac6 2e3e d2ff 4abb 4025 26be 3e9a b53e
00000250: 9850 5f3d b6c0 a83e 5310 34bd 246f 9abd
00000260: aa6d 80be 5112 483e 9edc 4f3e e21a c63d
00000270: c5b0 bebd 05dd debc 142c 5d3e 6eb6 563c
00000280: 1504 053d 3e0b 103e 513f 6abd b7a6 163e
00000290: 9147 11be ab59 04be 2408 40bd 2fa8 073e
000002a0: b842 e33b b39e 8abe df1d 89be ac65 723d
000002b0: 33d3 b3bd dc57 c4bd eb5d 18bb 7ba6 a1bd
000002c0: 85c5 a33d f818 943d 5083 b7be 8675 99be
000002d0: 81a7 94bd 9bc6 6dbd 42ad 333e a6e9 aebd
000002e0: 1860 623d 44a9 97be 74b0 103e 8c30 17bd
000002f0: ddfb 193e f042 edbd 8e52 78be 3593 91bd
00000300: 83a8 ee3d 82fc 40be 4d81 2fbe 75f2 9ebd
00000310: 7acc 943d ce10 203d 3048 83be 611c 3f3d
00000320: fbba b9bd 8b6c 96be ae49 d0bd 3648 82be
00000330: 9448 623d 7945 8bbd a2a6 6cbd 6960 25bc
00000340: 6abc 90be 86e8 863e 855d e0bd 9200 7fbe
00000350: e9c9 e53d 7045 58bd 41ed 49be 57dd 693d
00000360: 5d01 373d 9a05 c0bd b826 b8be b52d c13c
00000370: 1368 963b 0448 45bd b476 e13c 16c8 80bd
00000380: 339a 8fbe b7d3 ba3e abb7 21bc 5c26 2bbe
00000390: 1c59 d93d 6c82 9c3d 1040 3d3e bde8 a9bb
000003a0: 6ee7 1e3e 2a66 503e da33 7ebd 7285 24be
000003b0: e0dd 55bc 1f12 a0bd 5d6a 93bd da7d 353e
000003c0: 573c 9d3d 77e2 01bd 285a c2bd ef95 b13d
000003d0: c344 813a 631a 813e caa9 9fbc 9ac1 1fbe
000003e0: d0b4 19be fc9a e4bd 20f2 3a3d 7878 67be
000003f0: 3924 0fbe 603d 0bbe 31ac bc3c 5099 46be

baseModel.mlp1.layers.4.bias f4 [32]
-0.06546143 -0.097917974 -0.0073426184 -0.068836614 -0.08271365 -0.030491553 0.06421659 0.20278469
-0.0704995 0.06749787 -0.036063097 0.027839722 -0.070092425 -0.040713966 -0.2671318 0.29245558
-0.0249375 -0.14465505 0.155946 0.23197751 0.05910128 0.08571928 0.120571546 0.13554078
-0.2713812 -0.059945337 -0.11271365 0.013620319 -0.13007866 0.004215949 -0.062023595 0.10752457
00000000: a410 86bd 3889 c8bd 599a f0bb 36fa 8cbd
00000010: c665 a9bd 6cc9 f9bc fd83 833d caa6 4f3e
00000020: 0b62 90bd 533c 8a3d e6b6 13bd 2110 e43c
00000030: 9e8c 8fbd b0c3 26bd 80c5 88be bdbc 953e
00000040: ba49 ccbc 7420 14be 4fb0 1f3e 838b 6d3e
00000050: 2f14 723d 978d af3d 37ee f63d 34cb 0a3e
00000060: 7af2 8abe 3e89 75bd 6ad6 e6bd c227 5f3c
00000070: 5733 05be f225 8a3b 740c 7ebd d735 dc3d

baseModel.mlp2.layers.0.weight f4 [32, 84]
-0.048007336 0.012110981 -0.030212982 -0.02372318 -0.07159193 -0.10040725 0.10785226 0.08263726
-0.0042291493 0.05025887 -0.031898133 0.13268933 0.05418969 -0.10748843 0.1577273 0.10153308
-0.07175933 -0.16092825 0.16328982 -0.08564956 -0.057493206 -0.07999829 0.03151204 -0.1477758
0.0413796 -0.120307654 0.08478996 0.04294891 -0.1391079 0.02704784 0.037697658 0.0015188057
-0.047906432 -0.12357365 -0.12671848 -0.0731543 0.0016622853 0.08012891 0.059796173 -0.019767735
0.0125898635 0.0503874 0.12683518 0.059043754 -0.06866216 -0.13415653 -0.062275182 -0.040142752
-0.020676358 -0.012091964 0.114277 -0.13084619 0.074494705 -0.036930546 0.03517824 0.2857619
-0.05618629 0.046014205 -0.006790063 -0.0070246225 0.028581223 0.011578776 0.050907724 -0.07920114
0.005044617 0.09695404 0.15985692 0.10118775 0.0041802884 0.023850774 0.014052581 0.02373475
-0.068167955 -0.16964978 -0.10948792 0.049704842 -0.026153 0.14691071 -0.06651892 -0.013470311
0.015850179 0.06316397 -0.14001231 0.10688991 -0.104385465 0.19276571 -0.07010495 0.06503336
0.11948345 -0.14284153 -0.10351121 0.03179269 -0.17947505 -0.07042162 -0.16343923 -0.016926447
-0.012820324 0.15853858 -0.06130334 -0.08829131 -0.11868326 0.00058258313 -0.08857607 0.04194036
-0.10090472 -0.106390305 -0.0271139 -0.06455932 -0.032550488 0.0754427 0.05360128 -0.078162976
-0.025838394 0.009220319 -0.15609978 -0.0331964 -0.10796897 0.095353186 -0.0009897756 0.065703265
0.112771526 -0.0044203424 -0.039348457 0.11006665 -0.05477055 -0.06372581 0.122135304 -0.118466415
0.100611925 0.06450498 0.03797635 -0.14713718 0.1709681 -0.07975978 -0.13417661 0.06902431
-0.019554256 0.091484435 -0.03963568 -0.09731055 0.023418711 -0.08634022 -0.14417267 -0.03279546
0.10806148 0.010154959 0.046987724 -0.012396416 0.07339975 -0.026365524 -0.030581327 -0.04819233
-0.033947326 -0.06075666 0.0069929515 -0.08485835 0.14428729 0.06760326 -0.10276564 0.005710121
0.013748239 -0.05063725 -0.03553237 0.100296184 -0.05964294 -0.00092895597 0.0095789675 -0.07189986
-0.00090195047 -0.11586363 -0.09092209 -0.0110619115 -0.012972583 -0.053290114 -0.11471603 0.020020317
0.025865067 0.016427744 0.041220974 -0.048336133 -0.12000607 0.16549662 0.056750793 0.097224645
0.013509632 0.049135763 0.27856958 -0.14794306 -0.09809662 0.06982328 -0.06684059 0.053145252
-0.013667449 -0.044478692 0.07373829 -0.089122795 0.13737658 0.0039230627 -0.09336037 -0.17238514
0.026733076 -0.07087168 0.055782184 0.12697414 0.047786888 0.045459762 -0.02226718 0.046338473
-0.039297134 -0.03011742 -0.17153889 -0.068987936 -0.04545279 0.09189973 0.065166175 0.10325023
-0.15092482 -0.0016890389 0.07976122 0.1398795 0.031372905 -0.09992004 -0.052495796 -0.029961243
0.06972294 -0.042893533 -0.005739827 0.10560357 -0.018675629 -0.0067441 -0.080722585 0.09450886
-0.019472929 0.108714774 -0.021593327 0.02111229 -0.026823726 0.12377801 0.19251801 -0.10121059
-0.013466321 0.02113925 -0.08638457 0.17736785 0.029185185 -0.13548546 -0.082446985 -0.06668126
0.016427986 0.014024324 0.010084885 -0.0028467327 -0.025859354 0.1158166 0.041663 0.1545049
00000000: 57a3 44bd 236d 463c 3781 f7bc 1d57 c2bc
00000010: ca9e 92bd 51a2 cdbd a5e1 dc3d b93d a93d
00000020: ad94 8abb 3fdc 4d3d 9ea7 02bd b6df 073e
00000030: 02f6 5d3d e522 dcbd 4483 213e 93f0 cf3d
00000040: 8ef6 92bd 60ca 24be 7235 273e 0969 afbd
00000050: ff7d 6bbd 25d6 a3bd c512 013d 8a52 17be
00000060: a87d 293d dc63 f6bd 5ca6 ad3d 32eb 2f3d
00000070: 4d72 0ebe 6f93 dd3c dc68 1a3d aa12 c73a
00000080: 8939 44bd 2f14 fdbd 7dc2 01be ecd1 95bd
00000090: 0ae1 d93a a01a a43d d5ec 743d f2ef a1bc
000000a0: b745 4e3c 0563 4e3d 15e1 013e ddd7 713d
000000b0: bf9e 8cbd 5460 09be 4314 7fbd ba6c 24bd
000000c0: 7761 a9bc 5f1d 46bc 0f0a ea3d 8bfc 05be
000000d0: ae90 983d 7c44 17bd 0f17 103d 624f 923e
000000e0: 9823 66bd 6479 3c3d 2d7f debb ce2e e6bb
000000f0: 2b23 ea3c e8b4 3d3c 9e84 503d 3534 a2bd
00000100: 514d a53b d78f c63d 88b1 233e 863b cf3d
00000110: cdfa 883b b362 c33c cc3c 663c 616f c23c
00000120: a49b 8bbd acb8 2dbe 343b e0bd 4e97 4b3d
00000130: d13e d6bc c36f 163e 123b 88bd 94b2 5cbc
00000140: 3cd8 813c 1d5c 813d 635f 0fbe 19e9 da3d
00000150: 0cc8 d5bd 6064 453e 2f93 8fbd 3630 853d
00000160: bdb3 f43d 0d45 12be affd d3bd 0d39 023d
00000170: 4fc8 37be 3639 90bd 9d5c 27be 55a9 8abc
00000180: 560c 52bc f057 223e 3619 7bbd 13d2 b4bd
00000190: 3610 f3bd 7eb8 183a 5f67 b5bd a8c9 2b3d
000001a0: 22a7 cebd 29e3 d9bd f81d debc ad37 84bd
000001b0: a953 05bd b481 9a3d 048d 5b3d e913 a0bd
000001c0: 0aab d3bc d210 173c 9fd8 1fbe f3f8 07bd
000001d0: d61e ddbd 8848 c33d 5cbb 81ba 6f8f 863d
000001e0: c2f4 e63d 85d8 90bb d92b 21bd a06a e13d
000001f0: 1657 60bd ad82 82bd 1322 fa3d 859e f2bd
00000200: a00d ce3d 301b 843d 178d 1b3d 21ab 16be
00000210: 4312 2f3e 1859 a3bd 9865 09be 9e5c 8d3d
00000220: 3f30 a0bc 315c bb3d 0659 22bd c14a c7bd
00000230: 99d8 bf3c 24d3 b0bd 00a2 13be 8854 06bd
00000240: 564f dd3d fc60 263c 3376 403d 561a 4bbc
00000250: 9c52 963d 83fc d7bc b185 fabc 5265 45bd
00000260: 5a0c 0bbd fadb 78bd 2125 e53b 37ca adbd
00000270: 0cc0 133e 9473 8a3d cb76 d2bd f71b bb3b
00000280: 4b40 613c 0169 4fbd 648a 11bd 1668 cd3d
00000290: 284c 74bd 2e85 73ba 1af1 1c3c 3c40 93bd
000002a0: df70 6cba e949 edbd 5c35 babd 053d 35bc
000002b0: f58a 54bc bc46 5abd 3df0 eabd a601 a43c
000002c0: fae2 d33c 7a93 863c 53d7 283d 1cfc 45bd
000002d0: bec5 f5bd f277 293e 8573 683d b71d c73d
000002e0: 8157 5d3c 9542 493d aca0 8e3e 637e 17be
000002f0: e1e6 c8bd 82ff 8e3d b8e3 88bd d6ae 593d
00000300: 70ed 5fbc 4a2f 36bd 1a04 973d 0386 b6bd
00000310: 72ac 0c3e 098d 803b b933 bfbd bb85 30be
00000320: 53ff da3c 2c25 91bd dc7b 643d 8205 023e
00000330: 2fbc 433d 0434 3a3d a969 b6bc 69cd 3d3d
00000340: 08f6 20bd cfb8 f6bc e4a7 2fbe 8c49 8dbd
00000350: b42c 3abd ed35 bc3d d875 853d db74 d33d
00000360: 098c 1abe be62 ddba da59 a33d 923c 0f3e
00000370: e080 003d e1a2 ccbd d505 57bd 4871 f5bc
00000380: e7ca 8e3d 21b1 2fbd 2915 bcbb af46 d83d
00000390: a2fd 98bc 9cfd dcbb e251 a5bd dc8d c13d
000003a0: b185 9fbc daa5 de3d 7de4 b0bc aef3 ac3c
000003b0: 6ebd dbbc 537f fd3d 7123 453e 7f47 cfbd
000003c0: d8a1 5cbc 382c ad3c 65ea b0bd eb9f 353e
000003d0: c515 ef3c b3bc 0abe f7d9 a8bd 2f90 88bd
000003e0: fc93 863c 47c6 653c 133b 253c 4090 3abb
000003f0: ffd6 d3bc 4131 ed3d d2a6 2a3d 8836 1e3e

baseModel.mlp2.layers.0.bias f4 [32]
-0.04650527 -0.10733458 0.08692352 -0.020276522 0.1623508 0.050206713 -0.036721528 -0.18831268
0.16107425 -0.0094720945 0.0013720269 -0.14527832 -0.15794589 -0.09430643 0.05257112 -0.099775136
-0.12483484 0.04415662 0.18460381 0.05978921 -0.08074908 -0.10402523 -0.08631123 -0.07373224
-0.12521298 -0.1646354 -0.08782683 -0.07847611 -0.06927653 -0.03673591 -0.19068532 -0.122121364
00000000: 4f7c 3ebd 3bd2 dbbd f504 b23d f31a a6bc
00000010: 4a3f 263e 8ea5 4d3d 5069 16bd 0ad5 40be
00000020: a6f0 243e d830 1bbc 95d5 b33a d7c3 14be
00000030: 91bc 21be bb23 c1bd d154 573d e856 ccbd
00000040: 69a9 ffbd 92dd 343d c808 3d3e 88e5 743d
00000050: c65f a5bd 2e0b d5bd f1c3 b0bd ee00 97bd
00000060: d537 00be 2f96 28be 8ede b3bd 15b8 a0bd
00000070: dae0 8dbd 6578 16bd 0343 43be c41a fabd

baseModel.mlp2.layers.2.weight f4 [64, 32]
-0.17950816 -0.13037278 0.119415864 0.05653812 -0.028361846 -0.17309582 -0.1841489 0.16574225
0.04759474 -0.19033046 -0.30784318 0.22077307 0.082012646 -0.21594921 -0.066792145 0.0035852417
0.073156156 0.15685722 0.108452566 -0.15794715 0.12036698 -0.1821861 0.114762016 0.08342476
0.21489887 -0.07142822 0.19560148 -0.013168018 0.18827535 0.052305203 -0.07906149 -0.32984525
0.1726656 -0.04200656 0.07181823 -0.08174386 -0.0665852 -0.059267994 0.08252435 0.03710666
-0.10271385 -0.12561877 0.018797792 0.2150321 0.03308398 -0.03090576 0.14492199 0.042789325
0.22041345 0.04971174 -0.08180044 -0.32942083 0.07845499 -0.0045921537 0.09200265 0.022754798
0.23177911 -0.11530031 0.10649392 -0.05593317 0.26063597 -0.17341594 0.007984369 0.028548934
0.093089856 0.14880407 -0.1319888 0.105332084 -0.035558004 -0.07622829 0.047887687 -0.09223231
-0.16402367 0.18266387 0.06573302 -0.07263456 -0.13986671 -0.20504208 0.12781025 0.090865046
0.23980848 -0.13050959 -0.26309466 0.1707104 -0.00037947515 -0.0019629148 0.17589004 0.0198295
-0.10795643 0.054175626 -0.04596027 0.08099203 0.060980048 0.13442943 -0.10125982 0.195065
-0.023697916 -0.051456697 -0.1039305 0.20898585 0.15226379 0.16953713 0.17608108 -0.27913272
0.053752996 -0.054710593 -0.0089787785 -0.033319976 0.044622578 0.12118931 0.14771907 0.1554809
0.19695617 -0.037116 0.21072842 0.25133336 0.011770692 -0.26462013 -0.053978503 0.025960028
0.062463924 0.048071332 0.05576904 -0.06196705 0.09155329 -0.123163566 -0.056436323 0.14096585
0.10038934 -0.13104588 0.15206599 -0.021400305 0.11252317 -0.033297606 -0.034293793 -0.17362034
0.111899026 -0.06753415 0.20901473 0.12651105 -0.098528765 -0.09547354 -0.082131885 -0.033319514
-0.25808445 -0.107918546 0.1485202 -0.23610127 0.07630022 -0.074131906 0.09122188 0.01971213
-0.10218897 0.1595618 0.20696618 -0.21663304 -0.037205853 -0.19403175 0.08281979 -0.24558139
-0.12561089 0.06846137 -0.009351872 -0.045039877 -0.23814106 0.20541541 -0.25906375 -0.10805387
-0.036416743 -0.07022782 0.16697006 -0.013895062 0.15200895 0.22156893 -0.2087517 -0.10646376
-0.036298793 0.14921853 -0.034503654 0.17583072 0.19720657 -0.106201544 0.066505425 -0.029748552
-0.027755748 0.10775011 0.010479833 0.15847827 -0.1806558 0.027781209 -0.25257573 0.18685162
-0.19510576 0.14220737 0.064071976 -0.19227946 0.08987078 -0.061989803 0.13443573 0.019060815
-0.10087169 -0.083753794 -0.16374211 -0.18270901 0.024840072 -0.0864528 -0.104561456 -0.10053136
-0.14773259 -0.08332772 -0.010314468 0.06877538 0.22858067 0.21393575 -0.032445 0.0099505205
0.012560447 -0.0826539 0.108016446 0.08930292 -0.3040374 -0.016206026 -0.16082603 -0.22193968
-0.21045563 -0.1323088 -0.2543587 -0.07253207 -0.030457845 0.13731137 -0.14702868 -0.08307118
-0.15210906 -0.09177155 -0.22568169 -0.17214218 0.062606625 -0.024695199 -0.20895103 -0.003230209
0.04164345 -0.24373737 0.009068085 0.007468319 0.110225186 -0.0113203 -0.08071953 -0.1463458
0.101496294 0.22255234 -0.023149494 -0.28134182 0.114207245 0.18215056 -0.2781553 0.063696586
00000000: fdd0 37be 7180 05be 4e90 f43d 8494 673d
00000010: 1a57 e8bc 0840 31be 8791 3cbe 56b8 293e
00000020: b4f2 423d fde5 42be 9f9d 9dbe 5612 623e
00000030: 3ff6 a73d ca21 5dbe 52ca 88bd 60f6 6a3b
00000040: e5d2 953d 2e9f 203e 611c de3d e6bc 21be
00000050: f782 f63d fe8e 3abe 5908 eb3d 9ada aa3d
00000060: 730e 5c3e f548 92bd c14b 483e acbe 57bc
00000070: 41cb 403e fb3d 563d feea a1bd 7ae1 a8be
00000080: 40cf 303e 120f 2cbd 7015 933d 5369 a7bd
00000090: d25d 88bd ffc2 72bd 8702 a93d 27fd 173d
000000a0: a45b d2bd 35a2 00be d4fd 993c 6031 5c3e
000000b0: 1183 073d 142e fdbc 6e66 143e dc43 2f3d
000000c0: 10b4 613e 8a9e 4b3d fd86 a7bd d9a9 a8be
000000d0: 03ad a03d c779 96bb e36b bc3d 4568 ba3c
000000e0: 8157 6d3e 9222 ecbd 7c19 da3d 2e1a 65bd
000000f0: 1472 853e f393 31be dfd0 023c 74df e93c
00000100: e5a5 be3d 1860 183e 1228 07be 59b8 d73d
00000110: 45a5 11bd 941d 9cbd e125 443d 4be4 bcbd
00000120: d2f5 27be 3d0c 3b3e 099f 863d 6ec1 94bd
00000130: 3839 0fbe 8df6 51be b1e0 023e 7417 ba3d
00000140: 5b90 753e 4ea4 05be 58b4 86be b5ce 2e3e
00000150: 4bf4 c6b9 3fa4 00bb 851c 343e 7a71 a23c
00000160: 4318 ddbd 43e7 5d3d d640 3cbd 26df a53d
00000170: 37c6 793d dea7 093e 4f61 cfbd 1fbf 473e
00000180: 2222 c2bc 42c4 52bd 84d9 d4bd 6300 563e
00000190: 0aeb 1b3e 249b 2d3e 994e 343e 7cea 8ebe
000001a0: 1a2c 5c3d 3718 60bd ba1b 13bc 877a 08bd
000001b0: 2ac6 363d 1a32 f83d ab43 173e 6336 1f3e
000001c0: e1ae 493e f206 18bd 31c9 573e c4ae 803e
000001d0: dcd9 403c 4a7c 87be 9018 5dbd 20aa d43c
000001e0: 2cda 7f3d 72e6 443d 146e 643d 29d1 7dbd
000001f0: 4b80 bb3d 2e3d fcbd c629 67bd 5a59 103e
00000200: ed98 cd3d e430 06be 30b7 1b3e b14f afbc
00000210: 8c72 e63d 1263 08bd a677 0cbd 88c9 31be
00000220: 512b e53d 584f 8abd f507 563e 1d8c 013e
00000230: 73c9 c9bd a287 c3bd c334 a8bd 0b7a 08bd
00000240: a523 84be 6604 ddbd ae15 183e 88c4 71be
00000250: 4a43 9c3d 78d2 97bd 89d2 ba3d 557b a13c
00000260: 7348 d1bd 2b64 233e f1ee 533e 0dd5 5dbe
00000270: 2a65 18bd 42b0 46be 6c9d a93d b079 7bbe
00000280: 24a0 00be 7a35 8c3d 9838 19bc bc7b 38bd
00000290: 40db 73be 6b58 523e 01a4 84be 594b ddbd
000002a0: b929 15bd 9ad3 8fbd 33fa 2a3e 1da8 63bc
000002b0: 3ca8 1b3e f7e2 623e 01c3 55be ac09 dabd
000002c0: 0bae 14bd becc 183e b453 0dbd f80c 343e
000002d0: 85f0 493e 3280 d9bd ff33 883d 3cb3 f3bc
000002e0: 0660 e3bc 17ac dc3d 9bb3 2b3c 2148 223e
000002f0: d6fd 38be 6b95 e33c 9b51 81be 0856 3f3e
00000300: cec9 47be cf9e 113e 2b38 833d e8e4 44be
00000310: 2c0e b83d 05e9 7dbd 85a9 093e 6d25 9c3c
00000320: d195 cebd 1c87 abbd 03ac 27be 1218 3bbe
00000330: 687d cb3c 2a0e b1bd 5124 d6bd 63e3 cdbd
00000340: 3647 17be b9a7 aabd 04fe 28bc 1bda 8c3d
00000350: 0d11 6a3e f911 5b3e 0ce5 04bd 8207 233c
00000360: 55ca 4d3c 7346 a9bd ba37 dd3d 73e4 b63d
00000370: caaa 9bbe 80c2 84bc 94af 24be 2844 63be
00000380: ae81 57be f57b 07be 4e3b 82be b28b 94bd
00000390: bb82 f9bc 5a9b 0c3e b08e 16be 3921 aabd
000003a0: 7ac2 1bbe b9f2 bbbd 1a19 67be 0a46 30be
000003b0: e737 803d 964d cabc 42f7 55be eab1 53bb
000003c0: 5292 2a3d 4a96 79be 4e92 143c cdb8 f43b
000003d0: bebd e13d c878 39bc 4850 a5bd acdb 15be
000003e0: 4add cf3d c3e4 633e 02a4 bdbc 090c 90be
000003f0: 7de5 e93d ad85 3a3e 5f6a 8ebe 5b73 823d

baseModel.mlp2.layers.2.bias f4 [64]
-0.18901971 -0.15108536 -0.19684331 0.16498864 0.18225135 0.05972608 -0.041962452 0.03303739
0.1526434 0.02892007 0.36935747 -0.14306116 0.13959557 -0.12061086 -0.10619916 0.24945603
-0.021281423 -0.13719119 -0.09278637 0.291494 -0.17835273 0.110393465 -0.014442426 -0.17517316
0.24567771 -0.12822747 0.04713167 0.0005294096 0.01815941 -0.10134541 -0.10818264 0.057331804
0.041278325 -0.09869852 -0.0093815215 0.18256283 -0.3106412 -0.25492397 -0.13071439 -0.001007103
0.021863742 0.053142287 0.089051545 -0.037701726 0.19503 0.42383307 -0.14016129 -0.07075203
-0.024960322 0.15626493 -0.03877424 0.12714073 0.04491157 -0.072192006 0.27305457 -0.34145892
-0.1181773 -0.1277437 0.059092633 0.067112766 0.19413647 0.18424277 -0.2017332 -0.28211766
00000000: 628e 41be 1fb6 1abe 4b91 49be c8f2 283e
00000010: 19a0 3a3e 56a3 743d d2e0 2bbd 3752 073d
00000020: 8d4e 1c3e c8e9 ec3c 6c1c bd3e a07e 12be
00000030: 24f2 0e3e d402 f7bd f27e d9bd 6771 7f3e
00000040: 6156 aebc d97b 0cbe c806 bebd b43e 953e
00000050: 19a2 36be f815 e23d ed9f 6cbc 9860 33be
00000060: f092 7b3e 104e 03be 230d 413d 14c8 0a3a
00000070: 0bc3 943c 2f8e cfbd dc8e ddbd c1d4 6a3d
00000080: 7613 293d 7322 cabd f4b4 19bc c0f1 3a3e
00000090: 5d0c 9fbe 6585 82be fed9 05be c500 84ba
000000a0: 971b b33c baab 593d a860 b63d 206d 1abd
000000b0: f2b5 473e a600 d93e 7186 0fbe 71e6 90bd
000000c0: 9779 ccbc ea03 203e bdd1 1ebd 2e31 023e
000000d0: 32f5 373d 67d9 93bd cfcd 8b3e b4d3 aebe
000000e0: f106 f2bd 3fcf 02be 1e0b 723d 6b72 893d
000000f0: b6cb 463e 23aa 3c3e 2693 4ebe ba71 90be

baseModel.mlp2.layers.4.weight f4 [32, 64]
0.20154749 -0.064800456 -0.02303552 -0.04960144 0.14799966 0.08412749 -0.07637542 0.22150576
0.083654515 -0.0021333387 -0.008741726 -0.10848185 0.008319583 -0.1740884 -0.080251254 -0.031695135
-0.0874951 -0.06975277 0.099810526 -0.20013176 0.13150266 -0.048145533 0.01726876 -0.089229405
0.01693973 -0.024224455 -0.24918842 0.11093953 0.11080894 0.18521291 0.21109423 0.10019444
-0.117256574 0.05755068 -0.010906573 0.077372275 0.06692475 -0.022895465 -0.024856372 -0.15513396
-0.03337564 0.10999631 -0.013152964 -0.037959356 0.18682615 0.07940394 -0.11049864 -0.14329053
0.26110423 -0.18903533 -0.14205086 -0.18163967 0.11234249 -0.13762859 -0.18056603 0.0023010382
0.039170627 0.01853765 0.1666604 0.047536854 -0.117696606 -0.2184715 0.04906675 0.12997255
0.085075594 0.14581971 -0.06635086 0.044491123 0.131099 -0.041753035 0.058416188 -0.13885726
-0.037007846 0.06858547 -0.06653116 -0.089000665 0.09319875 0.028641317 -0.10551598 0.10526597
-0.031861387 0.04320306 -0.044958 0.059797835 -0.09498626 -0.09919489 0.012269168 -0.054342505
-0.007993471 0.08685602 0.056240585 0.063180484 -0.07803697 -0.0040741013 0.09228586 0.040468775
-0.048855472 -0.097465985 -0.071167834 -0.010028181 -0.05435734 0.01319439 -0.12348795 -0.022323394
0.11135459 0.081060715 -0.07590485 0.10219577 0.02951822 0.04806746 0.12908718 0.03468148
-0.085116506 -0.049972225 -0.1198542 0.16608548 -0.07254476 0.018212011 -0.07184199 -0.08494981
-0.089126736 -0.06712637 -0.06617844 0.03463246 -0.05698576 -0.11402277 -0.08878344 -0.073667295
-0.18701679 -0.18543881 -0.106085494 -0.12561718 -0.026256023 0.039757602 0.07670529 -0.14214028
-0.21559164 0.22791047 -0.1444681 0.22347791 0.0182536 0.069803976 0.00446885 0.033250213
0.13836688 0.18731196 0.004722459 0.12497706 0.045066006 -0.06327216 0.22055107 0.11805809
-0.07336599 -0.08591314 0.2668503 -0.10427867 -0.052525267 -0.050236218 -0.16096418 0.048975606
-0.1472739 -0.10238559 0.008630787 0.23698433 -0.010595084 -0.10160796 -0.07968874 0.20920989
-0.33324158 -0.01123256 0.23881856 0.13877824 -0.28463927 -0.19358511 0.059964817 0.25741434
-0.20647554 0.098590896 0.1319154 -0.13799205 -0.2306509 0.15636119 0.077390395 0.17309272
0.18558747 0.3327175 -0.15863898 -0.058660097 -0.09681705 0.107451566 -0.10225961 0.105371885
-0.19639605 -0.10688208 -0.06495108 0.10051135 -0.21709271 -0.06529075 0.0801493 -0.2922063
-0.22034167 0.23308156 -0.120757125 0.20435585 0.04146852 -0.0025314428 0.12896498 0.047198355
0.24928144 0.15544342 -0.048506122 0.061047524 -0.023351565 -0.09735773 0.15606585 0.09864747
0.0729935 -0.12542012 0.20933644 -0.22262149 -0.17455651 -0.013387001 -0.10316887 0.102672644
-0.12811984 -0.007976138 -0.07448261 0.113538675 -0.08048061 -0.062167875 -0.018185284 0.061057966
-0.036248595 0.14163917 0.096083835 -0.13533811 -0.09915883 0.039264552 0.11602648 0.16037901
-0.27235106 0.24646692 0.19801416 0.23572642 -0.09280348 0.00031986175 0.29058892 0.1266624
0.047633655 0.15883975 0.08145012 0.015934473 -0.053354215 0.15395118 0.026295837 -0.016034786
00000000: 7762 4e3e 1ab6 84bd fdb4 bcbc e12a 4bbd
00000010: 398d 173e 094b ac3d b76a 9cbd 68d2 623e
00000020: 0f53 ab3d 7ccf 0bbb 7539 0fbc bb2b debd
00000030: dc4e 083c 3b44 32be c55a a4bd c2d2 01bd
00000040: a230 b3bd 8ada 8ebd 7669 cc3d 57ef 4cbe
00000050: a2a8 063e 4034 45bd 3777 8d3c e8bd b6bd
00000060: 30c5 8a3c 5d72 c6bc 402b 7fbe 4434 e33d
00000070: ccef e23d 74a8 3d3e 1629 583e be32 cd3d
00000080: 3724 f0bd 43ba 6b3d 7cb1 32bc 5b75 9e3d
00000090: d80f 893d 458f bbbc 979f cbbc 70db 1ebe
000000a0: e5b4 08bd bf45 e13d 887f 57bc 457b 1bbd
000000b0: 5b4f 3f3e 889e a23d 1c4d e2bd c1ba 12be
000000c0: 74af 853e 7a92 41be c875 11be c0ff 39be
000000d0: d213 e63d 82ee 0cbe 4de6 38be 04cd 163b
000000e0: 6171 203d 45dc 973c 06a9 2a3e 01b6 423d
000000f0: eb0a f1bd feb6 5fbe 37fa 483d 8617 053e
00000100: 1d3c ae3d c351 153e f6e2 87bd 533c 363d
00000110: d13e 063e 3b05 2bbd d045 6f3d 9930 0ebe
00000120: 8a95 17bd 8a76 8c3d 7d41 88bd fb45 b6bd
00000130: fcde be3d 32a1 ea3c c318 d8bd af95 d73d
00000140: 1681 02bd b1f5 303d e125 38bd 93ee 743d
00000150: 2888 c2bd b126 cbbd 9f04 493c 3f96 5ebd
00000160: 0cf7 02bc 92e1 b13d 875c 663d c564 813d
00000170: d9d1 9fbd 0a80 85bb 5e00 bd3d 96c2 253d
00000180: ad1c 48bd 3f9c c7bd 71c0 91bd 3d4d 24bc
00000190: cda5 5ebd 482d 583c 40e7 fcbd 8ddf b6bc
000001a0: e00d e43d 2903 a63d 0174 9bbd 044c d13d
000001b0: 32d0 f13c 63e2 443d 6e2f 043e 2b0e 0e3d
000001c0: 9051 aebd adaf 4cbd 1e76 f5bd 5012 2a3e
000001d0: 5992 94bd 5b31 953c e521 93bd 2afa adbd
000001e0: 1488 b6bd 8d79 89bd 9088 87bd c4da 0d3d
000001f0: e669 69bd c584 e9bd 18d4 b5bd e1de 96bd
00000200: 5481 3fbe ace3 3dbe 5a43 d9bd caa1 00be
00000210: df16 d7bc ded8 223d aa17 9d3d 398d 11be
00000220: 0ec4 5cbe 5d61 693e 72ef 13be 65d7 643e
00000230: 9388 953c 63f5 8e3d 6e6f 923b 6031 083d
00000240: 0cb0 0d3e b5ce 3f3e dbbe 9a3b f9f3 ff3d
00000250: 2297 383d d694 81bd 24d8 613e 71c8 f13d
00000260: e840 96bd 3af3 afbd 9aa0 883e 0e90 d5bd
00000270: bc24 57bd 7ec4 4dbd cbd3 24be a59a 483d
00000280: f8ce 16be 89af d1bd 2568 0d3c 05ac 723e
00000290: 0197 2dbc d617 d0bd da33 a3bd 1e3b 563e
000002a0: a49e aabe c508 38bc da8c 743e e21b 0e3e
000002b0: 3dbc 91be 2d3b 46be ab9d 753d d0cb 833e
000002c0: 536e 53be 06ea c93d d514 073e ca4d 0dbe
000002d0: c02f 6cbe 261d 203e db7e 9e3d 383f 313e
000002e0: a40a 3e3e f359 aa3e 4272 22be 9245 70bd
000002f0: 0448 c6bd 910f dc3d 7d6d d1bd 37cd d73d
00000300: 0c1c 49be fee4 dabd 1205 85bd e5d8 cd3d
00000310: 8d4d 5ebe 28b7 85bd 5125 a43d 109c 95be
00000320: 3fa1 61be efac 6e3e 834f f7bd a942 513e
00000330: e5da 293d 90e6 25bb 650f 043e 1053 413d
00000340: a243 7f3e 8f2c 1f3e 5bae 46bd f80c 7a3d
00000350: c84b bfbc 7d63 c7bd bacf 1f3e af07 ca3d
00000360: 9e7d 953d 226e 00be 4b5c 563e e3f6 63be
00000370: f1be 32be 2755 5bbc 334a d3bd 0946 d23d
00000380: d931 03be 59ae 02bc 578a 98bd f786 e83d
00000390: 05d3 a4bd bea3 7ebd 4ef9 94bc eb17 7a3d
000003a0: 6879 14bd dc09 113e 9ac7 c43d 1396 0abe
000003b0: c913 cbbd ded3 203d 4b9f ed3d 653a 243e
000003c0: 9971 8bbe d361 7c3e 39c4 4a3e 4462 713e
000003d0: c00f bebd 1eb3 a739 12c8 943e cab3 013e
000003e0: 821b 433d e3a6 223e 52cf a63d 0389 823c
000003f0: f389 5abd 61a5 1d3e 5e6a d73c 625b 83bc

baseModel.mlp2.layers.4.bias f4 [32]
0.10421196 0.1183358 0.013152891 0.053621422 -0.15921603 -0.027484374 -0.23316257 0.061302748
0.007415364 -0.020984886 0.17593797 -0.06254687 0.039121263 -0.0808375 -0.21942943 0.055861454
-0.034351684 0.08955991 -0.23383266 0.06301305 -0.031404305 0.009455858 -0.06655064 0.050553553
0.071954176 -0.1012485 -0.054590777 -0.11660345 -0.114496686 -0.075542316 -0.020395106 0.010836264
00000000: 156d d53d 0a5a f23d 397f 573c 23a2 5b3d
00000010: 8709 23be e926 e1bc 2bc2 6ebe 9718 7b3d
00000020: 95fc f23b 7fe8 abbc 1529 343e 9318 80bd
00000030: 9e3d 203d 228e a5bd 1cb2 60be fbce 643d
00000040: 5ab4 0cbd 306b b73d d471 6fbe fc0c 813d
00000050: cda1 00bd beec 1a3c b44b 88bd 3e11 4f3d
00000060: b65c 933d 605b cfbd 949a 5fbd cacd eebd
00000070: 3d7d eabd eeb5 9abd a313 a7bc 968a 313c

baseModel.mlp2.layers.6.weight f4 [2, 32]
-0.204879 0.026030935 0.38976818 0.1517009 -0.23075029 0.3278355 -0.47665069 0.2901845
0.13940074 -0.23104861 0.1565537 0.19713746 0.010996759 -0.2988546 -0.35116532 0.12485726
-0.04910729 0.3892307 -0.27409804 0.40399504 -0.09372315 -0.2167932 -0.27020344 -0.07572461
0.13878168 -0.2770505 -0.06827329 -0.089594446 0.21100222 -0.02141563 0.4672917 0.040266752
0.16067599 0.10288351 -0.34465608 -0.3261317 0.34673315 -0.33855408 0.28504047 -0.40582484
-0.3286014 0.19998462 -0.15906772 -0.02768184 -0.26564783 0.3895369 0.16666265 -0.3630448
0.29709128 -0.30123872 0.13630149 -0.16830137 0.1405732 0.2325855 0.054352567 0.09833304
-0.023496486 0.44014093 0.19211143 0.40142053 -0.3913531 0.010358422 -0.46294668 -0.24117008
00000000: cdcb 51be d43e d53c b28f c73e 7b57 1b3e
00000010: ce49 6cbe 0eda a73e 8f0b f4be 1093 943e
00000020: 11bf 0e3e 0298 6cbe 9d4f 203e 67de 493e
00000030: c02b 343c 7803 99be f1cb b3be 2ab5 ff3d
00000040: ba24 49bd 3f49 c73e 9456 8cbe 70d8 ce3e
00000050: ecf1 bfbd 09ff 5dbe 1b58 8abe 8115 9bbd
00000060: c91c 0e3e 90d9 8dbe ded2 8bbd 4b7d b7bd
00000070: f710 583e d56f afbc dc40 ef3e c0ee 243d
00000080: 3f88 243e 97b4 d23d c376 b0be bcfa a6be
00000090: 0287 b13e f656 adbe d3f0 913e 46c8 cfbe
000000a0: 713e a8be c5c8 4c3e a6e2 22be 07c5 e2bc
000000b0: fe02 88be 6171 c73e 9da9 2a3e 02e1 b9be
000000c0: 591c 983e f63b 9abe 9e92 0b3e 3257 2cbe
000000d0: 6cf2 0f3e e52a 6e3e cca0 5e3d d562 c93d
000000e0: b47b c0bc 275a e13e dcb8 443e fe86 cd3e
000000f0: 6f5f c8be 5fb6 293c 5907 edbe 4af5 76be

baseModel.mlp2.layers.6.bias f4 [2]
-0.022445077 -0.1002046
00000000: bdde b7bc 1238 cdbd
