weights/weights_MOCA_10.pt (torch, 52845 bytes, 14 tensors)

baseModel.mlp1.layers.0.weight f4 [32, 20]
000000 ff 8c c0 3c a4 3f 47 bd 6b 7d c1 be ce ff 97 3e
       0.023504732 -0.048644677 -0.37791 0.2968735
000010 71 79 d9 3d 52 d8 c3 bd d9 ec 26 be d5 4c 96 3e
       0.10618866 -0.09562744 -0.16301288 0.29355493
000020 7b 85 0e be c0 0e 11 3d cd 7f ce 3d b8 6d 98 be
       -0.13918106 0.035414457 0.1008297 -0.2977121
000030 f1 1a 8d bc d1 b1 18 bd 35 8a f2 bd 2a d4 7e bd
       -0.01722476 -0.037278954 -0.11842767 -0.062214054
000040 ae 8f 74 3d ab ae be 3d 99 2e 36 3e 0b 6b d5 bd
       0.059707336 0.09310659 0.17791213 -0.104208075
000050 85 88 80 be 1f e8 48 3e 31 60 18 3e 2c 17 19 bd
       -0.25104156 0.19619797 0.14880444 -0.037375614
000060 a5 97 30 3e 72 25 fc bc 9e 44 02 be 35 7a a4 3e
       0.17245348 -0.030779574 -0.12721488 0.32124487
000070 de 51 6c 3e 0e b3 7c 3d 17 8c 14 be 8c 41 a3 3d
       0.23078105 0.061694197 -0.14506565 0.079714864
000080 6d b7 9e 3d e4 dc 0d be 15 6a 7b 3e 1f 1d aa bd
       0.077498294 -0.13853794 0.24552186 -0.08306336
000090 72 b9 5d be 49 4b 61 3e fc fe a3 bc c9 21 0f be
       -0.21652773 0.22001375 -0.020019047 -0.13977732
0000a0 fc a5 3c be e9 b2 71 be 20 5a 82 3d 16 9e 08 3e
       -0.18422693 -0.23603405 0.06364846 0.13341555
0000b0 99 9d 75 bd 5c 6c 97 bb 43 ba 44 be f8 1a 34 3e
       -0.05996475 -0.0046210717 -0.19211678 0.17588413
0000c0 40 ad 6a be 87 80 f2 bd 43 92 be bd be 69 aa bd
       -0.22917652 -0.11840921 -0.09305241 -0.0832095
0000d0 0e d4 dc 3d b5 6e 75 3e 31 f0 03 be 32 bd 8e be
       0.10782634 0.23968013 -0.12884595 -0.2787872
0000e0 7f 84 f9 bd f5 fe 00 3d 00 20 98 bd 1a 55 9b bd
       -0.12183475 0.031493146 -0.074279785 -0.07584591
0000f0 43 5f 3a bd ed bb 2b 3b 28 de 58 3e 86 22 cb 3d
       -0.045501005 0.0026204542 0.21178496 0.09918694
000100 bb 9b b8 bd 4d 58 6b be bf cf 70 bb 45 b7 65 bd
       -0.09014078 -0.22982903 -0.003674492 -0.056082983
000110 b3 42 e6 bc 36 36 ab be 54 ba 0b 3e a7 03 00 be
       -0.028107977 -0.33439797 0.13645297 -0.12501393
000120 e4 1a a5 3e 23 c7 71 3d 3c d8 98 3e 60 3a 96 3d
       0.32247078 0.059027802 0.29852474 0.07335353
000130 3d 1e 16 be db df 7b bd 66 ed 57 3d c7 79 3e 3e
       -0.14659972 -0.061492782 0.052716635 0.18601142
000140 07 c6 db 3d 3f 79 fa bd d3 cd d8 3d 46 33 0c be
       0.1073113 -0.12230157 0.10586133 -0.13691434
000150 33 02 a8 3e fd ca 6a 3d 05 86 bc bd 2a 62 70 be
       0.32814178 0.05732249 -0.0920525 -0.23474947
000160 54 56 7c be a4 56 85 3e 18 d0 02 be d9 12 ae bc
       -0.24642307 0.26042664 -0.12774694 -0.021249222
000170 72 36 b8 bd 70 77 2b 3d f0 fb ac bd 7e d9 3e 3e
       -0.089947596 0.04186195 -0.08446491 0.18637654
000180 f8 e5 0a 3d 1c 41 1f 3e 87 f6 e8 3d 3a cc 54 bc
       0.03391072 0.15552181 0.11375146 -0.0129881445
000190 e3 41 88 3e 77 f9 8b be c3 72 86 be 7b a7 40 be
       0.26612768 -0.27338764 -0.2625943 -0.18813889
0001a0 d2 3a 47 bd 72 13 35 be 62 40 a5 3d 2e f0 d2 bd
       -0.04864008 -0.17683199 0.08068921 -0.10299717
0001b0 f6 89 a2 3c 54 38 3a 3e 10 9a 14 3e 97 06 8b 3e
       0.019841176 0.1818555 0.14511895 0.27153465
0001c0 66 ec d2 3c 8d 58 cb 3d dd fe 3f be 1d d6 e7 3d
       0.02574749 0.09928999 -0.18749566 0.11320136
0001d0 bd 32 1d 3d 21 92 06 3d 5b c4 1b be 8c f5 60 3e
       0.038378466 0.032854203 -0.15211622 0.21968669
0001e0 79 a3 91 3e e2 6b 2a be 13 52 56 3d 41 48 68 3e
       0.28445032 -0.16642717 0.052324366 0.22683813
0001f0 17 e2 1d be c9 53 d9 bd 15 d7 a7 bd bd d4 b6 bd
       -0.15418278 -0.10611684 -0.081953205 -0.08927295
000200 4f a5 26 be 5c 0c 7b bd 0d 3f fa 3d f1 a2 35 3e
       -0.16273998 -0.061291084 0.12219057 0.17737938
000210 ae 07 fb bd fc 3c 50 3c 5b cd 07 3e 7a 97 3f 3e
       -0.12257324 0.012709852 0.1326193 0.18710127
000220 31 19 02 bd bc 8a b5 3d e7 66 5b 3e 3b 31 c7 bb
       -0.031762306 0.08864352 0.21425973 -0.006078867
000230 eb d7 1e be 18 b0 c5 bd cb 30 39 be de 11 0c be
       -0.15512054 -0.09652728 -0.1808502 -0.13678691
000240 f5 7c 8c 3d 6a 2f 19 3e 72 29 a0 3e 3f f4 8a bd
       0.06859771 0.14959493 0.3128162 -0.067848675
000250 3d 2d 7b be 87 42 66 be c9 3e 6f 3e a3 da c2 3d
       -0.24528976 -0.22486316 0.23363794 0.09514358
000260 6f 46 ba bc a4 98 ba bd 0e 54 e0 bd fb de 15 3e
       -0.022738663 -0.09111145 -0.10953532 0.14635842
000270 d7 38 b4 bc 46 bf 56 be 2c d2 ca bd 93 f7 4b 3e
       -0.02199976 -0.20971403 -0.09903368 0.19918661
000280 29 7b dc bc 4e 5a 93 3d 3e 59 92 3e 62 df aa bd
       -0.026914196 0.071949586 0.2858371 -0.08343388
000290 7e 69 92 bd f9 09 c2 3e 87 a7 90 bd 9c c3 a1 3d
       -0.07149027 0.37898234 -0.07063203 0.07898638
0002a0 09 bc 14 3e 58 66 a7 3d 4b 03 31 bc 22 e7 24 be
       0.14524855 0.081738174 -0.010804008 -0.16103795
0002b0 ed 21 4f 3e 05 92 10 be 95 b8 d4 3c 9c de 38 bd
       0.20227785 -0.14118202 0.025966922 -0.04513417
0002c0 ef c3 45 3e fc 5a 3b bd 5b f1 52 be 01 00 2d be
       0.19313024 -0.045741066 -0.20599882 -0.16894533
0002d0 64 97 a4 bd 47 73 8e bd 99 59 4b 3e 49 27 2b be
       -0.08036688 -0.06955581 0.19858398 -0.16714205
0002e0 24 b5 5c be ff 48 81 3e 4c 50 9f bd d8 3e 83 3d
       -0.21553475 0.25251004 -0.07778987 0.06408471
0002f0 7a 83 53 3e 9b 44 a3 3d f6 07 b0 3d 49 10 05 3e
       0.20655623 0.0797207 0.085952684 0.12994494
000300 1e f3 75 be 45 bb a1 3e db 50 85 3d a0 4a 61 3e
       -0.24018523 0.31588188 0.065095626 0.22001123
000310 f5 d9 99 be e2 7c 8c 3e ce aa 18 be ef 1c 17 bd
       -0.300491 0.27439028 -0.14908907 -0.036892828
000320 64 8f 45 3e 47 1c 6e 3e 96 94 31 3e ea a5 ea bd
       0.1929298 0.23252974 0.17341837 -0.11457427
000330 44 a6 ad be 5f 34 79 be 96 04 eb 3d fb 4c 08 3e
       -0.33915913 -0.24336384 0.11475484 0.13310616
000340 82 b3 15 bd 55 73 54 3e 59 29 8e 3e 1f 60 72 bd
       -0.036548145 0.2074712 0.2776592 -0.0591737
000350 57 96 2c 3e 59 9d f3 bc f2 45 8c be ac 49 1e 3e
       0.16854225 -0.029738115 -0.27397114 0.15457791
000360 3f 0a 88 bd 79 b0 db bd 74 93 3a 3e 13 ea 8c bd
       -0.06642579 -0.10727019 0.18220311 -0.068805836
000370 8d be e3 3d 6a 43 d2 3c d6 e1 1c bd 17 df 3f 3d
       0.11120329 0.025666911 -0.03830131 0.046843614
000380 b3 c0 1a 3e e3 b9 94 3b 48 42 6e 3e 24 09 13 be
       0.15112571 0.004538761 0.23267472 -0.14358956
000390 2e e7 3e 3e 45 67 15 be 62 ce 5e 3e af cc 86 be
       0.18642876 -0.14590175 0.21758416 -0.26328036
0003a0 ba 05 18 3e b3 0c 9c bd 3f c3 7d be 11 9f a2 bd
       0.14845935 -0.0761961 -0.24781512 -0.07940496
0003b0 5f 66 93 3e a4 b9 6a 3e 4d 12 8c 3e 86 0a 92 be
       0.2878904 0.22922379 0.27357712 -0.28523654
0003c0 10 ae a4 3d ad fc 04 be ba b2 43 3e 9c a2 3e be
       0.08041012 -0.12987013 0.19111148 -0.18616718
0003d0 d8 1a 17 be bb db 7b be 46 15 d1 bd e8 eb 4f be
       -0.14756334 -0.2459554 -0.10209136 -0.20304835
0003e0 0c 39 bf bc 77 56 35 be ee 17 07 be 06 eb 69 3e
       -0.023342632 -0.17708765 -0.13192722 0.2284356
0003f0 07 82 70 bd 57 5b c3 3d 49 da 8d 3d 04 a5 56 3e
       -0.058717754 0.09538906 0.069264 0.20961386

baseModel.mlp1.layers.0.bias f4 [32]
000000 1f d4 84 bc 14 d8 a5 3e bb ca 51 3e 9c c5 ac 3e
       -0.016214428 0.32391417 0.20487492 0.33744514
000010 7e 0f 2c 3e 21 04 a8 3b a9 95 d7 3d 56 a5 58 3e
       0.16802785 0.0051274453 0.10526592 0.2115682
000020 f8 05 a8 3d f7 53 4b be 43 d2 9f 3e 8b 80 52 3e
       0.082042634 -0.19856249 0.31215104 0.20556848
000030 70 1f b3 3e 2c fb ce bc 1d 6d 7d 3e 16 01 a0 3e
       0.34984922 -0.025266252 0.24748655 0.31250829
000040 55 66 9b 3e a1 a4 da bd f1 48 0c 3e f4 ab 56 3e
       0.3035151 -0.10675932 0.136997 0.20964032
000050 ac 8a 6d 3e 52 b2 af bc c3 74 db 3c 82 36 6c 3e
       0.2319743 -0.021447334 0.026789075 0.23067668
000060 eb 2c 49 be cc 07 53 3e 54 c6 20 be 25 fb 90 3e
       -0.19646041 0.20608443 -0.15700656 0.28316608
000070 eb 57 f3 3d da d5 dc 3d c8 10 6c 3d ad c5 c0 bd
       0.118820034 0.107829764 0.05763319 -0.09412704

baseModel.mlp1.layers.2.weight f4 [64, 32]
000000 c7 86 8d be b0 32 0e be a2 01 3d be 13 8a c4 3d
       -0.2764189 -0.13886523 -0.18457654 0.09596648
000010 5e 38 46 bd cf bf 33 be de 20 ce bd ff fc 9a 3d
       -0.0483936 -0.17553638 -0.10064863 0.075677864
000020 9b 7c 45 3d 8c 89 ab 3e ab 48 b0 bd eb b5 9d 3d
       0.048214536 0.33503377 -0.0860761 0.07700714
000030 80 d5 89 bd 32 5c f9 bd 46 5a 61 be 16 e0 31 be
       -0.06730175 -0.12175788 -0.22007093 -0.17370638
000040 67 f1 3f 3e cd 23 ab bd 68 28 0d be fd 88 52 3e
       0.18744431 -0.08356438 -0.13784945 0.2056007
000050 38 36 82 be a5 ea 56 3e 6d 93 e2 3d 0f 81 1f be
       -0.2543199 0.20987947 0.110632755 -0.15576576
000060 1f 34 d0 3d 70 15 3e bb 3a a4 24 3c 08 c0 bd bb
       0.10166191 -0.0029004477 0.01004892 -0.005790714
000070 7a 81 cd bd 07 50 1d 3e 76 1c 1b 3d da 79 3f 3e
       -0.10034461 0.1536256 0.03786894 0.18698826
000080 47 fb 4a 3e 49 74 87 3c a1 f0 87 3e de 14 7a 3d
       0.19822417 0.016534941 0.26550773 0.061055057
000090 7e 91 5e 3d a6 32 11 3c 03 54 57 bd 19 52 df bc
       0.05433797 0.008862173 -0.052570354 -0.027260827
0000a0 9c 9a 88 bc 1c ff 5e bd 7e 02 75 3d ac 27 cc 3d
       -0.016675286 -0.05444251 0.05981683 0.09968504
0000b0 92 e8 45 bd e9 33 af bd 29 67 53 be 4b 95 76 3e
       -0.0483175 -0.08554823 -0.20644821 0.24080388
0000c0 90 98 1d bd de c2 9e 3d 57 7c 03 3d 39 66 23 3e
       -0.038475573 0.07752012 0.032101 0.15956964
0000d0 be 0a b0 bd f1 bd 0d be 97 c0 20 bd a9 ea c7 3d
       -0.08595799 -0.13841988 -0.039246168 0.09761555
0000e0 83 78 fb 3c 71 0e 81 3d 9a 5c 59 be a8 f3 40 be
       0.030697113 0.063015826 -0.21226731 -0.18842947
0000f0 23 59 cb bd b5 27 61 3c 76 3f 9c 3d 8e 30 49 be
       -0.09929111 0.013742377 0.07629292 -0.19647428
000100 29 09 ba bd d5 46 f1 bd 64 b1 9c bd 4e 64 e5 3d
       -0.090837784 -0.11781088 -0.07651022 0.11200772
000110 38 6b 18 3e 2e 58 df bd fa 54 23 3b 48 fc 98 3d
       0.1488465 -0.10905491 0.0024922476 0.07469994
000120 8e 72 a3 3e 9f 41 15 bd 28 1e 73 3d be 0a 4d be
       0.31923336 -0.036439534 0.05935493 -0.20023629
000130 d3 9f 96 3d 3a 72 d4 3d c4 21 ed bd 4f 7c 31 3c
       0.07354703 0.103733495 -0.11578706 0.01083286
000140 fa ba 26 be 52 9e 2c 3e a7 02 91 3d 92 b3 f1 3d
       -0.16282263 0.1685727 0.07080584 0.118018284
000150 32 49 77 bc 45 bb fc 3d 65 3b 7e be 90 13 7c bd
       -0.015093135 0.12340406 -0.24827345 -0.061542094
000160 c5 76 22 3d 4a e2 d6 bd 69 39 12 bc a3 f3 57 3d
       0.03966405 -0.1049238 -0.00892482 0.052722584
000170 c9 7b d3 3d 3b 6f 09 3d e6 37 15 be b2 65 51 3e
       0.103263445 0.033553343 -0.14572105 0.2044895
000180 45 5f 02 bd 70 36 4d 3e 8d d5 1a 3e 0c 6f 64 be
       -0.031829137 0.20040298 0.15120526 -0.22307986
000190 f2 e3 16 3e 46 1e ce 3c b8 d8 3b 3d 40 59 32 3e
       0.14735392 0.02516092 0.045860976 0.17416859
0001a0 3b c0 40 bd 23 44 86 be 4b f2 20 be a0 22 64 bd
       -0.047058325 -0.2622386 -0.15717427 -0.055697083
0001b0 a4 54 2d be f3 b8 a6 3d 0e 71 e6 3c 82 41 65 bc
       -0.16926819 0.08140745 0.02813008 -0.013992669
0001c0 5c b3 fc bd 7b a9 56 be ca 43 18 3d f3 4c aa 3d
       -0.123388976 -0.20963089 0.037174024 0.08315458
0001d0 08 bd f1 bc 13 ef a3 bc 89 da 7e be b7 c0 5d bc
       -0.029509082 -0.02001146 -0.24888052 -0.013534716
0001e0 6b 83 57 3c ff 14 60 3e 4a 4e 11 3e 77 74 a0 bd
       0.013153891 0.2188301 0.14190021 -0.07834714
0001f0 c0 39 0d 3e 17 35 d9 3d 3f 41 09 3e 29 cc 3e 3e
       0.13791561 0.10605829 0.13403796 0.18632568
000200 66 8f 89 be bd 1e 98 3e d5 3d 3a be 82 59 15 3e
       -0.26867217 0.2971095 -0.1818765 0.14584926
000210 ac 29 06 be 52 76 2e bd ea c8 6f 3c 80 48 ed 3d
       -0.13101834 -0.042593308 0.014635304 0.11586094
000220 5a 54 b4 bb 40 10 9a bd 26 d0 0f 3d f5 2e 6d be
       -0.0055032196 -0.07522631 0.035110615 -0.23162444
000230 3f c1 f5 bd 44 17 ce 3d bd ee fb bd bf 58 70 bd
       -0.119997494 0.10063031 -0.12301395 -0.058678385
000240 1e 48 52 3d 88 97 08 3b d6 2f 63 3e e5 10 f1 3a
       0.051338308 0.0020842273 0.22186217 0.0018391876
000250 fa 67 e2 bc fe 06 93 3d 49 3a 35 3e 2c 6c 08 3d
       -0.02763747 0.07179068 0.17698015 0.033306286
000260 47 1e fe 3d 72 06 f7 3c f4 a2 d7 3d 30 03 b8 bd
       0.12408119 0.03015444 0.10529128 -0.08984983
000270 9a d1 48 bd fe 35 be 3d 9b 43 9c bc 72 e8 52 3d
       -0.049028017 0.09287642 -0.019075206 0.05149121
000280 0c 2b c2 bd 6d 3b fa bc e3 bc e8 bd 5c e5 a8 bd
       -0.09480867 -0.030545915 -0.11364152 -0.08246872
000290 c1 2e b0 3d 1d 1f f3 3d eb 6c 92 bb 36 b8 eb 3d
       0.086026676 0.11871169 -0.0044685504 0.11509745
0002a0 4a 9a a0 be 5d dc f8 3d 13 01 04 3e db d1 14 be
       -0.31367713 0.12151406 0.12891035 -0.14533179
0002b0 d8 ba 0e 3e e8 90 41 be db dd 3a 3e 2c a8 c4 3d
       0.13938463 -0.18902934 0.18248694 0.09602389
0002c0 36 3c 26 be bf eb 38 bc f6 f2 43 bd 5a f2 6a be
       -0.16233906 -0.011286675 -0.047839127 -0.22944012
0002d0 ba 31 8a bd cd 46 69 be 8c d5 f0 bc 85 49 4f 3e
       -0.06747766 -0.22780915 -0.029398702 0.20242889
0002e0 6c 3a 1e bd 30 91 ab be 62 c2 df bc 3e a4 04 3e
       -0.038629934 -0.33509207 -0.027314369 0.12953278
0002f0 b5 16 b3 39 90 9e 21 3e f1 2f 58 bd 08 6e d0 3d
       0.0003415846 0.15783143 -0.052780095 0.10177237
000300 22 a0 c8 3c 9f 53 e0 3d 9b 73 65 3d ef 89 f5 3b
       0.02449042 0.109534495 0.056018453 0.0074932496
000310 23 47 69 3e a7 a2 1f be 55 84 32 be 2e 7b fc 3d
       0.22781043 -0.1558939 -0.17433293 0.12328182
000320 37 37 cf 3d a3 81 93 3d 7b 40 00 3c 6f 5a f2 bd
       0.10117953 0.072024606 0.007827873 -0.11833655
000330 55 5d f8 bc 21 1c ae 3d a7 0e 5d be f9 7a a0 3d
       -0.030317942 0.08501459 -0.2158762 0.07835955
000340 97 4a f1 3d 93 20 50 3e c5 d6 33 3e 7e c6 a5 3d
       0.11781805 0.20324926 0.17562397 0.080945
000350 8c a3 58 3e 20 67 4d bd 7e 31 a6 bd 57 3b 8f 3d
       0.21156138 -0.050147176 -0.08114909 0.0699374
000360 68 f7 49 be 43 fd f0 3c 3e 33 8d 3d e2 ec 89 3d
       -0.19723284 0.02941764 0.06894539 0.06734635
000370 0f b2 af 3c 75 6f b5 3d 39 cc 3e be c0 20 51 be
       0.02144721 0.08859149 -0.18632592 -0.2042265
000380 c3 2e db 3d 5d 5d 1e be 6b 1f ed 3d a3 b7 bb 3c
       0.107022785 -0.15465303 0.11578258 0.022914713
000390 d6 0a 8b bd fb c1 7f 3b 86 c2 99 be 34 ca be bd
       -0.06789176 0.0039025533 -0.30031222 -0.09315911
0003a0 7e 34 89 3d 3a cf 1c be 61 a4 62 be 90 b8 eb 3d
       0.06699465 -0.15313426 -0.22133018 0.11509812
0003b0 d2 74 57 bd 2c a4 cf 3d 00 9c 2b 3e 40 da 0c be
       -0.052601643 0.10138735 0.16758728 -0.13755131
0003c0 45 76 97 bd 98 cb 9d 3d 15 5c 03 be 2d 81 c7 3c
       -0.07395605 0.07704848 -0.12828095 0.024353588
0003d0 0e e8 69 bd 47 27 4a 3c ee 18 2a bd b0 e0 df 3c
       -0.05710607 0.012338466 -0.04152768 0.027328819
0003e0 66 eb 9a 3c bb e7 4e 3e f1 e3 cf 3d 90 ce a4 bd
       0.018911075 0.20205586 0.10150898 -0.08047211
0003f0 4a 18 18 3d de 22 8a 3d a8 c4 8a 3c 9a 39 79 bd
       0.03713254 0.06744932 0.016939476 -0.06084595

baseModel.mlp1.layers.2.bias f4 [64]
000000 7d 45 af bd 4e f0 6e bc cc bd ba bd be 6f 68 3d
       -0.08558176 -0.01458366 -0.09118232 0.05674719
000010 c4 36 87 3e 8a 5b d5 bd 60 bd 90 3e 46 e0 b7 3d
       0.2640897 -0.1041785 0.28269482 0.08978324
000020 d7 9d c8 bc 6b d6 0c be ac 65 69 bd 0d d0 8a bd
       -0.024489326 -0.13753669 -0.056981727 -0.06777964
000030 95 6c 5b bd f5 8c 11 be dd 1c bb 3d 36 97 9d 3e
       -0.05357035 -0.14213927 0.091363646 0.30779427
000040 aa 78 81 bd 64 86 a5 3c b2 0f d8 3d 12 e8 3f 3d
       -0.06321843 0.020205684 0.10549869 0.04685218
000050 66 d1 7c 3d 12 0a 7b 3c 9a 7d 59 3d 2d 7d 6d 3e
       0.061723135 0.015322225 0.0530983 0.23192282
000060 27 0d b1 bd ec ac 17 3e d3 c5 48 3d 01 2b 36 3d
       -0.08645087 0.14812058 0.049016785 0.044474605
000070 30 f9 18 be 82 e9 b4 3d 93 0d f4 bd 10 9d 6a 3c
       -0.14938807 0.088336006 -0.119166516 0.014319673
000080 b1 09 44 3e 94 d1 10 3e 28 8c d4 bd 9a aa 4d 3e
       0.19144322 0.14142448 -0.10378295 0.2008461
000090 e7 26 4f 3e 70 3f d6 3c 71 d8 5b 3e 2c f4 0f 3e
       0.20229684 0.026153296 0.21469285 0.14057988
0000a0 25 0d 3f 3e 0f a9 e3 3d 9e a6 fc 3d 06 8b f8 3d
       0.18657358 0.1111623 0.12336467 0.121358916
0000b0 0e cc a0 3d 59 02 93 3e 5c 5b a5 3e c4 2e 0b 3e
       0.0785142 0.2871273 0.32296264 0.13592058
0000c0 71 66 e5 3d a0 25 18 3e 30 89 f8 3d cc d0 39 3e
       0.1120118 0.14858103 0.121355414 0.18146056
0000d0 af 8e 09 3b 11 e5 39 bd 02 96 21 3d 0f 39 75 3c
       0.0020989587 -0.04538447 0.0394497 0.014967217
0000e0 43 a0 44 bc 5b ce 79 bd 85 e7 52 3e ca 58 d1 3d
       -0.0120011 -0.06098781 0.2059613 0.10222013
0000f0 9c 79 97 3d 0c c7 9d bd a1 cd bf 3d 3e c5 b5 bc
       0.07396242 -0.07703981 0.093653925 -0.022188779

baseModel.mlp1.layers.4.weight f4 [32, 64]
000000 98 8f a3 3e 9a fe 13 be 0a 61 ab bd e5 b2 58 3e
       0.3194549 -0.14452592 -0.08368118 0.21161993
000010 c8 db ca bc 72 33 ec 3c 39 ad 3f be c1 ea 4a 3d
       -0.024763003 0.028833125 -0.18718423 0.049540285
000020 68 6c 4a 3e 84 4a 0a 3e 47 f0 61 3e 35 37 0a 3e
       0.19767916 0.13504988 0.22064315 0.13497622
000030 aa 42 99 bd a3 49 86 3c 45 47 c9 bd c4 40 44 3c
       -0.07483418 0.016392535 -0.09828047 0.011978332
000040 f2 ee 4f 3e 03 d7 db 3d b4 dd 49 3c f5 38 f5 bb
       0.20305994 0.107343696 0.012320925 -0.0074835964
000050 b9 d2 84 bd b4 92 a4 bc eb fe 33 3e 59 09 ea 3c
       -0.06485505 -0.020089485 0.17577712 0.02856891
000060 a2 35 5f 3b c1 c7 9f 3c 31 1b 4c be 88 3e 3b bd
       0.0034059067 0.01950443 -0.19932248 -0.04571393
000070 42 9b 57 3e 32 e0 9e bd d7 91 77 bd d9 7b 28 be
       0.2105532 -0.077576056 -0.060441818 -0.16453494
000080 b3 d0 ed 3c 95 3b 00 bd 56 e1 aa 3c 36 c8 b2 3d
       0.02903018 -0.03130682 0.020859402 0.087295935
000090 04 1b fb bd 42 8e af bd 31 97 bb bd 99 1d 0c be
       -0.12261012 -0.085720554 -0.09159697 -0.13683166
0000a0 fd 12 84 bc a1 2c a5 3a f8 ef 01 bd a8 bf 53 bb
       -0.016122336 0.0012601801 -0.031722993 -0.003231028
0000b0 b3 df ba 3b ab 47 da bb cf 5e d1 3d b4 90 ad bd
       0.0057029366 -0.0066613755 0.102231614 -0.084748656
0000c0 fe f4 54 bd 2e 85 fd 3d 78 b8 95 3d 5f bf 04 3d
       -0.051991455 0.12378918 0.07310575 0.03240907
0000d0 ca 0c fa 3d 1e c7 03 be 39 4f 3d bc 59 e7 39 3e
       0.122094706 -0.12868926 -0.011554533 0.18154658
0000e0 9e 27 02 3e ba 96 3e 3d 37 75 13 bd cc 57 fc bc
       0.12710425 0.046530463 -0.036000457 -0.030803584
0000f0 2e 58 48 3e 09 4c e4 3d 48 8a c1 3d 04 05 04 3d
       0.19564888 0.11147315 0.09450203 0.032231346
000100 76 94 e0 3b f0 be 7c bd ea e4 19 3d 45 23 e6 bc
       0.0068536354 -0.06170553 0.037571825 -0.02809299
000110 27 a9 1e 3e c2 46 15 3e 63 15 23 be 93 6b 8d 3d
       0.15494214 0.14577773 -0.15926127 0.06905284
000120 c4 80 62 3c ff ce 39 3e ef df 26 be dd a1 f3 3d
       0.013824645 0.18145369 -0.16296361 0.11896107
000130 17 40 29 3e 94 08 cf 3d 8b 18 e4 3c d6 88 0c 3e
       0.16528355 0.10109058 0.027843734 0.13724074
000140 38 50 b3 bd 38 69 ae bd 58 ea 0a bd ab 90 bf bc
       -0.08755535 -0.08516163 -0.033914894 -0.023384413
000150 97 3d 69 3c 89 58 7c bd cc 14 5b 3e 18 17 d1 3d
       0.014235876 -0.06160787 0.21394652 0.10209483
000160 3e c6 ea 3d 15 8e d8 3d 4d 4a bf 3d 57 bc 80 3c
       0.11463593 0.10573975 0.093403436 0.015714807
000170 b8 5b 57 3d 8f c5 c4 bd 0c ba 22 3b 39 d4 fb bd
       0.052577704 -0.09607994 0.002483013 -0.12296338
000180 7c d3 a5 bd 9d 7a 46 3d 27 ae 87 be 06 bb e2 bc
       -0.08096978 0.048456777 -0.26500055 -0.02767707
000190 d1 9c 5a bd 57 ec dd bd 31 fd 60 3d 8d fb 7e 3d
       -0.053372208 -0.10836094 0.054928962 0.062251616
0001a0 02 96 dc 3d f0 48 c1 bd c2 bd 0d 3e 53 37 e6 3d
       0.10770799 -0.0943774 0.13841918 0.11241021
0001b0 c2 3e 39 3e d9 28 38 be 7e 64 f4 bd 15 de ef 3d
       0.18090346 -0.17984332 -0.1193323 0.11712281
0001c0 3e 22 d1 3b 42 af de bd 0c f1 1d 3e 9f 6f 07 bd
       0.006382256 -0.108732715 0.15423983 -0.033065435
0001d0 a4 ed 87 bd 3d d0 05 3e e6 e1 0c bd 80 ec a1 bd
       -0.06637123 0.13067718 -0.03439512 -0.07906437
0001e0 64 c1 3d 3e ad 93 42 3d 38 9d 48 bd 00 4e 32 be
       0.18530804 0.047504116 -0.04897806 -0.17412567
0001f0 74 70 7c 3e b2 cd da bd ca 96 8f bd 31 49 c2 bd
       0.24652272 -0.106837645 -0.070111826 -0.094866164
000200 d3 e8 87 bd 9c 1b 11 3d 9e f5 2a be 50 c4 85 3d
       -0.066362046 0.03542672 -0.16695258 0.06531584
000210 50 bc 99 bd d1 10 24 3e 28 43 6f 3d f6 a5 2c bc
       -0.07506621 0.1602204 0.058413655 -0.010537615
000220 bf 0d f3 bd e9 50 b9 3b 1f 2b 38 3e 8d 86 39 3e
       -0.11867856 0.005655397 0.179852 0.18117733
000230 30 e0 e1 bc 8e 5c 05 be b0 b0 19 3e e7 4e 37 be
       -0.027572721 -0.13023588 0.15008807 -0.17901193
000240 81 24 89 3b ab f1 db 3d 00 fb 6f bb 6e 56 23 3e
       0.00418526 0.10739454 -0.0036618114 0.15950939
000250 1a af ca 3d 86 c5 4a be 9e 83 9c bd b4 3c 1a 3e
       0.09896679 -0.19801912 -0.076422915 0.15062219
000260 fc 11 22 3d 99 73 79 bc 4f da a6 bd 9a 0b bb bd
       0.039567932 -0.015225315 -0.08147108 -0.09133072
000270 cd 7b 12 3e a9 88 b2 bd da 94 59 be 68 8b c0 bd
       0.14305039 -0.08717472 -0.21248189 -0.0940159
000280 9e 48 1f 3b af 8e 4d be 4f 71 cf bd e5 20 93 3e
       0.0024304758 -0.2007396 -0.10129034 0.28736034
000290 6a 70 3e 3c 79 7b 34 be 07 06 bf bd 84 64 ca bd
       0.011623481 -0.17625226 -0.093273215 -0.09882453
0002a0 7b 91 81 3c dd 85 15 3e 30 50 25 3d 86 6a ed 3b
       0.01581644 0.14601846 0.040359676 0.0072453646
0002b0 25 65 00 3e da 5d 50 bc fe 6d 4e 3d b3 81 89 be
       0.12538584 -0.012717688 0.050397865 -0.26856765
0002c0 39 62 17 bc 76 09 c0 3d f3 ad 6a 3e 9d 30 0b bd
       -0.009239727 0.093768045 0.22917919 -0.033981908
0002d0 69 36 36 3e 2d 7e 95 3d 78 7a 61 bd 43 46 7c bd
       0.17794193 0.07299457 -0.055048436 -0.061590444
0002e0 e9 54 1e be fd 2f b7 be bf 81 6f 3d 0b 81 60 3c
       -0.15462078 -0.357788 0.058473345 0.013702641
0002f0 3f 72 e0 3c fe f0 2f 3d 03 a6 53 3c 03 ca 0f 3e
       0.027398227 0.042954437 0.012917998 0.14041905
000300 9a f7 af bd 47 15 8a 3b 07 64 64 bc 5e 15 9d bd
       -0.08592148 0.0042139622 -0.013939864 -0.07670091
000310 4d 9e d5 3d a8 5f 1c 3e b9 22 94 bd 10 02 8b bd
       0.10430584 0.15270865 -0.07233185 -0.06787503
000320 23 e5 06 3a f7 50 c9 3d a9 e7 6b be 21 37 d3 bd
       0.00051458384 0.09829896 -0.2303759 -0.103132494
000330 1a 2f 44 3d 53 9c e3 3d 74 54 06 be 28 42 e1 3d
       0.047896482 0.11113801 -0.13118154 0.109989464
000340 cf 7e 40 3d 27 0a ce 3c 9d e1 3e 3d f3 c1 c8 bb
       0.046995934 0.025151325 0.04660188 -0.006126636
000350 d9 cf e5 3d 24 cc e6 bc 75 52 de bd 3f dd 13 bb
       0.112212844 -0.028173514 -0.10855571 -0.0022562293
000360 a2 67 04 be 52 98 35 bd 24 92 fd 3d f6 05 ef 3c
       -0.12930158 -0.044334717 0.1238139 0.029177647
000370 e7 14 10 bd 5b 00 ab bd 91 09 dd bc 09 d4 8a bd
       -0.035176184 -0.08349677 -0.0269821 -0.06778724
000380 2d 39 1c 3d 69 2f f7 3d 66 1f 44 3e ab 75 1a 3b
       0.038140465 0.1206959 0.19152603 0.002356867
000390 84 c1 6c bc 60 db 03 be cd c9 d6 3d 70 3d 29 3e
       -0.014450435 -0.12876654 0.10487709 0.16527343
0003a0 7a fd 7d 3d 07 f2 47 be 0e af 8b bd 9c 0a ab bd
       0.062009312 -0.1952592 -0.068204984 -0.08351633
0003b0 b4 e8 71 bd c3 fb 64 3a 1e ab 00 bd 1a d0 50 bd
       -0.059059814 0.0008735025 -0.03141319 -0.05097971
0003c0 62 5f 0a 3d d1 44 15 bd 16 e7 c8 39 45 95 aa bc
       0.03378237 -0.03644258 0.00038319145 -0.02082313
0003d0 da 75 73 bd d0 5d 69 3c 01 c4 f9 3d 71 69 a4 bc
       -0.059438564 0.014243558 0.12195588 -0.02006981
0003e0 38 f4 88 3d 46 ee 7c 3d a4 9b 2d 3c ff ad 3b be
       0.06687206 0.061750673 0.01059619 -0.18328093
0003f0 7f 71 96 ba c7 6d a1 bd 46 b9 cb 3c 6f 48 10 3e
       -0.0011477916 -0.078822665 0.024868619 0.14090131

baseModel.mlp1.layers.4.bias f4 [32]
000000 1a c9 9e bd 67 dd 69 bd 0b 68 d0 bd f8 83 d5 3d
       -0.07753201 -0.05709591 -0.101760946 0.10425562
000010 c9 58 84 bb ca 99 91 bc d1 be 49 bd fc 39 20 3c
       -0.0040389043 -0.017773528 -0.049254242 0.00977945
000020 74 e7 39 3e 13 34 95 3e 28 ba ad 3c 4b 14 49 3c
       0.18154699 0.29141292 0.02120693 0.012272905
000030 d5 3e 1b 3e c0 df 51 3d fc 3a 05 be 46 3d c7 3d
       0.15160687 0.051238775 -0.13010782 0.09728484
000040 a7 80 24 be 42 87 02 3d 0f 88 ed bd 6c b5 e9 bd
       -0.16064702 0.031867273 -0.11598217 -0.114115566
000050 f5 04 53 3c 5e 04 d2 bc 4b 09 e3 bd 0e fe 09 be
       0.0128796 -0.025636848 -0.11085757 -0.1347582
000060 ba c4 a2 bd 22 e0 6c be 23 2a d3 bc 27 bd 2c 3d
       -0.07947679 -0.23132375 -0.025776928 0.042172577
000070 15 cb 8c 3d 2f 5d 68 be ed 9b c0 3d 6e 4c c9 3d
       0.06874672 -0.22691797 0.094047405 0.09829031

baseModel.mlp2.layers.0.weight f4 [32, 84]
000000 f8 43 8b bd 30 8d 98 3d 55 fc 2f be 32 79 34 3e
       -0.068000734 0.074488044 -0.17186101 0.17624357
000010 b6 d8 fb bd df ac a9 bd 92 ae ab bd fe 5c 8f bd
       -0.12297194 -0.08284926 -0.08382906 -0.07000159
000020 4e a2 17 3d 60 5b 4a bd 55 54 ba bd 58 f3 b7 3d
       0.03702002 -0.04940355 -0.09098116 0.08981961
000030 d1 a6 8b 3c f2 f2 3e 3c a0 8e 36 3c 93 f8 8a 3c
       0.017047318 0.011654602 0.011142403 0.016964233
000040 c3 c9 4b bd 82 8f 1b be c8 13 0a be 68 cb eb 3d
       -0.04975296 -0.15191463 -0.13484108 0.11513406
000050 6b 7d 86 3c 14 92 d3 bd 3e 63 0a bd a3 6e 4a 3d
       0.016417226 -0.103305966 -0.03378605 0.049421918
000060 d6 20 e0 3d 3d e3 0b 3d b2 16 f9 bd 4e 54 13 bd
       0.10943763 0.03415226 -0.12162532 -0.03596907
000070 7a 0d 38 bd 31 df 72 bc 22 3b fe 3d f7 e9 c4 3d
       -0.044934727 -0.014823721 0.124136224 0.09614938
000080 db 53 5a bd cf 73 0c 3e c4 9b 9b bd 88 78 95 3d
       -0.053302627 0.13716052 -0.07598069 0.0729838
000090 d1 da 2c 3d 58 4a 10 3d 57 68 b8 bd ca 6d ae bc
       0.042200867 0.03522715 -0.09004276 -0.021292586
0000a0 4a b9 95 bd 33 01 c1 3d 43 1a e9 bc c1 cc 14 3d
       -0.07310732 0.09424057 -0.028454905 0.03632808
0000b0 0c fa 56 bd e9 ee ff 3c 54 3d 53 3e 6b 50 74 3d
       -0.052484557 0.03124185 0.20628864 0.059647005
0000c0 af 6a f1 bd 6d e5 03 be fb 75 d2 bc 2f 19 c1 bd
       -0.117879264 -0.12880488 -0.025691023 -0.094286315
0000d0 6e 50 28 bc e1 df b9 3d bc f3 f4 3c 5f 74 35 3b
       -0.010273082 0.09075905 0.029901378 0.002768777
0000e0 6a be b8 bd cf 9c ff bd a1 fd 17 3e e7 2d af bd
       -0.090206936 -0.12481081 0.14842845 -0.08553677
0000f0 06 1f b3 bd c6 d7 3f bd e5 7f 62 bd 75 f9 d0 bd
       -0.087461516 -0.046836637 -0.05529775 -0.1020383
000100 53 67 c4 bc 7e 0f d8 bb 84 a5 26 3e 79 15 fc bd
       -0.02397505 -0.0065936437 0.16274077 -0.12308783
000110 e6 d9 99 3d d4 dd dd bc 50 c1 a8 3d be a0 80 3d
       0.07512264 -0.027083315 0.082399964 0.06280659
000120 90 d5 df 3d 61 fd a4 bd f6 b0 9c bd f3 92 c9 bd
       0.10929406 -0.08056141 -0.0765094 -0.098424815
000130 e2 98 70 3c 19 92 a3 3a 62 62 a5 bd ef 27 ba bd
       0.014684888 0.0012479454 -0.08075406 -0.09089648
000140 0f 6e 9e 3d 97 63 29 3e 9b 66 88 3c 29 cd 91 3d
       0.07735836 0.16541897 0.016650489 0.07119209
000150 94 4a 10 3e 84 78 22 3e 8b 52 be 3d 16 76 07 3d
       0.1409095 0.15866286 0.092930876 0.0330716
000160 08 5d d9 3d c9 bb 35 3e f2 22 da bb f8 f8 f6 3d
       0.106134474 0.17747416 -0.006656998 0.12059206
000170 73 69 04 be fb 57 59 3d 38 63 35 3d 63 4c a1 bb
       -0.1293085 0.05306242 0.044284075 -0.004922436
000180 09 1b 34 bd 2c dc da bc c3 57 57 3d 4d 83 80 bb
       -0.043971095 -0.026716314 0.05257393 -0.0039219023
000190 5d 79 5e 3d 16 25 bf 3c fe c5 11 be e4 86 ad 3d
       0.05431496 0.023333114 -0.14235684 0.08472994
0001a0 d7 9a 97 3d 93 38 a6 bd c2 56 c5 3c 90 1a 04 3a
       0.0740258 -0.081162594 0.02408922 0.00050393585
0001b0 7e 48 e2 bc ee 92 13 3e 3a a1 c2 3d f4 7f 26 3c
       -0.027622458 0.14411518 0.09503408 0.010162342
0001c0 34 43 fb 3c 1e 1e 0c 3c ed 52 bf bc b3 a5 53 3e
       0.030671693 0.008552102 -0.023354972 0.20668678
0001d0 4e 79 8b 3d 57 d0 28 3d 83 6a 91 bd bd 50 2f 3c
       0.068102464 0.041214313 -0.071003936 0.010700402
0001e0 d8 e9 26 be 8c fa 95 bd 89 e2 77 3d 8f 34 51 3d
       -0.16300142 -0.07323179 0.060518775 0.051075514
0001f0 01 db fe 3b 98 d0 59 bd 81 3f d7 3d 56 64 a9 3d
       0.007777572 -0.053177446 0.10510159 0.08271091
000200 c7 35 92 bc 7a c7 7f 3d 4a 75 95 bd 95 ea 5e bc
       -0.017847909 0.062446095 -0.07297762 -0.013605733
000210 9a ef 12 3d f8 5a f7 3d 70 a4 31 be 79 50 52 3d
       0.035873033 0.12077898 -0.17347884 0.051346276
000220 95 40 d4 bd 19 0d 3b 3e 15 dc 9c bd c1 c0 a0 3d
       -0.103638805 0.18266715 -0.07659165 0.07849265
000230 4c 8d 70 bd 26 2b 41 be 99 d9 0e 3c 65 5e 38 be
       -0.0587285 -0.18864116 0.0087188715 -0.18004759
000240 7c cc a0 3d ff 54 b7 3a bb e1 73 bc 85 83 09 be
       0.07851502 0.0013987123 -0.014885361 -0.13429077
000250 87 e4 5c be c1 0f 08 bc 98 40 e7 bc dd 69 40 3c
       -0.21571551 -0.008304537 -0.028229043 0.01174399
000260 9f f0 15 3e 17 d6 91 bd 65 36 77 bd 96 74 21 be
       0.14642571 -0.071209125 -0.06035461 -0.1576713
000270 73 60 03 be 4f e2 a4 bc 8b 7d ec bd 7e 42 46 bd
       -0.12829761 -0.020127444 -0.11547383 -0.048403256
000280 5d cb c6 bc 4e b6 1c 3b f8 bb b7 3d 12 9d 9d bd
       -0.024266893 0.0023912373 0.08971399 -0.076959744
000290 59 b1 04 3e ae 56 34 bd be e0 4b 3e c4 5d 2b bd
       0.12958278 -0.044027977 0.19909951 -0.04183747
0002a0 61 0f e7 bc ba 04 06 3d e3 8e 4d 3e 6d 69 c0 bc
       -0.028205575 0.03271935 0.20074038 -0.02348777
0002b0 51 ae 9d bd 15 20 5f be b7 42 bc bc 63 74 b7 3d
       -0.07699264 -0.21789582 -0.02298103 0.08957746
0002c0 be 29 82 be 4d 1f 8b be 90 19 5a 3d 8c fa 95 bc
       -0.25422472 -0.27172318 0.053247035 -0.018307947
0002d0 52 4e 10 be 19 fc 8f bd 86 ec 63 bc dd 7c 0c 3e
       -0.14092377 -0.07030506 -0.013911372 0.13719507
0002e0 09 1b 94 bd 47 37 88 3e c8 92 31 3e 1d e9 f8 3d
       -0.07231719 0.26604673 0.17341149 0.12153838
0002f0 17 41 8d 3c 6d de af bd 80 70 61 bd 58 2b b4 bd
       0.017242951 -0.08587346 -0.05503893 -0.0879733
000300 99 50 ca 3d b6 f8 43 bd c4 f2 24 3d 8e e8 87 3c
       0.09878654 -0.04784461 0.04027058 0.016590383
000310 b5 46 5f bd 52 ae 48 3d 40 b1 83 bd c5 8b 82 bc
       -0.05451079 0.04899437 -0.06430292 -0.015935788
000320 39 9d 9f 3d 3b 54 83 3d f3 ad 7e 3d 4e 28 5b bd
       0.0779366 0.0641255 0.06217761 -0.053505234
000330 45 f5 18 3d 88 41 1b bd 38 ce da bd 4c c6 c2 bd
       0.037343282 -0.037904292 -0.10683864 -0.095104784
000340 cc 57 6c bd ea b6 a7 3c 70 80 ac 3c 18 61 8b 3c
       -0.057700917 0.020472962 0.021057338 0.017014071
000350 0a cb b0 bd 84 08 17 3d 89 44 df bd f9 cc e4 bc
       -0.08632477 0.036873356 -0.10901744 -0.02792977
000360 4d 80 94 bd 07 69 3f bc e1 4d 4d 3d 94 71 45 3d
       -0.07251034 -0.011682755 0.0501231 0.04820402
000370 8a c5 ec bc 7a 55 a4 3d 82 22 cb ba 5d 58 0b bc
       -0.028902788 0.08024116 -0.0015497955 -0.008504954
000380 be cd cb 39 e6 72 8f 3d 30 28 24 bd 57 f6 0f bd
       0.00038872467 0.07004337 -0.04007739 -0.035147037
000390 36 70 89 3d dc 96 d6 3d ce 36 92 bc c1 32 9f 3d
       0.06710856 0.10477993 -0.017848399 0.077733524
0003a0 81 22 57 bd 15 24 3f bd 40 53 55 bc 04 2a fe 3d
       -0.05252314 -0.04666527 -0.013020337 0.124103576
0003b0 19 bb b2 bd c9 8a 4c bd 27 71 9a 3d 2c 91 6f bc
       -0.08727092 -0.049937043 0.07541113 -0.014622014
0003c0 09 b5 7f 3d 63 83 66 bd 37 bc a7 bd 39 95 37 bd
       0.062428508 -0.056277644 -0.08190196 -0.044820044
0003d0 8d be a6 3d 4e eb b1 bd d5 64 03 bd e8 a7 e9 bc
       0.081418134 -0.08687459 -0.032078583 -0.028522447
0003e0 61 63 9f bd 4d b7 12 be a8 dd ac 3d a6 e8 17 ba
       -0.07782627 -0.14327736 0.08440715 -0.000579486
0003f0 94 a7 55 3d 4d 3d db 3c c6 a5 ae bd 27 ca ec bd
       0.052161768 0.026762629 -0.085277125 -0.11561995

baseModel.mlp2.layers.0.bias f4 [32]
000000 72 96 f0 3d 1b bf 02 3c 03 c5 d8 3d ec 58 51 3d
       0.11747445 0.007980133 0.10584452 0.051110193
000010 46 54 1b 3e 33 9f 38 3c 53 2f c8 bc a5 e9 48 3e
       0.15168867 0.011268425 -0.024436628 0.19620378
000020 8e 8f a2 bc d4 e1 83 3d 80 7a e6 bd 66 e3 38 be
       -0.019843843 0.06439558 -0.11253834 -0.18055496
000030 f8 95 99 bd f1 6d 33 be 28 0a dd bd 64 c3 39 3d
       -0.074993074 -0.17522408 -0.10792953 0.045352355
000040 83 a1 7a be 18 05 61 3d c8 df e9 3d 8a 30 9f bd
       -0.24475674 0.0549365 0.11419636 -0.0777293
000050 c2 d3 ba bd 92 57 13 3d eb 9d fb 3d f7 7d 8a 3d
       -0.09122421 0.035972185 0.1228598 0.06762307
000060 19 b7 6b 3d 57 1e b9 3c 2f 4a f6 bc 7e b4 02 be
       0.057547662 0.022597475 -0.03006467 -0.12764165
000070 70 08 fd 3d ea 07 7c 3d 07 7a 67 bc 19 3d 27 bd
       0.12355125 0.061530985 -0.014128215 -0.04082975

baseModel.mlp2.layers.2.weight f4 [64, 32]
000000 38 c8 30 3e 11 bb e8 bd 10 3a a6 3d d2 41 6c be
       0.17263877 -0.11363805 0.08116543 -0.23071983
000010 0f d1 f7 3d c7 58 7f be e6 eb 2f 3e a8 d2 ca 3d
       0.12100422 -0.2493621 0.17179832 0.09903461
000020 e6 ff 15 3d 53 7f 0a bd 72 c7 d5 3c 41 44 c9 bd
       0.036620997 -0.033812832 0.02609608 -0.098274715
000030 a1 c5 9d 3d b5 dc d0 bd 1b 9d 8b 3e ee 99 62 3c
       0.0770371 -0.101983465 0.272683 0.013830645
000040 3c 59 be bd 96 57 df bd d6 56 d0 bd 37 c0 91 3e
       -0.09294364 -0.109053776 -0.10172813 0.2846696
000050 af d3 26 3d 16 19 89 3d 34 62 65 be 5b 6a 8c 3c
       0.04072922 0.06694238 -0.22400743 0.017140558
000060 a5 57 08 bd c9 46 71 bd 83 92 88 3e a5 0b db 3d
       -0.03328671 -0.058905397 0.2667428 0.106955804
000070 49 1f a7 bd 0e d6 cd 3d 18 b2 00 be ca eb 18 3e
       -0.08160264 0.10050593 -0.12567937 0.14933696
000080 4a f3 b5 bd c8 0d 08 be 95 1e bb bc c8 48 40 be
       -0.08884294 -0.13286507 -0.022841731 -0.18777764
000090 e3 d5 99 3d 06 e3 1a 3d 33 43 1b 3e 94 ed 2c 3d
       0.07511499 0.037814163 0.15162353 0.04221876
0000a0 3e 9c 0f be 18 39 75 3d 62 b3 2a be 09 66 1b bd
       -0.14024445 0.059868902 -0.16669992 -0.037939105
0000b0 4b fe 34 bd 71 2c a3 bd 32 51 3b 3c 3c aa a7 3d
       -0.044187825 -0.07967461 0.011432933 0.081867665
0000c0 b2 9f 92 3d b4 1b 1d be 6a 0f 95 bd f0 9f 54 be
       0.07159366 -0.15342599 -0.072783306 -0.20764136
0000d0 4e 04 65 bb 09 bb 7b bd 88 ff ab 3c 0f 57 fd 3d
       -0.0034945193 -0.061457667 0.02099587 0.12370121
0000e0 51 76 c3 3c 36 d1 52 3e c4 77 89 3e 35 7d 84 bc
       0.023860129 0.2058762 0.26849186 -0.016172985
0000f0 e5 cd 1f be 58 0b 5f be 09 f8 23 bd 40 a1 9d bd
       -0.15605886 -0.21781671 -0.040031467 -0.076967716
000100 22 2d 8a be 32 15 1a be 38 ab 2f be fd 28 5f 3d
       -0.2698756 -0.15047148 -0.17155159 0.05448245
000110 c7 36 95 3d 54 53 d9 bb 31 d8 87 bc 9b 3c 11 3e
       0.072858386 -0.006632248 -0.01658258 0.14183275
000120 76 23 66 be f3 b5 28 be 30 21 d0 3d 24 4a 58 be
       -0.22474465 -0.16475658 0.1016258 -0.21122032
000130 83 b1 d3 3d 87 6b 15 3e 2c 53 59 bd 39 65 cd bd
       0.10336592 0.145918 -0.053057835 -0.10029072
000140 8a d5 5d 3e 1a 74 12 3d 62 27 80 be 0c 65 cc 3d
       0.2166349 0.035755254 -0.25030047 0.09980211
000150 a4 b4 5e be 39 44 54 3d c4 d5 1b 3d 10 a6 c2 ba
       -0.21748596 0.051822875 0.03804566 -0.0014850516
000160 39 64 91 3d 6a 3f 54 be 9f 16 39 be ae 93 d9 3c
       0.07099194 -0.20727316 -0.18075036 0.026559677
000170 f9 de ae 3d 49 a4 07 bb 15 46 43 bd 43 86 9a 3c
       0.085386224 -0.0020697287 -0.047674257 0.01886285
000180 f8 10 60 39 f9 70 18 3d 11 85 bb 3d ff 71 bd bd
       0.00021368626 0.037217114 0.0915624 -0.09250259
000190 ec 29 0f 3e 04 4a 29 3e 84 88 6d 3e c0 53 ad 3d
       0.13980836 0.16532141 0.23196608 0.0846324
0001a0 c5 a4 0e bd bf ec 91 3b 9e fd e5 3d 59 08 5e be
       -0.034825105 0.004453271 0.11230014 -0.21682872
0001b0 c7 23 fa bd ed da 05 be d5 ca 44 3e 74 8f 69 3e
       -0.12213855 -0.13071795 0.19218 0.2280863
0001c0 1d 9f 20 be 32 81 66 3d 60 60 77 3d 59 cd d9 3d
       -0.15685697 0.056275554 0.060394645 0.1063487
0001d0 8f 70 1f be 7a 13 fa bd dd 34 ec 3d 5f 19 b4 bb
       -0.15570281 -0.12210746 0.1153352 -0.0054961885
0001e0 a2 b2 ef 3c 4d 67 07 bd c8 cd c1 bd 03 64 dd bd
       0.029259983 -0.0330575 -0.09463078 -0.10810091
0001f0 90 3f cb 3d ae 9c 04 be b3 f2 85 3d 42 2c b0 3d
       0.09924233 -0.12950394 0.06540432 0.086021915
000200 2b 00 54 be b8 82 bb bd a5 f7 2d 3d 45 29 e8 bd
       -0.20703189 -0.09155792 0.0424725 -0.113359965
000210 0c 04 8c 3d 2a 9e 11 3d 27 a4 5d 3d da e0 11 3e
       0.068367094 0.035551228 0.054111626 0.1424593
000220 f4 bb 0b 3d 85 4d b6 bc 34 3e 33 3e 41 99 dd bd
       0.034114793 -0.022253761 0.17504197 -0.108202465
000230 fa ac 38 3e a3 a2 19 be 25 c0 3e 3e 8b c3 17 bc
       0.18034735 -0.15003447 0.18627985 -0.00926293
000240 f1 5c 8c bd 3d 91 0f 3e d8 b6 3a 3e 25 61 1f 3e
       -0.06853665 0.14020248 0.18233812 0.15564401
000250 70 cc a3 bd dc 4b 36 3d 6a a5 d8 3c 43 7c 0f 3e
       -0.07997978 0.04450594 0.026446063 0.14012246
000260 30 14 8b bd 29 24 4a bd 32 ef c2 3d 1a c8 59 be
       -0.0679096 -0.04935089 0.09518279 -0.21267739
000270 67 5c 4e bc 5c 73 45 be 3b 4a 91 3d 0d ba fe 3d
       -0.012595273 -0.19282287 0.070942365 0.1243783
000280 ab fd 3c be 97 d0 1d 3e 48 d9 cb 3c 7d 01 27 be
       -0.18456142 0.15411602 0.024883881 -0.16309161
000290 a6 7f c9 3b 1e 34 21 3e 32 f0 cc 3d d1 75 ca 3d
       0.00614925 0.15742537 0.10006751 0.09885753
0002a0 e2 3a 9a 3c 4f 6a 84 be b1 e5 a8 3d 0f ee 03 bc
       0.018826906 -0.25862357 0.08246935 -0.008052363
0002b0 1e 2a a5 3d bb 11 00 be a6 74 94 bd 35 aa 31 3e
       0.08064674 -0.12506764 -0.072488114 0.17350085
0002c0 2c 8e 24 be b4 ef d6 bd 9b 3c 11 3d 9d 8f 2c 3e
       -0.1606986 -0.104949385 0.03545819 0.16851659
0002d0 ed 6a 17 be f2 6e cf bc 01 68 d7 3d 20 85 83 bd
       -0.14786883 -0.025321458 0.10517884 -0.06421876
0002e0 0d 57 15 3d de 39 3d 3e 24 2d c5 bc 13 22 ba 3c
       0.03645997 0.18479106 -0.024069376 0.022721326
0002f0 a1 08 03 3e 0e fb 47 bb ed 4a 81 be e5 7d 02 be
       0.1279626 -0.003051463 -0.25252476 -0.12743337
000300 81 f7 3c be c6 ba 49 3d 2d c1 3c be a5 55 cf 3d
       -0.1845379 0.049250387 -0.18433066 0.10123757
000310 a9 60 26 3e ab b3 40 3d 84 0c 9b 3d 29 a2 ff bd
       0.1624781 0.047046345 0.075707465 -0.124821015
000320 58 0a 05 3e e4 75 fe bd 5f 7d cc 3d 87 10 40 be
       0.12992227 -0.124248296 0.0998485 -0.18756305
000330 23 c1 17 be a1 3b cb bc 5a c5 17 3e 33 d9 d8 bc
       -0.1481977 -0.024808707 0.14821377 -0.026470756
000340 7b 1e 10 bd 0a 13 0f bc a7 9c 56 3e 48 15 f9 3c
       -0.03518532 -0.008732567 0.20958196 0.030405656
000350 58 84 a7 3c 4e aa 7a be 6b 37 0b 3e b3 b5 eb bd
       0.020448849 -0.24479029 0.13595359 -0.11509266
000360 2d a2 75 be 02 e2 df bc cb 03 f8 3c 29 76 cd bd
       -0.23987646 -0.027329449 0.030275246 -0.10032303
000370 79 f7 1f 3e 7a a2 cd bd 73 2b aa 3d 60 a3 82 3d
       0.15621747 -0.100407556 0.083090685 0.063788176
000380 7f 77 3a 3d 24 ea 14 3e 72 a7 96 3d 2d e0 ee 3c
       0.045524117 0.14542443 0.073561564 0.02915963
000390 88 21 3c 3d 13 57 ce bd 0e b5 bf bd 79 61 6a 3e
       0.045930415 -0.10075202 -0.09360705 0.22888745
0003a0 c6 b1 44 bc cf dc 2c bd fa 22 3a bd 83 86 63 3d
       -0.012005275 -0.042202767 -0.045443512 0.055548202
0003b0 e8 8e ea bd 62 85 84 bd 19 aa ae bc fd b7 85 3d
       -0.114530385 -0.06470753 -0.021321343 0.065292336
0003c0 d6 2b c7 bd 9f 7b be 3c f1 bf f4 3d 4c 63 0c bd
       -0.09725158 0.023252307 0.119506724 -0.034274384
0003d0 ab 85 5e bd ee fe 6a bd 67 e7 2d 3e 4a a8 e3 3d
       -0.054326694 -0.057372026 0.16982804 0.11116083
0003e0 eb 20 81 bd 3c 7c 1a 3e 96 8a fc 3d 7f 93 9a bc
       -0.06305107 0.15086454 0.12331121 -0.01886916
0003f0 5f 0a cd 3d f2 51 e6 bc 59 ee 01 3e af a8 3c 3c
       0.10011744 -0.028115246 0.12688579 0.011514827

baseModel.mlp2.layers.2.bias f4 [64]
000000 f2 9e 86 bd 95 e3 f7 3d 10 7f 8d be 05 fb 34 3e
       -0.06573285 0.12103955 -0.27636003 0.17673881
000010 e2 e8 8e 3d 52 97 0e bc ab ec 64 3d 20 63 c4 bd
       0.069780126 -0.00870307 0.055889767 -0.09589219
000020 cf da 35 be 11 d2 1c 3e 14 82 d7 3d 96 d0 53 3d
       -0.1775925 0.15314509 0.10522857 0.051712595
000030 22 a8 23 be 88 5d 35 bc 48 51 29 3e b8 83 33 3d
       -0.15982106 -0.011069663 0.16534913 0.04382679
000040 17 5c 1f 3e d0 00 54 3e 2d f3 11 bb ab 94 2e be
       0.15562473 0.20703435 -0.0022270188 -0.170489
000050 6a 58 86 bb 8f d3 ee 3d 9e 5c f1 bd 2d 1b 38 3e
       -0.0040998952 0.11661445 -0.117852435 0.17979117
000060 f0 bd 27 3d da 82 2b 39 2e 1c 16 3e c7 73 46 3e
       0.040952623 0.00016356577 0.14659187 0.19380103
000070 c5 bd 34 3e cd 5c ee 3d 85 20 1d 3d 4d 18 c2 bd
       0.17650516 0.11638794 0.03836109 -0.09477291
000080 bc 25 4a be a7 62 63 bd f3 6b 66 3e 62 c0 d4 3c
       -0.19740957 -0.055514004 0.22502117 0.025970642
000090 0c f1 e5 bd 08 52 25 be 76 46 ef bd b5 8a f8 bd
       -0.11227617 -0.16144574 -0.11683361 -0.12135831
0000a0 ae 78 23 bd 92 d5 bf 3d 02 c1 f6 3c 62 4c 02 be
       -0.03991001 0.09366907 0.03012133 -0.1272445
0000b0 6c 39 f3 ba 34 4d b8 bd 15 76 5b 3d c5 95 d5 bd
       -0.0018556542 -0.089991 0.05357941 -0.10428957
0000c0 96 f4 99 bd 8d 36 9a bd f8 4c d2 3d e8 0c 8a 3d
       -0.07517354 -0.07529936 0.10268587 0.06740743
0000d0 7c e0 b8 3d 38 89 c2 3d 51 0b 18 3d cc 89 b4 3d
       0.09027192 0.09498829 0.037120167 0.08815345
0000e0 4d f9 4f be 7f 81 31 bd 1f 19 f7 bd ba 97 05 be
       -0.20309944 -0.043336388 -0.12065338 -0.1304616
0000f0 cb 4c be 3c 33 36 4c bd d3 b5 64 bd e6 91 a9 3a
       0.023229977 -0.049856376 -0.055837464 0.0012937158

baseModel.mlp2.layers.4.weight f4 [32, 64]
000000 8e a0 00 be 72 a2 5a bd 3b 77 4b 3e 7f 4c 0e bc
       -0.12561247 -0.053377576 0.19869702 -0.00868523
000010 17 f8 bd 3c d1 bf 50 3d e8 80 d1 3d 4e 2c b8 bd
       0.023189588 0.05096418 0.10229665 -0.089928254
000020 5d 4f 7a 3e a1 91 09 3e 28 24 69 3e 7b 8c 97 3d
       0.24444337 0.1343446 0.22767699 0.073998414
000030 4c 13 c6 ba 2c 4b a3 bb a7 e7 2e be a4 a5 10 3e
       -0.0015111952 -0.0049833264 -0.17080556 0.14125687
000040 df 28 db bc 75 fa 88 3d 79 47 c3 3d 22 df f7 3d
       -0.026752887 0.06688396 0.09535117 0.12103106
000050 24 dc 2d 3e d9 7c e4 bd c1 7b 01 3e 85 3b cd bd
       0.16978508 -0.11156625 0.12644865 -0.10021118
000060 73 10 ee bd 84 11 97 bd 72 d9 1d 3e 45 39 d9 3c
       -0.11624231 -0.07376388 0.1541498 0.026516566
000070 73 4b 2b be 23 fe 5e be 8d 93 fe 3d 1c fe 13 3e
       -0.16728 -0.21776633 0.12430487 0.14452404
000080 2b 77 b5 3d f7 21 0b be 56 2f 27 be 8b cb c0 3d
       0.0886062 -0.13587175 -0.16326651 0.09413823
000090 a6 2b 1c 3e 04 66 3e 3d b4 51 1a 3e a7 3a 0b bb
       0.15251026 0.04648401 0.1507023 -0.0021244676
0000a0 51 80 81 be d1 5e f9 3a 8f 36 f7 bc 93 18 26 bd
       -0.2529321 0.001902545 -0.030177383 -0.04055078
0000b0 65 9c 52 be 1b 77 0e be 13 e0 eb bd 88 81 0a be
       -0.20567472 -0.13912623 -0.11517348 -0.13525975
0000c0 f9 93 10 be 99 92 23 be 97 93 1b be b4 ec 39 bd
       -0.14118947 -0.15973891 -0.1519302 -0.045391753
0000d0 9d 25 9f 3d 64 32 0f be ff 18 22 be 88 fb 25 be
       0.07770846 -0.13984066 -0.15829848 -0.16209233
0000e0 4f b4 2b bd 97 f0 37 bb 77 47 ef 3d 7e 75 7e 3d
       -0.041920003 -0.0028066987 0.11683553 0.062123768
0000f0 2e 8e 23 bc eb 8e 16 3d f8 c4 73 3d cb a3 a4 bd
       -0.009982629 0.03675739 0.059514016 -0.080390535
000100 25 e7 30 be 03 53 0f be ef 0f 02 3e 70 c5 7f bd
       -0.17275675 -0.1399651 0.1270139 -0.06244415
000110 29 45 af 3d 0a 9d f7 3b f8 53 99 bd 85 48 2b 3e
       0.08558113 0.0075565623 -0.07486719 0.16726883
000120 79 3d 83 3e 2f 49 29 3e 4d f6 52 3e 9b da 84 be
       0.25632837 0.16531824 0.20601769 -0.25948033
000130 d0 e8 45 be 53 37 14 be 2b ec d7 bd ac 9b 02 3e
       -0.19327092 -0.1447423 -0.10543092 0.12754697
000140 a9 c7 1a be f3 6a 53 3c bb 58 41 3e 21 de 88 3d
       -0.15115227 0.012903917 0.18881504 0.06682993
000150 28 17 f8 bc 46 39 de bd df f8 3a 3d 48 c2 6e 3c
       -0.03028448 -0.10850768 0.0456475 0.014572687
000160 ab 1f 1e be 8e ce e9 bb 63 c3 be 3d a4 60 2f 3e
       -0.15441768 -0.007135219 0.09314611 0.17126709
000170 cd b5 49 be 59 35 82 be 9c 01 36 3e 0f c2 8a 3d
       -0.19698258 -0.25431326 0.17774051 0.06775295
000180 d5 54 f9 3d a9 f3 2d be f5 4f 2d bd 61 e7 3a 3e
       0.121743836 -0.1698748 -0.04231258 0.18252327
000190 d5 d4 2e 3e a5 eb 2f be 67 20 0a 3e bd 41 70 3e
       0.17073376 -0.17179735 0.13488923 0.23462577
0001a0 5f 0b 8a be fc 41 e8 3d 95 a1 46 be d1 cd 09 be
       -0.269618 0.113407105 -0.19397576 -0.13457419
0001b0 f7 8c 90 be c0 f3 24 be 22 39 e9 bc f3 22 86 bc
       -0.28232548 -0.16108608 -0.028469626 -0.016374087
0001c0 63 01 70 be 36 f1 0c bd 3d 18 aa bc e7 d4 a2 3d
       -0.23438029 -0.034409724 -0.02076351 0.07950764
0001d0 82 32 0d 3e 88 02 d7 3b 5d 72 fd bd 2e 87 92 bd
       0.13788798 0.006561581 -0.12375329 -0.0715469
0001e0 eb 17 52 3e a3 41 71 bd 3b 72 b1 bc cf df c6 3d
       0.20516936 -0.058900487 -0.021660915 0.09710657
0001f0 d2 54 a4 3c 53 81 27 3d fd ae 46 3e a9 8b 74 be
       0.020059977 0.040894818 0.1940269 -0.23881401
000200 73 5b a6 be cc 78 38 be 54 af c6 3d 10 8b fa bd
       -0.32491645 -0.1801483 0.0970141 -0.12233555
000210 cf 0a 07 bd f2 72 b9 bd 5d fd 2d 3d 06 a1 e0 3d
       -0.032969292 -0.09055127 0.042477954 0.10968213
000220 00 f7 14 3e 09 31 b5 3d 92 3a fa 3d 51 b2 0c be
       0.14547348 0.08847243 0.12218203 -0.13739897
000230 cd d8 0f be c7 32 89 bd 12 64 75 bd 4f bd 04 3e
       -0.14047547 -0.06699138 -0.059909888 0.1296284
000240 8a f3 14 bd 52 b7 35 3e c7 7f 21 3e 3a 78 89 3d
       -0.03636507 0.17745712 0.157714 0.067123845
000250 78 2f 58 3b 9e c4 34 3d 80 bf ce 3d 80 66 1a 3b
       0.0032987278 0.04413282 0.100951195 0.002355963
000260 74 e2 dd bd 7e 02 56 3c 48 f6 3d 3e 65 da 67 bd
       -0.10834208 0.013062118 0.1855098 -0.05660476
000270 a8 d7 a4 bc 67 c9 16 be d8 de b3 3c a5 91 7b 3e
       -0.020122364 -0.14725266 0.021956846 0.24567278
000280 45 40 da 3d c3 b6 0d be be a1 2b be 0b c5 1a 3e
       0.1065679 -0.1383925 -0.16760918 0.15114228
000290 f5 cf 05 3e 83 b9 76 bd 31 84 11 3d 94 60 bc 3d
       0.1306761 -0.06023551 0.03552646 0.09198108
0002a0 41 7e 2c be ab fc 51 3d d2 a7 cd bd a0 98 29 be
       -0.16845037 0.051266354 -0.10041775 -0.16562128
0002b0 99 c8 12 be 87 d2 13 be da 3f 50 be d2 61 ff 3b
       -0.14334334 -0.14435779 -0.20336857 0.0077936435
0002c0 d7 83 8a bd 85 ba d9 3d 38 81 be bd b7 78 47 3e
       -0.06763428 0.10631279 -0.0930199 0.19479643
0002d0 df 25 0d 3e 11 eb 55 be f2 a7 07 bd 63 5f 64 be
       0.13783978 -0.20890452 -0.03311915 -0.22302012
0002e0 2f b8 05 3e 90 b8 0a be 7e da ba 3b fa 3f 51 3e
       0.13058542 -0.13546968 0.005702316 0.20434561
0002f0 93 25 b3 bd 5b e0 b8 bd ca eb 7c 3e 2f a0 78 be
       -0.08747401 -0.090271674 0.24699321 -0.24279855
000300 23 9c 97 bd d6 6c 5b 3c 1f 5e 82 bd 61 33 5a bd
       -0.074028276 0.013392648 -0.063656084 -0.053271655
000310 00 98 da 3b 79 2e 52 be 94 31 29 be a7 f3 f7 bd
       0.006670952 -0.2052554 -0.16522819 -0.1210702
000320 83 94 4f 3d 48 b7 8c 3d 79 cc e5 3c f7 b5 7c 3d
       0.05067874 0.068708956 0.028051602 0.061696973
000330 fe a7 6d bd 47 a7 c0 bc 7f 8e 05 be bf dd 50 3d
       -0.058021538 -0.023517264 -0.13042639 0.050992724
000340 56 a7 46 bb 9e 99 99 3d 62 ba b2 bd 58 e7 08 bd
       -0.0030312142 0.07500003 -0.08726956 -0.03342375
000350 7d f6 06 be 9e 71 81 bd a5 b4 39 bd bc 72 1b be
       -0.13179965 -0.06320499 -0.04533829 -0.15180486
000360 48 f9 ca bd 7f fe 7e 3e a5 71 1b be 10 6e 1e 3d
       -0.09910828 0.2490177 -0.1518007 0.038679183
000370 b9 98 86 bd fa db b1 3c ea 18 21 be 52 a6 bc 3b
       -0.06572098 0.021711338 -0.1573216 0.0057571316
000380 54 8a 0f bd 87 5e 00 bd 63 65 fc bd 9c e8 1e 3e
       -0.03504403 -0.03134015 -0.123240255 0.15518421
000390 51 62 c3 3d e1 22 a7 bd 00 83 a2 bb c7 98 ec bc
       0.09540237 -0.081609495 -0.004959464 -0.028881444
0003a0 e8 d0 e2 bd 47 11 1f bd ec 30 b4 bc 96 3d ea bd
       -0.11075002 -0.038834836 -0.021995984 -0.11437528
0003b0 76 25 0c 3c 4a d5 84 3c f3 a9 c9 bc 25 2b d9 bc
       0.008553853 0.016214985 -0.02461717 -0.02650983
0003c0 95 29 97 3d 45 30 c5 bd b2 ca b7 bc 85 f5 ab bd
       0.07380978 -0.09628347 -0.02243552 -0.083964385
0003d0 2e 0f 48 bd 5c 84 cf 3d bb 7a bc 3a 27 b9 bb bd
       -0.0488426 0.101326674 0.0014379838 -0.091661744
0003e0 e5 10 d8 bd 5d 86 01 bd 18 74 bd 3d cf f4 01 bd
       -0.105500974 -0.03162228 0.09250659 -0.03172761
0003f0 6a 22 bd 3d d7 a2 0e bd 28 cb cc 3d 8c ab 52 3d
       0.092350796 -0.034823265 0.099996865 0.05143313

baseModel.mlp2.layers.4.bias f4 [32]
000000 67 17 22 3e 4f 3a 45 3c bb d6 dc 3c c9 79 cc 3d
       0.1582924 0.012037828 0.02695786 0.09984166
000010 40 78 ad 3c 49 3d 98 3d 5b 3a bc bd 2a e9 41 3d
       0.021175504 0.07433564 -0.09190818 0.047341503
000020 4b 40 c9 3d 06 f7 96 3d 0c 5a a3 3b 22 a6 f3 bc
       0.09826716 0.07371335 0.0049850997 -0.029742304
000030 19 14 f8 bc 70 16 c1 3d 2a 71 ac 3d 15 10 58 bd
       -0.03028302 0.09428108 0.08420022 -0.052749712
000040 5c ee 03 3e 6d 4b b4 3d 48 5e a0 3d 52 b3 80 bd
       0.12883896 0.08803449 0.07830483 -0.06284203
000050 4e e7 21 3d 29 51 e0 bc c1 f5 34 3d f9 13 0e bd
       0.03952723 -0.02738245 0.04417968 -0.034687016
000060 df ed 00 3e 62 2b 13 3e 5e 91 95 3c bc bb b0 bd
       0.1259074 0.14372018 0.018257793 -0.086295575
000070 29 b7 7f 3d 9d 2f 1e bc 60 3e 15 be d2 06 4a bc
       0.062430535 -0.009654907 -0.14574575 -0.012330728
