weights/weights_trainOnEverything.pt (torch, 52461 bytes, 14 tensors)

mlp1.layers.0.weight f4 [32, 20]
0	0xbdc97622	-0.09836985
1	0xbe57a7af	-0.2106006
2	0xbdc6aa2b	-0.09700426
3	0x3e38de76	0.18053612
4	0xbd5c17f6	-0.05373379
5	0x3de7c07b	0.113160096
6	0x3da4a895	0.08039967
7	0xbe06e3e9	-0.13172878
8	0xbe11b0fa	-0.14227667
9	0x3e1c5905	0.15268333
10	0xbe3068a8	-0.17227423
11	0xbe1c9cee	-0.15294239
12	0xbe07ab8f	-0.13249038
13	0xbc06f089	-0.008236059
14	0xbd925381	-0.07144833
15	0xbc40bb3e	-0.011763392
16	0x3dd450a9	0.10366947
17	0x3b4f4a4e	0.0031629982
18	0x3db85e7e	0.09002398
19	0x3e05eb57	0.13078056
20	0xbd4b2899	-0.049599264
21	0x3bdfe875	0.006833131
22	0x3d93a886	0.07209878
23	0xbdf0a4af	-0.11750161
24	0xbd090dd4	-0.033460453
25	0x3e1e6f3e	0.15472123
26	0xbc12e7df	-0.008966415
27	0x3d797982	0.060906895
28	0xbcfd6967	-0.030934049
29	0xbda8cc59	-0.08242101
30	0x3e38fe2a	0.18065706
31	0x3e5ce152	0.21570328
32	0xbd6db1b2	-0.05803079
33	0xbe32e672	-0.1747072
34	0x3baf5318	0.0053504817
35	0xbddb993b	-0.10722586
36	0xbba26773	-0.0049561798
37	0x3e147279	0.14496793
38	0xbcdd84cb	-0.02704086
39	0x3c3dd66d	0.011586768
40	0xbe2fc4c6	-0.17164907
41	0xbe11fe02	-0.14257053
42	0xbe5cea6e	-0.21573803
43	0xbcb2e228	-0.021836355
44	0xbd31f67c	-0.043447956
45	0xbe186941	-0.14883901
46	0xbd0f0dfd	-0.03492545
47	0xbcb34168	-0.021881774
48	0x3d5f4f04	0.054518715
49	0xbd836eaa	-0.06417592
50	0xbcd23ee0	-0.025664747
51	0x3e3944f3	0.18092708
52	0xbe0e8546	-0.13918027
53	0x3df0b986	0.11754136
54	0xbe18fb5a	-0.14939633
55	0x3dcaf63a	0.09910245
56	0xbce0c58f	-0.027437953
57	0x3c8bc79c	0.017062955
58	0xbdaf3911	-0.085558064
59	0xbbf28753	-0.007401386
60	0xbc353e66	-0.01106224
61	0xbd37c7aa	-0.04486815
62	0x3e1fe3e1	0.15614273
63	0x3da1ee53	0.07906785
64	0xbd3a6f4f	-0.04551631
65	0xbe2101ed	-0.15723391
66	0x3d76cdf2	0.060255
67	0x3d0d1466	0.03444328
68	0x3dbecbad	0.09316192
69	0xbe1cf590	-0.1532805
70	0x3de55ed0	0.11199725
71	0x3cbe7580	0.023249388
72	0xbe87124f	-0.26381156
73	0xbd0d3c39	-0.03448126
74	0xbcf8ba8b	-0.030362388
75	0x3c817c75	0.015806416
76	0xbc8a112b	-0.01685389
77	0xbd945441	-0.07242633
78	0x3c9278f3	0.017879939
79	0x3d9a6db5	0.07540456
80	0x3ad08a55	0.0015910367
81	0xbe116b7d	-0.1420116
82	0xbd9c6f5c	-0.076384276
83	0x3e22aea5	0.15886934
84	0xbe01fc3c	-0.12693876
85	0x3d195af6	0.037440263
86	0x3e4b298e	0.1984007
87	0xbe57eec2	-0.21087173
88	0x3e27e0d6	0.16394362
89	0xbb34564b	-0.0027517255
90	0x3d87e9a1	0.06636358
91	0x3d03df7c	0.032195553
92	0x3e62f439	0.22163476
93	0xbde9b94a	-0.11412294
94	0x3d9b81ec	0.0759314
95	0xbb820a24	-0.003968494
96	0x3da27239	0.079319425
97	0xbda2391b	-0.07921048
98	0x3df7dd63	0.12102773
99	0x3e1e99cb	0.15488355
100	0x3e245e54	0.16051608
101	0xbdffd11d	-0.12491057
102	0x3e55f667	0.20894776
103	0xbe7b35e8	-0.24532282
104	0xbe4512ce	-0.19245455
105	0xbbcc6830	-0.006238006
106	0x3da6a7cf	0.08137476
107	0xbdf8a37b	-0.121405564
108	0x3cce3a7b	0.02517437
109	0x3e0aebc3	0.13566498
110	0xbd623d12	-0.055234022
111	0xbe0b24e3	-0.1358829
112	0x3db1eb88	0.08687502
113	0x3e427d0e	0.18993017
114	0xbd160c63	-0.036632907
115	0x3e0f611c	0.14001888
116	0xbe623169	-0.22089161
117	0x3dfc2410	0.12311566
118	0xbd41f68a	-0.04735426
119	0xbd36ec4c	-0.044658944
120	0x3d7de2c5	0.061983842
121	0x3e76e9c7	0.24112616
122	0xbe10e2be	-0.14148995
123	0x3cb74dd8	0.022375986
124	0xbdecde65	-0.11565856
125	0x3de0dfaa	0.109801605
126	0xbd3d9967	-0.046288874
127	0x3e30fdfe	0.1728439
128	0x3cf1af47	0.029502524
129	0x3e1a2691	0.15053774
130	0xbd08b23a	-0.033373095
131	0x3cf43d36	0.029814344
132	0xbd74e42b	-0.05978791
133	0x3e33c879	0.17556943
134	0xbdf392f8	-0.118932664
135	0x3e625f55	0.22106679
136	0xbe17ed99	-0.1483673
137	0xbe2c109e	-0.16803214
138	0xbea418f2	-0.32050282
139	0x3d32b951	0.043633763
140	0xbc24f563	-0.01006827
141	0x3c90be6f	0.01766893
142	0xbde251a8	-0.11050731
143	0x3cd37884	0.025814302
144	0xbdcc768c	-0.099835485
145	0xbddd99ad	-0.10820327
146	0x3d04675f	0.032325145
147	0xbbe37080	-0.0069409013
148	0xbdbc80a0	-0.09204221
149	0x3c44d3a8	0.012013353
150	0x3da40c4e	0.080101594
151	0x3cf0ec4f	0.029409556
152	0x3d80887f	0.062760346
153	0x3e2c251e	0.16811034
154	0xbe21b94e	-0.15793344
155	0xbce6675c	-0.028125457
156	0x3e1da965	0.1539665
157	0x3e2fd954	0.17172748
158	0xb9b17871	-0.00033849807
159	0xbe6eaa27	-0.23307095
160	0x3e5475bf	0.20748042
161	0x3db7042f	0.08936345
162	0x3e77cf93	0.24200277
163	0xbb7a799d	-0.003821946
164	0x3d92b127	0.071626954
165	0x3d34723e	0.044054262
166	0xbd828b7a	-0.06374259
167	0xbe0f987a	-0.14023009
168	0xbdb306e0	-0.08741546
169	0x3de302a9	0.11084492
170	0x3db7dc62	0.089775816
171	0x3e2c139f	0.1680436
172	0xbe53d75c	-0.20687622
173	0x3e4526e5	0.19253118
174	0xbd95fc07	-0.07323461
175	0xbe566f65	-0.20940931
176	0x3e13dabe	0.14438912
177	0xbdaca7ce	-0.08430444
178	0x3e4dc62f	0.20095132
179	0xbe0b3306	-0.13593683
180	0x3e667409	0.22505201
181	0xbe873d88	-0.26414132
182	0xbc5e6867	-0.013574696
183	0x3c74c1f6	0.014938822
184	0xbd9e83bd	-0.07739971
185	0xbde2e4c0	-0.11078787
186	0xbdb91ec3	-0.090390705
187	0xbd11ad26	-0.035565518
188	0x3d14d937	0.036339965
189	0x3d8a6cf9	0.06759066
190	0x3d672461	0.056431178
191	0x3d826c07	0.06368261
192	0xbdaba908	-0.083818495
193	0x3e02b2e6	0.12763557
194	0x3e34cb85	0.17655762
195	0x3d85e2cb	0.06537398
196	0xbe40163d	-0.18758483
197	0xbd79ccf6	-0.06098648
198	0x3e74b9f1	0.23899056
199	0x3e29da2e	0.16587135
200	0xbddc6ee2	-0.10763337
201	0xbe25a4a9	-0.16176094
202	0x3e060f6b	0.13091819
203	0x3ce83f74	0.02835057
204	0xbbb76ac8	-0.005597446
205	0x3e5ef241	0.217721
206	0xbc11ecad	-0.008906526
207	0xbdb5e44f	-0.08881437
208	0x3dc122ee	0.094304904
209	0xbe4c1e9a	-0.19933549
210	0x3db2c1e4	0.08728388
211	0x3c92560f	0.017863302
212	0x3e4a1663	0.19735102
213	0x3c0472aa	0.008083979
214	0xbe1ee2f5	-0.15516265
215	0xbd617fcc	-0.055053517
216	0x3db45bec	0.08806595
217	0xbe521855	-0.20517094
218	0x3d3eab19	0.04654989
219	0xbe3b78b1	-0.18307759
220	0xbe3f0cf4	-0.18657285
221	0x3e58a416	0.21156344
222	0x3e42d390	0.19026017
223	0x3dca6455	0.09882418
224	0x3d4a683f	0.049415823
225	0x3e693070	0.22772384
226	0xbd238ded	-0.039930273
227	0x3df510c7	0.11966091
228	0x3e34d970	0.17661071
229	0x3e33401b	0.17504923
230	0x3cf57799	0.029964255
231	0x3e3c20ae	0.18371841
232	0xbd5f05e7	-0.05444899
233	0xbe27b672	-0.16378191
234	0x3e4f68e8	0.20254862
235	0xbd6a9fbb	-0.057281237
236	0x3e3c3b06	0.1838189
237	0xbe1d6784	-0.1537152
238	0xbd8fabd3	-0.07015195
239	0xbd65e60c	-0.056127593
240	0x3dda80ed	0.10669122
241	0x3eca8615	0.3955542
242	0x3e17646b	0.147844
243	0x3e3df8de	0.18551967
244	0xbe048b72	-0.12943819
245	0xbdacdb61	-0.08440281
246	0x3cfd0005	0.030883798
247	0xbe3b9247	-0.18317519
248	0xbcced586	-0.0252483
249	0x3e54bf08	0.20775998
250	0x3e320d42	0.1738787
251	0x3ddb5941	0.10710383
252	0x3dd450c4	0.10366967
253	0x3d058828	0.03260055
254	0xbdc979ab	-0.098376594
255	0xbe2dbab3	-0.16965751

mlp1.layers.0.bias f4 [32]
0	0xbe2e5d4e	-0.1702778
1	0xbe78345d	-0.24238725
2	0xbd931988	-0.07182604
3	0x3e335f47	0.17516814
4	0x3e43461a	0.1906971
5	0x3cc19da0	0.023634732
6	0xbe367148	-0.17816651
7	0x3dce0f07	0.1006146
8	0xbeac85a8	-0.33695722
9	0xbe724780	-0.23660088
10	0x3e2212df	0.15827511
11	0x3d2140c1	0.039368395
12	0xbdb13e01	-0.086544044
13	0x3e4a9b19	0.19785728
14	0x3dd63cb1	0.10460795
15	0xbe1bdbd6	-0.1522058
16	0xbe3d63e0	-0.1849513
17	0x3db99d1a	0.09063168
18	0x3c786a91	0.015162126
19	0x3c901273	0.017586922
20	0xbdb3752d	-0.08762584
21	0xbe4d5e64	-0.20055538
22	0xbe43497a	-0.19070998
23	0x3e0980c2	0.13428023
24	0x3c5bd268	0.013416864
25	0xbccd587a	-0.025066603
26	0xbe420126	-0.1894575
27	0x3e2b6530	0.16737819
28	0xbe6d753c	-0.23189253
29	0xbe288325	-0.16456278
30	0xbe4c3982	-0.19943812
31	0x3da47cf5	0.08031646

mlp1.layers.2.weight f4 [64, 32]
0	0xbe1bc6fa	-0.15212622
1	0x3cad0b92	0.021123681
2	0xbcfd7b2e	-0.030942526
3	0x3d4a5c46	0.049404405
4	0xbe53faba	-0.20701113
5	0xbd439ed5	-0.047758896
6	0x3e0ae641	0.13564397
7	0xbdc1547d	-0.09439943
8	0xbd994ac9	-0.07484967
9	0xbe136b69	-0.14396442
10	0xbe293a88	-0.16526234
11	0x3ccc7d34	0.024962045
12	0xbc450e83	-0.012027386
13	0xbe2eab55	-0.17057545
14	0x3d570cfe	0.052502625
15	0x3d1b0f1c	0.037856206
16	0xbe03643d	-0.12831207
17	0xbdeec129	-0.11657936
18	0x3d34e3cb	0.044162553
19	0xbdcb526e	-0.099278316
20	0xbc5303d3	-0.01287933
21	0xbc88ce64	-0.016699977
22	0xbe7a43a6	-0.24439868
23	0x3df67e65	0.120358266
24	0xbe610997	-0.21976314
25	0xbda7fc5c	-0.082024306
26	0xbe237398	-0.15962064
27	0x3d262cfe	0.04057025
28	0xbaa73b7a	-0.0012758814
29	0x3cdbee44	0.026847012
30	0x3dc732b2	0.09726466
31	0xbd344a4a	-0.04401616
32	0x3cb0c79b	0.021579554
33	0x3d54bcf1	0.051938
34	0x3d06a8eb	0.032875936
35	0x3db3c5a9	0.08777935
36	0xbc6c7591	-0.014432327
37	0xbe14ca69	-0.14530338
38	0x3d317d52	0.043332405
39	0xb9378282	-0.00017500858
40	0x3d974c95	0.07387654
41	0xbe215af7	-0.15757357
42	0x3d203658	0.039114326
43	0x3daca025	0.08428983
44	0x3d9613f9	0.07328028
45	0xbe6c032f	-0.2304809
46	0xbe06564e	-0.1311886
47	0xbdc08b71	-0.09401596
48	0xbe8a4b70	-0.2701068
49	0xbda1f18a	-0.07907398
50	0xbe24e6de	-0.16103694
51	0xbd02ccba	-0.031933524
52	0x3e07983a	0.13241664
53	0xbdb0830c	-0.08618745
54	0xbe2ee09d	-0.1707787
55	0xbdd85e7a	-0.10564895
56	0xbd0b42f9	-0.033999417
57	0xbdef3c35	-0.116814055
58	0x3b814cbc	0.003945915
59	0x3ddf221f	0.1089518
60	0xbe1b21fb	-0.15149681
61	0x3da702c3	0.08154824
62	0xbd80717d	-0.06271646
63	0xbcb69547	-0.022287978
64	0x3cd941ae	0.026520576
65	0x3d38cf43	0.045119535
66	0x3d604a3c	0.054758295
67	0x3e076a96	0.13224253
68	0xbe0658e0	-0.1311984
69	0x3c168ed3	0.009189325
70	0xbd0f20f7	-0.034943547
71	0xbd31a0f5	-0.04336639
72	0xbe33be73	-0.1755312
73	0x3c0c072e	0.008546634
74	0x3d38f0af	0.04515141
75	0xbdbe4e82	-0.09292318
76	0x3d8f7037	0.07003825
77	0xbdb07157	-0.08615368
78	0x3ce14d22	0.0275026
79	0xbda064bb	-0.07831713
80	0xbdc359e7	-0.09538632
81	0xbe2b08e7	-0.16702615
82	0xbe346978	-0.17618358
83	0xbd795818	-0.06087503
84	0xbd032d63	-0.032025706
85	0x3d83b9b2	0.06431903
86	0xbe2c5c0e	-0.16831991
87	0x3dd764e5	0.10517291
88	0xbe220c32	-0.15824965
89	0x3cc12dfd	0.0235815
90	0x3d881365	0.06644324
91	0x3d57161e	0.052511327
92	0x3cc8bbfe	0.024503704
93	0x3bb819d7	0.0056183147
94	0x3c35aba6	0.011088287
95	0x3d0d978b	0.03456835
96	0xbd020805	-0.03174593
97	0xbdc18c48	-0.09450585
98	0xbd5aefe3	-0.05345143
99	0x3de39ebb	0.1111426
100	0xbdf717ef	-0.12065112
101	0x3dbcfd5d	0.09228013
102	0xbd1df882	-0.038567074
103	0xbe045dc4	-0.12926394
104	0x3d59f239	0.053209517
105	0xbc75a831	-0.014993713
106	0x3d1e4422	0.038639195
107	0xbd8265c8	-0.063670695
108	0xbe08a2c0	-0.13343334
109	0xbe197117	-0.14984547
110	0x3e301bf8	0.17198169
111	0xbd7d6352	-0.061862297
112	0xbde82f35	-0.11337129
113	0xbe7918d1	-0.24325873
114	0xbe26afcf	-0.16278003
115	0xbd8ad345	-0.06778578
116	0xbe2d60e2	-0.16931489
117	0xbe322e8c	-0.17400569
118	0x3cdc7a03	0.026913648
119	0xbc0e184e	-0.008672787
120	0x3e09497e	0.13406941
121	0xbe028ba4	-0.12748581
122	0x3bf9b6ff	0.007620692
123	0x3dde24df	0.10846876
124	0x3cd3feab	0.025878271
125	0x3e062a81	0.13102151
126	0x3d4347f9	0.04767606
127	0x3d890ba3	0.06691673
128	0xbe7b0894	-0.24514991
129	0x3cd82c5a	0.026388336
130	0x3dbb2f1d	0.091398455
131	0xbd42aa14	-0.04752548
132	0x3e1f5ecc	0.15563506
133	0x3e0ab258	0.13544595
134	0xbe0f0998	-0.13968503
135	0x3d71584b	0.058922093
136	0xbe5ebc20	-0.21751451
137	0xbde578b9	-0.11204667
138	0x3d97a1ac	0.07403883
139	0x3d31e01b	0.043426614
140	0xbe19d430	-0.1502235
141	0x3d027ae7	0.03185549
142	0xbd3d147e	-0.04616212
143	0xbd156a87	-0.036478546
144	0xbdefa86b	-0.11702045
145	0xbc2320c9	-0.009956547
146	0x3e36ae6d	0.17839976
147	0xbe0c4e10	-0.13701653
148	0xbe474cac	-0.19462842
149	0x3e19ee92	0.15032414
150	0xbe42bff9	-0.19018544
151	0xbe4f252f	-0.20229028
152	0xbe3a8de9	-0.18218197
153	0x3dd9dbed	0.10637651
154	0xbd6dc5f4	-0.05805011
155	0xbc689e40	-0.014197886
156	0x3e0d94e6	0.13826331
157	0x3d1de35c	0.038546905
158	0x3d9e9228	0.07742721
159	0xbdc90646	-0.0981565
160	0x3cb1b601	0.021693232
161	0xbdcf223f	-0.10113954
162	0xbe59c1f8	-0.212654
163	0x3d332954	0.043740585
164	0xbde7c570	-0.11316955
165	0xbcd7a519	-0.026323842
166	0xbe0dbcf4	-0.13841611
167	0xbe00ecbc	-0.12590307
168	0xbe484d85	-0.19560821
169	0x3b1ea626	0.002420792
170	0x3dd624aa	0.10456212
171	0x3ad08278	0.0015908023
172	0xbdaa387f	-0.08311557
173	0x3d3cfad3	0.046137642
174	0x3e1feea6	0.15618381
175	0xbd616c1c	-0.05503474
176	0xbde4a291	-0.111638196
177	0xbc637b2f	-0.01388435
178	0x3d338ed5	0.043837387
179	0x3dc813d4	0.09769407
180	0x3d7d55d8	0.061849445
181	0xbb096d72	-0.0020969776
182	0xbd8024af	-0.06256997
183	0x3e1f0440	0.15528965
184	0xbd91be73	-0.071164034
185	0x3e46eedf	0.1942706
186	0x3d499ca7	0.04922166
187	0xbe04e935	-0.12979586
188	0xbd8d493a	-0.068987325
189	0xbcb783a4	-0.022401638
190	0xbe7a7fe1	-0.24462844
191	0xbd6ac613	-0.057317805
192	0x3e1f1ac4	0.15537554
193	0xbeab1ab8	-0.33418822
194	0xbe603124	-0.21893746
195	0xbe3dca4d	-0.18534203
196	0x3e0a116c	0.13483208
197	0xbe406a1d	-0.18790479
198	0xbe415de2	-0.1888347
199	0xbe176cb5	-0.14787562
200	0x3d885742	0.06657268
201	0xbcaf1341	-0.021371486
202	0xbd55fd46	-0.052243493
203	0xbe5a7b17	-0.21336018
204	0xbd794f2d	-0.060866524
205	0xbe4434fc	-0.19160837
206	0xbe02b9d5	-0.12766202
207	0x3ce19682	0.027537588
208	0x3def088e	0.116715536
209	0xbcdf17b5	-0.027232984
210	0xbd9b0510	-0.07569325
211	0xbe2a5d48	-0.16637146
212	0xbe660ebf	-0.22466563
213	0x3d2af7a0	0.04174006
214	0xbdb235f3	-0.08701696
215	0xbe02a3bc	-0.12757772
216	0x3c2d556f	0.010579451
217	0xbc6b42ab	-0.014359157
218	0xbe1d837d	-0.1538219
219	0xbdbfe8f8	-0.09370607
220	0xbd47a409	-0.04874042
221	0x3e07f4cd	0.13276978
222	0xbe5d3efa	-0.21606055
223	0x3e10f1bc	0.14154714
224	0xbd0cfaa5	-0.03441872
225	0x3db2a2aa	0.08722432
226	0x3e08ce6f	0.13359998
227	0xbd47a121	-0.04873765
228	0xbe26d225	-0.16291101
229	0xbdde91c0	-0.10867643
230	0xbdd720ed	-0.10504327
231	0x3e1b6172	0.15173891
232	0x3dd3e609	0.1034661
233	0x3c83d4ba	0.016092647
234	0xbdb2b0ae	-0.08725105
235	0xbe5324cd	-0.20619507
236	0x3db5e2b6	0.08881132
237	0x3d5bae29	0.05363289
238	0x3d0ad516	0.03389462
239	0xbd2a919d	-0.041642774
240	0x3de461fc	0.111515015
241	0xbe0eab3d	-0.1393251
242	0x3c72c847	0.014818258
243	0xbe1dd72a	-0.1541411
244	0xbe5e9a8d	-0.21738644
245	0x3d0b6dff	0.034040447
246	0x3d85c5a0	0.065318346
247	0xbdecacc9	-0.11556394
248	0xbdd457d3	-0.10368314
249	0xbd8c0e83	-0.068387054
250	0xbda12d22	-0.078699365
251	0x3cdec052	0.027191315
252	0x3dcb2c48	0.09920555
253	0xbc85a8c0	-0.016315818
254	0xbdce762e	-0.10081135
255	0x3d9c191b	0.07621976

mlp1.layers.2.bias f4 [64]
0	0x3d748daf	0.059705433
1	0xbd8f64df	-0.070016615
2	0xbd7fc277	-0.062441316
3	0xbd0044ed	-0.031315733
4	0x3dc53e99	0.0963108
5	0xbbaad6fd	-0.005213617
6	0x3ca54d1c	0.02017837
7	0x3ced9b84	0.02900482
8	0xbe356bc3	-0.17716889
9	0xbd8dc6de	-0.069226965
10	0xbe05b9e1	-0.13059188
11	0x3e06a245	0.13147838
12	0xbd977f8e	-0.07397376
13	0x3df287b0	0.118422866
14	0xbda84e4d	-0.0821806
15	0xbd1b5745	-0.037925024
16	0x3d699d8a	0.057035007
17	0xbe480e0d	-0.1953661
18	0x3d36cc55	0.04462846
19	0xbe207c6c	-0.15672463
20	0xbc625a09	-0.013815411
21	0xbe4ee2fb	-0.20203774
22	0x3d5ac05e	0.053406112
23	0x3bb9da02	0.0056717405
24	0x3e03f6c8	0.12887108
25	0x3e1b6dfb	0.15178673
26	0x3d4d9488	0.05019048
27	0xbe44d7ac	-0.19222897
28	0xbda6f187	-0.081515364
29	0x3d10f3a2	0.035388596
30	0xbce9ae65	-0.02852554
31	0xbbd6c66a	-0.0065544145
32	0x3dd06402	0.10175325
33	0x3cb629cd	0.022236729
34	0xbdd9e917	-0.106401615
35	0xbda1d87b	-0.079026185
36	0x3d459ac1	0.048243288
37	0x3e024fc8	0.12725747
38	0x3de6f564	0.11277273
39	0x3d829f88	0.063780844
40	0x3d835df5	0.06414405
41	0x39d87443	0.00041285352
42	0x3d2abcde	0.041684024
43	0x3da208b4	0.07911816
44	0xbe2c575f	-0.16830204
45	0xbd1e0013	-0.03857429
46	0x3dc1b75a	0.094588
47	0xbd5922ff	-0.05301189
48	0x3d86f1b7	0.06589072
49	0x3dda1628	0.10648757
50	0x3caa2c49	0.02077307
51	0xbe103d8d	-0.1408598
52	0xbe244ee7	-0.16045724
53	0xbd29fb9a	-0.04149971
54	0x3e062f8e	0.13104078
55	0x3e128570	0.14308715
56	0xbe4a1197	-0.19733272
57	0x3d02e213	0.031953882
58	0xbe064f2a	-0.13116136
59	0xbd6468ff	-0.055764195
60	0xbd7e3284	-0.062059894
61	0xbc94aede	-0.01814979
62	0xbe1f9578	-0.15584362
63	0x3dd4188c	0.103562444

mlp1.layers.4.weight f4 [32, 64]
0	0xbd0c1b74	-0.03420587
1	0xbc9e0c01	-0.019292833
2	0x3dce9437	0.100868635
3	0xbdfb4eaa	-0.12270863
4	0xbbc4cafd	-0.0060056434
5	0x3e01ee24	0.126885
6	0xbdfd5e4c	-0.12371501
7	0xbdcab919	-0.09898586
8	0x3db15d8f	0.08660423
9	0xbde93cd1	-0.11388553
10	0x3c1eacce	0.009684755
11	0xbd64a51e	-0.05582153
12	0xbd3826f3	-0.04495902
13	0x3dedf7bc	0.11619517
14	0xbdf2beb2	-0.118527785
15	0x3d84c317	0.06482523
16	0xbd4e2eed	-0.05033772
17	0xba57314f	-0.00082089467
18	0xbac2cfe3	-0.001486298
19	0xbd4fff39	-0.05078051
20	0xbd8d7cff	-0.06908607
21	0x3da51fa4	0.080626756
22	0xbbb678a9	-0.005568583
23	0x3d8b9f5b	0.06817504
24	0xbd18fe68	-0.037351996
25	0xbdb9bafc	-0.090688676
26	0xbd7c70ec	-0.06163113
27	0x3e0e1f9c	0.13879246
28	0x3cf20214	0.029542007
29	0x3d4b30c8	0.04960707
30	0xbdbe99c8	-0.09306675
31	0xbc3e4195	-0.011612316
32	0xbda11fff	-0.07867431
33	0xbccdebf8	-0.025136933
34	0x3d8c9a75	0.06865398
35	0xbc78089c	-0.015138771
36	0xbddbb8eb	-0.1072863
37	0x3cf7cde8	0.030249551
38	0xbda0aa0d	-0.078449346
39	0x3d71d2f1	0.05903906
40	0x3c9dfd17	0.019285722
41	0x3d90218c	0.070376486
42	0x3d70c9f9	0.058786366
43	0xbd907619	-0.07053775
44	0xbdb8757b	-0.090067826
45	0xbdbe7b65	-0.093008794
46	0x3d918fff	0.07107543
47	0xbd0eb24e	-0.034838013
48	0xbd143751	-0.036185566
49	0x3c08916f	0.008335455
50	0xbc9ac516	-0.018892806
51	0x3ca72e44	0.020407803
52	0xbd25f910	-0.040520728
53	0xbdb0d052	-0.08633484
54	0xbd3d5374	-0.046222165
55	0x3dc87112	0.097871915
56	0x3c3775bb	0.011197503
57	0x3d93c773	0.07215776
58	0x3da3061a	0.07960148
59	0xbdd8761b	-0.10569402
60	0xbda0df7d	-0.07855127
61	0x3db2d692	0.08732332
62	0xbe12d58e	-0.14339277
63	0x3e12cee4	0.14336735
64	0xbd897bf7	-0.067130975
65	0xbd38e815	-0.045143206
66	0x3d828aed	0.06374154
67	0x3e3b4e7b	0.18291657
68	0xbd874050	-0.066040635
69	0xbd1ee5c4	-0.03879334
70	0xbdd444c9	-0.10364682
71	0x3dc7da40	0.09758425
72	0x3af41279	0.0018621228
73	0xbd98a78b	-0.07453831
74	0xbe03141a	-0.12800637
75	0x3cbb016a	0.022827823
76	0xbbbf9d03	-0.0058475747
77	0x3ca14c35	0.019689659
78	0x3dc86114	0.09784141
79	0xbd325f8d	-0.043548156
80	0x3e0255c3	0.12728028
81	0x3d0efc95	0.03490885
82	0xbc978157	-0.018494291
83	0x3cfacd63	0.030615514
84	0x3cad7762	0.02117509
85	0x3c8b1fa5	0.016982863
86	0x3de2f02f	0.11080968
87	0xbd82b9a3	-0.06383064
88	0xbd9ce9ff	-0.07661819
89	0x3b085b93	0.0020806536
90	0x3c271796	0.010198494
91	0xbdc07231	-0.0939678
92	0x3cc2a9d5	0.023762623
93	0xbdd418f8	-0.10356325
94	0xbe018620	-0.12648821
95	0xbdeba4c2	-0.115060344
96	0x3b104a7c	0.0022017052
97	0xbd1b41eb	-0.03790466
98	0xbd2d8e07	-0.042371776
99	0xbd6a31ca	-0.05717639
100	0xbda9be5c	-0.08288261
101	0xbe04cb0c	-0.12968081
102	0x3dc5d1b1	0.09659136
103	0xbd09fb0c	-0.033686683
104	0xbdf17969	-0.11790735
105	0x3dfe42b0	0.124150634
106	0xbd868551	-0.06568397
107	0x3b87dde0	0.0041463226
108	0xbd62b6ca	-0.055350102
109	0xbda480be	-0.08032368
110	0xbe1302ca	-0.14356533
111	0x3dc47463	0.095925115
112	0x3d90aecf	0.07064592
113	0x3ce81585	0.028330574
114	0x3c814e52	0.015784416
115	0xbc7e4bbe	-0.015520988
116	0xbc550560	-0.01300177
117	0x3df69de8	0.12041837
118	0x3dfc191d	0.123094775
119	0x3df97281	0.12180043
120	0x3e56183b	0.2090768
121	0x3dc0197c	0.09379861
122	0xbb1fbe68	-0.0024374966
123	0xbcdb392e	-0.026760664
124	0xbc13bc66	-0.009017086
125	0x3e0bf943	0.13669305
126	0xbc843db9	-0.016142713
127	0xbc8dd5fd	-0.017313952
128	0x3dbf5e89	0.09344203
129	0xbdb4874b	-0.088148676
130	0xbdade3d3	-0.0849072
131	0x3cacc649	0.021090643
132	0xbd9c9a12	-0.07646574
133	0x3ddc3c5d	0.10753701
134	0xbdf86a2b	-0.12129625
135	0x3d8ad2a6	0.06778459
136	0xbbc6a89a	-0.0060625793
137	0xbc789182	-0.0151714105
138	0x3cc85bef	0.0244579
139	0xbdfaf36a	-0.12253459
140	0xbde319b4	-0.11088887
141	0xbd57ef30	-0.05271834
142	0xbde9fcca	-0.11425169
143	0xbd0d287d	-0.03446244
144	0x3e0fa58e	0.14027998
145	0x3d9b7b36	0.0759186
146	0xbd498ee0	-0.04920852
147	0x3d311985	0.043237228
148	0x3de618f3	0.112352274
149	0xbe0c7429	-0.13716187
150	0x3cf2968c	0.029612802
151	0xbd60eb94	-0.054912165
152	0xbd2fce8e	-0.042921595
153	0x3dc27f84	0.09496978
154	0x3db2ab0e	0.08724032
155	0x3da65a8e	0.08122741
156	0xbd9fc5ef	-0.07801425
157	0xbd407f5f	-0.04699647
158	0xbd274389	-0.04083589
159	0xbdc014f0	-0.093789935
160	0xbc1da444	-0.0096216835
161	0xbd35a33d	-0.04434513
162	0x3d9e7a14	0.07738128
163	0xbd70eb8b	-0.05881838
164	0x3d0c6e15	0.03428467
165	0xbb90a9f2	-0.0044147903
166	0x3d99c341	0.07507945
167	0x3de82109	0.11334426
168	0xbdc1367c	-0.0943422
169	0x3d8ac56e	0.06775938
170	0x3bdce90c	0.0067416485
171	0xbd8538db	-0.06504985
172	0xbdd933a1	-0.106055506
173	0x3e0e6bed	0.13908358
174	0xbc810f2d	-0.015754307
175	0xbd355f01	-0.044280056
176	0xbdfda6ec	-0.123853534
177	0xbcd7771e	-0.026301917
178	0xbdddf48a	-0.10837658
179	0x3e15cc0a	0.14628616
180	0x3da9de92	0.08294405
181	0x3d914eee	0.07095133
182	0xbce0297f	-0.027363537
183	0x3e1ef463	0.15522914
184	0xbdb9dab6	-0.09074919
185	0xbdb7defd	-0.089780785
186	0x3d81d17e	0.063387856
187	0x3dd717d8	0.10502595
188	0x3e05bcd9	0.13060321
189	0x3dafb202	0.08578874
190	0xb98e667b	-0.00027160704
191	0x3d1e3a87	0.038630035
192	0x3dba9d52	0.09112038
193	0x3d82c338	0.06384891
194	0xbc7036b1	-0.014661477
195	0x3d27a1b4	0.040925696
196	0x3e3f5792	0.18685749
197	0x3db61539	0.08890767
198	0xbe7ed45f	-0.248857
199	0xbc789d74	-0.0151742585
200	0x3d8d21b7	0.06891196
201	0x3d7fb62a	0.062429585
202	0x3c3bd6b1	0.011464761
203	0xbcd4bd20	-0.025969088
204	0xbd18cf3a	-0.037307
205	0x3d0195ac	0.03163688
206	0xbd73d797	-0.059531774
207	0xbde629b4	-0.11238423
208	0x3dffe94d	0.124956705
209	0xbcd2b54a	-0.025721211
210	0xbd574bc5	-0.052562494
211	0xbe41ea33	-0.18936996
212	0xbccf485f	-0.025303064
213	0x3e1702fd	0.14747234
214	0x3d909415	0.070594944
215	0xbd3f8b6f	-0.046763834
216	0x3d898016	0.067138836
217	0xbdce4a97	-0.10072821
218	0xbde9d86a	-0.11418231
219	0x3d885928	0.0665763
220	0x3dc57999	0.096423335
221	0xbd8074f1	-0.06272305
222	0xbded83f4	-0.11597434
223	0xbd72a5de	-0.059240215
224	0xbdf77bb0	-0.120841384
225	0x3e29c9cf	0.1658089
226	0x3d81e490	0.06342423
227	0x3d1af844	0.03783442
228	0xbdcddc64	-0.10051802
229	0x3e25a721	0.16177036
230	0xbde33210	-0.11093533
231	0xbe2e6497	-0.1703056
232	0xbd1b9ad1	-0.03798944
233	0x3dd0788a	0.10179241
234	0x3cea828d	0.028626705
235	0xbe19c211	-0.15015437
236	0x3d8d83c0	0.06909895
237	0xbd941562	-0.07230641
238	0xbaed6332	-0.0018111228
239	0xbc840882	-0.016117338
240	0xbd662460	-0.056187034
241	0x3bc1e14d	0.0059167505
242	0xbdd431b1	-0.103610404
243	0x3ce56ba5	0.02800543
244	0xbd757217	-0.059923258
245	0xbd9e2c2c	-0.07723269
246	0xbcd72577	-0.026262982
247	0xbd1cc23e	-0.03827118
248	0x3dbddb5d	0.09270356
249	0xbd88d7f3	-0.06681814
250	0x3d955f5b	0.07293578
251	0x3dee77f8	0.11643976
252	0x3dac7bb4	0.08422032
253	0xbd008154	-0.031373337
254	0xbc102e7b	-0.008800144
255	0xbddb81b6	-0.107181

mlp1.layers.4.bias f4 [32]
0	0x3df6f1cb	0.12057837
1	0xbdc09fa7	-0.09405451
2	0xbdb73310	-0.08945286
3	0x3dcd243b	0.10016676
4	0xbd0b2dc1	-0.03397918
5	0xbd5685e2	-0.052373774
6	0x3df06cac	0.117394775
7	0xbd4af2f2	-0.049548097
8	0xbdb555ff	-0.08854293
9	0xbd37e8bf	-0.0448997
10	0x3dea2c6c	0.11434254
11	0x3dfe8eaa	0.12429555
12	0xbd7c75b8	-0.061635703
13	0xbd8ec66f	-0.06971442
14	0x3ba92ea8	0.0051630326
15	0xbd5aca96	-0.053415857
16	0x3d9a98f7	0.07548707
17	0x3d6a8478	0.05725524
18	0x3dea7717	0.11448496
19	0x3c5c0fac	0.013431471
20	0x3e2b0b85	0.16703613
21	0xbd6c8ae2	-0.057749636
22	0x3da398df	0.07988142
23	0xbc4361be	-0.011925159
24	0xbc10e57f	-0.008843779
25	0x3b57e336	0.0032941825
26	0xbb9a7c0c	-0.0047144946
27	0x3dbf6c70	0.09346855
28	0xbc27e06f	-0.01024638
29	0x3dbcc9f1	0.09218205
30	0x3dc343ef	0.09534442
31	0xbc9da0ef	-0.019241778

mlp2.layers.0.weight f4 [32, 84]
0	0xbd79dc1c	-0.06100093
1	0x3c4dfb86	0.012572175
2	0xbe2214d6	-0.15828261
3	0xbdc01203	-0.093784355
4	0xbda85f63	-0.082213186
5	0xbd2fbb93	-0.042903494
6	0xbe037936	-0.12839207
7	0xbe381f45	-0.17980678
8	0x3ddd1cca	0.10796507
9	0x3e005001	0.12530519
10	0xbd269448	-0.040668756
11	0x3ded8b12	0.11598791
12	0xbd246da2	-0.040143616
13	0xbd169e80	-0.03677225
14	0xbe10aef8	-0.14129245
15	0x3df7fff8	0.12109369
16	0xbc989eb3	-0.018630361
17	0xbdc7b807	-0.09751897
18	0xbd8f37ec	-0.06993088
19	0xbb3e7291	-0.0029059986
20	0x3d03b559	0.03215537
21	0xbd0016be	-0.03127169
22	0x3ca32e8d	0.019919658
23	0xbd85a312	-0.06525244
24	0xbe0d0c92	-0.13774326
25	0x3d48aa54	0.048990563
26	0x3de373c4	0.11106065
27	0x3c18bd59	0.009322488
28	0xbd47fe0a	-0.048826255
29	0xbdb50c55	-0.08840243
30	0x3d66c96a	0.056344427
31	0xbc022338	-0.007942967
32	0x3e0d93fd	0.13825984
33	0xbe0b9fe2	-0.13635209
34	0x3b949e0f	0.0045354436
35	0xbe3858d8	-0.18002641
36	0x3de0df89	0.10980136
37	0x3e036751	0.12832381
38	0x3e0c9808	0.1372987
39	0xbdb4335e	-0.0879886
40	0xbd9b92a2	-0.07596327
41	0x3aeefb2c	0.0018232814
42	0xba43f61e	-0.0007475334
43	0xbd2c351a	-0.04204283
44	0x3e2dd4e8	0.16975749
45	0xbd96014b	-0.07324465
46	0x3d38bc4a	0.04510144
47	0x3bac828e	0.005264587
48	0xbd698e07	-0.057020213
49	0x3dec1819	0.11528034
50	0x3d6cd7d6	0.057823025
51	0x3bbede55	0.005824844
52	0xbd61f45d	-0.055164684
53	0x3d275890	0.040855944
54	0x3d0d4391	0.034488264
55	0x3e1d8865	0.15384062
56	0xba80673c	-0.0009796391
57	0xbd4261fe	-0.047456734
58	0xbc84898d	-0.01617887
59	0x3c829474	0.015939929
60	0xbbf9e8c0	-0.007626623
61	0xbd035e22	-0.032072194
62	0x3cda5173	0.026650166
63	0xbdb270f2	-0.08712949
64	0xbd0d8a8d	-0.03455596
65	0xbbed59a6	-0.007243353
66	0xbe137275	-0.1439913
67	0xbca7f73e	-0.020503636
68	0xbe8a20ce	-0.26978153
69	0xbdb4a121	-0.088197954
70	0xbde09f64	-0.10967901
71	0xbd46c28c	-0.048525378
72	0xbb01acfa	-0.001978694
73	0x3c4599ee	0.0120606255
74	0x3e0e0917	0.13870655
75	0xbdf71c48	-0.12065941
76	0xbe1c181f	-0.15243576
77	0x3d859022	0.06521632
78	0x3ba531e0	0.005041346
79	0xbdb19dc0	-0.086726665
80	0x3dadb73e	0.08482216
81	0xbde63b7c	-0.112418145
82	0x3d856a0e	0.06514369
83	0xbe0587cb	-0.13040082
84	0xbcbad2a7	-0.022805525
85	0x3dee7561	0.11643482
86	0xbe1086ff	-0.14113997
87	0x3e4ac23c	0.19800657
88	0x3d4bd121	0.049759988
89	0xbe42f7ed	-0.19039889
90	0xbe439a8e	-0.19101927
91	0xbcf4c569	-0.029879289
92	0xbe3d17ad	-0.18466063
93	0xbc6319fa	-0.013861174
94	0xbddd193f	-0.10795831
95	0x3ce905c3	0.02844513
96	0xbdaa663c	-0.08320281
97	0x3d9ee2af	0.0775808
98	0xbd722c10	-0.059124053
99	0x3dc12929	0.09431679
100	0xbd1fc598	-0.0390068
101	0x3d9a72c0	0.07541418
102	0xbd6a8517	-0.05725583
103	0x3e0a78db	0.13522665
104	0x3c303ddb	0.010756935
105	0xbdcbca1b	-0.09950658
106	0xbd053a45	-0.032526273
107	0x3d99a132	0.07501449
108	0xbe2cca0a	-0.16873947
109	0x3d3c0f27	0.045912888
110	0x3d0458ba	0.03231118
111	0x3cc3d411	0.023904832
112	0xbdc0dc52	-0.09417023
113	0x3db3f641	0.087872036
114	0x3dd64999	0.104632564
115	0x3dbaf02c	0.091278404
116	0x3da1dc20	0.07903314
117	0xbd9020fd	-0.07037542
118	0xbd8d0c3f	-0.068871014
119	0xbd63c40f	-0.055606898
120	0xbc5c2c77	-0.013438336
121	0xbd92c6d8	-0.07166833
122	0xbcfc45e2	-0.030795041
123	0x3d8e268e	0.069409475
124	0x3d74a6a1	0.059729222
125	0xbd002720	-0.031287313
126	0x3e1f1fcc	0.15539473
127	0xbc88909f	-0.016670523
128	0x3c601222	0.013676198
129	0x3e0216e9	0.12704052
130	0xbd8d7997	-0.06907957
131	0x3e0a83ba	0.13526812
132	0x3dad17be	0.08451794
133	0x3e0ec599	0.13942565
134	0x3ded67d6	0.11592071
135	0x3d924adf	0.07143187
136	0xbe0086d8	-0.12551439
137	0x3d6c1db5	0.05764552
138	0xbc16374b	-0.009168456
139	0xbb790240	-0.0037995726
140	0x3e6b7875	0.2299517
141	0xbbfd60e3	-0.007732497
142	0xbd969c21	-0.07353998
143	0xbdae95eb	-0.08524688
144	0x3db57755	0.088606514
145	0xbd853e5e	-0.06506036
146	0xbc7b01d7	-0.015320263
147	0xbd7514c9	-0.059834275
148	0x3bdddb56	0.0067705316
149	0x3add5b45	0.0016888162
150	0x3ca798bb	0.02045857
151	0x3dd91543	0.105997585
152	0x3da6ea4c	0.08150157
153	0xbdd1067b	-0.10206314
154	0xbcc3c354	-0.02389685
155	0xbe383ae9	-0.17991222
156	0x3c2c4bb0	0.010516092
157	0x3d804cba	0.062646344
158	0xbe4d8f17	-0.20074116
159	0xbd3a4808	-0.04547885
160	0xbdc1faee	-0.09471689
161	0xbdb0a9b0	-0.08626115
162	0x3d89b1b0	0.06723344
163	0xbd841214	-0.06448761
164	0xbded6ef4	-0.11593428
165	0xbe1df4d0	-0.1542542
166	0xbdbe1568	-0.09281427
167	0x3b89516d	0.004190615
168	0xbd15bd66	-0.036557578
169	0x3de3fa31	0.111317046
170	0xbd1c1d08	-0.038113624
171	0x3e220f25	0.1582609
172	0x3c751c29	0.014960327
173	0x3ea0d508	0.3141253
174	0xbdf54281	-0.11975575
175	0xbd95f109	-0.073213644
176	0xbd678ed4	-0.056532696
177	0xbd84d864	-0.06486586
178	0xbd3fae56	-0.04679712
179	0xbe1ff028	-0.15618956
180	0x3e530337	0.20606695
181	0x3be43a48	0.0069649555
182	0x3e13a858	0.14419687
183	0x3cf832fa	0.030297745
184	0xbc9bdcb7	-0.019026143
185	0x3de82ff8	0.11337274
186	0x3aed3bce	0.0018099488
187	0xbd1fcb02	-0.039011963
188	0x3d6f7f07	0.058470752
189	0x3d0fa2e5	0.035067458
190	0x3e013def	0.12621282
191	0x3d9e337c	0.077246636
192	0x3d4c262f	0.049841102
193	0x38414f20	4.6088477e-05
194	0xbbaec991	-0.005334087
195	0x3d598fe3	0.053115737
196	0xbd41ad2b	-0.047284286
197	0x3d2cf9a2	0.042230256
198	0xbdd645f8	-0.10462564
199	0xbd0ac468	-0.033878714
200	0x3e07e856	0.13272223
201	0xbd6ea1b1	-0.05825967
202	0x3b8171ea	0.003950347
203	0xbb0dbecf	-0.0021628623
204	0xbd930e12	-0.07180418
205	0xbdb1e448	-0.08686119
206	0xbd2ce4fa	-0.042210557
207	0xbe082b9e	-0.13297889
208	0xbd6d1d07	-0.05788901
209	0xbd4a2a9a	-0.049357034
210	0xbd91ae1c	-0.07113287
211	0xbdffb6f9	-0.12486071
212	0xbd0756c9	-0.03304175
213	0x3d358190	0.044313014
214	0x3d07f182	0.033189304
215	0x3c966bd9	0.018361973
216	0xbc952d7c	-0.018210165
217	0x3d14b9b8	0.036309928
218	0xbde99988	-0.11406237
219	0x3db167d0	0.08662379
220	0xbdcc702c	-0.099823326
221	0xbd84e2a3	-0.0648854
222	0xbd958eab	-0.073026024
223	0x3d370086	0.044678234
224	0x3d985108	0.074373305
225	0x3d224b6b	0.039622705
226	0x3df2e3ba	0.11859842
227	0xbc45f78e	-0.012082947
228	0x3d840bde	0.06447576
229	0x3df94e6d	0.12173162
230	0xbcd69e8d	-0.02619865
231	0x3e024709	0.1272241
232	0xbdac4cdf	-0.084130995
233	0x3e03d715	0.12875016
234	0x3d6cb81e	0.057792775
235	0xbad61171	-0.0016332102
236	0xbd86cb09	-0.06581695
237	0xbdb4cf96	-0.088286564
238	0x3b90c15c	0.0044175815
239	0xbc6be1f1	-0.01439713
240	0x3dee3c91	0.11632646
241	0xbd4b1b59	-0.049586628
242	0x3de4d3be	0.11173199
243	0xbbbf2bd0	-0.0058340803
244	0x3da295e5	0.07938746
245	0x3ac379dd	0.0014913637
246	0x3c08b404	0.0083437
247	0x3d01f92a	0.031731762
248	0x3d3d560f	0.04622465
249	0x3ce83ef4	0.02835033
250	0x3b27ae9d	0.0025586255
251	0xbd8bc966	-0.06825523
252	0xbcc41eed	-0.023940528
253	0xbdb4188e	-0.08793746
254	0x3cfbde1e	0.030745562
255	0x3d1ff539	0.039052222

mlp2.layers.0.bias f4 [32]
0	0xbe11759a	-0.14205018
1	0xbc844a03	-0.016148573
2	0xbdf19307	-0.11795621
3	0xbd58f926	-0.05297198
4	0x3db92aef	0.09041392
5	0x3da3c4b3	0.07996502
6	0xbe03aee5	-0.12859686
7	0xbd5f2730	-0.05448073
8	0xbd643eb0	-0.055723846
9	0x3d2b4454	0.04181321
10	0xbd45985d	-0.048241008
11	0x3df69453	0.12040009
12	0x3d5004a4	0.050785676
13	0xbd97ca85	-0.074116744
14	0x3d5ceba3	0.05393566
15	0xbcafa80b	-0.021442434
16	0x3d66fbfd	0.05639266
17	0xbd8e2cd9	-0.06942148
18	0x3d7b6094	0.0613714
19	0x3cea4572	0.028597567
20	0xbaac4c4c	-0.0013145297
21	0x3bbeae32	0.0058191055
22	0xbd3d5a43	-0.04622866
23	0x3d46147c	0.04835938
24	0x3cfdba58	0.030972645
25	0x3e004ff2	0.12530497
26	0x3cdc488c	0.026890062
27	0xbcff3dc8	-0.03115739
28	0xbdf7f429	-0.12107117
29	0xbdc7b45e	-0.09751199
30	0x3c54710e	0.012966407
31	0x3de114f3	0.10990324

mlp2.layers.2.weight f4 [64, 32]
0	0x3dfa296e	0.12214933
1	0xbdb33558	-0.08750409
2	0xbd03c38b	-0.032168906
3	0x3cc45c7c	0.023969881
4	0x3dcc8557	0.0998637
5	0xbdb86a19	-0.090046115
6	0x3d844035	0.06457559
7	0x3dec5efd	0.11541555
8	0xbd9ec82f	-0.07753026
9	0xbbd810e9	-0.0065938127
10	0x3daaa4c3	0.08332207
11	0x3c26b00f	0.010173812
12	0xbd75363e	-0.059866183
13	0x3e131c47	0.14366256
14	0x3dd7bbde	0.1053388
15	0xbd18ec4a	-0.037334718
16	0xbdbc17e9	-0.09184248
17	0x3dafb9c5	0.085803546
18	0x3d758dfc	0.05994986
19	0x3d8b233a	0.06793828
20	0xbdd0a51b	-0.10187741
21	0xbd961c69	-0.073296376
22	0x3dafa5ce	0.085765466
23	0xbe240deb	-0.16020934
24	0x3de36a8c	0.111043066
25	0xbd858c58	-0.06520909
26	0x3e1792e2	0.14802125
27	0x3cbc3e6c	0.022978984
28	0x3dee6fda	0.11642428
29	0xbd619464	-0.055073157
30	0xbde2e193	-0.11078181
31	0xbe45d8d8	-0.19321
32	0xbe056710	-0.13027596
33	0xbe36fb90	-0.17869401
34	0x3e51f61d	0.20504041
35	0xbac8d2fb	-0.0015321666
36	0x3dbbb181	0.091647156
37	0x3db9c522	0.09070803
38	0xbe36ec4d	-0.17863579
39	0x3da8a7f3	0.08235159
40	0x3d866982	0.06563093
41	0xbdcc0d3c	-0.09963462
42	0xbd0939b0	-0.03350228
43	0xbd4f31d5	-0.050584633
44	0xbc5719e6	-0.013128733
45	0x3dcdd238	0.10049862
46	0x3e0f950d	0.14021702
47	0x3e000773	0.12502842
48	0x3dfe291f	0.12410187
49	0x3e580b23	0.21097998
50	0x3d83b64c	0.06431255
51	0x3dff5b41	0.12468577
52	0x3e369fc4	0.17834383
53	0xbdbb0369	-0.0913151
54	0xbe1186b8	-0.14211547
55	0x3c0bc818	0.008531593
56	0x3e51f4a5	0.2050348
57	0x3e5ae514	0.21376449
58	0xbd96348f	-0.073342435
59	0xbe0360a5	-0.12829836
60	0x3bf63044	0.007513078
61	0xbe39e0f3	-0.18152218
62	0x3e3420e0	0.17590666
63	0x3e0ae764	0.13564831
64	0xbc8dd2f6	-0.017312508
65	0xbe00b6eb	-0.12569778
66	0x3e5cb494	0.2155326
67	0x3d12f0c8	0.03587416
68	0x3de9fafd	0.11424825
69	0x3c9b8b8c	0.01898744
70	0xbd71e992	-0.05906064
71	0xbe026ee8	-0.1273762
72	0x3dc290cf	0.09500276
73	0x3b2ce0ca	0.0026379102
74	0x3e39d3a9	0.18147148
75	0xbd787761	-0.060660724
76	0x3c0aa3d0	0.0084619075
77	0x3bc9e7ad	0.006161651
78	0x3e1e338a	0.15449348
79	0x3cbc2d07	0.02297069
80	0xbda6d5a6	-0.08146219
81	0x3ca11385	0.019662628
82	0xbe2e95e7	-0.1704937
83	0x3e1b24b0	0.15150714
84	0x3e5c0027	0.21484433
85	0x3e0bf4aa	0.1366755
86	0xbe21aa15	-0.15787537
87	0x3e0a698f	0.1351683
88	0x3d8ba4b0	0.06818521
89	0x3dd18bf5	0.10231773
90	0x3b929ea6	0.004474479
91	0xbe32f6dc	-0.17476982
92	0x3dcc3207	0.099704795
93	0x3d4b77f1	0.049674932
94	0xbd879d49	-0.06621797
95	0xbd9684d5	-0.073495544
96	0x3d8c0346	0.06836562
97	0x3c6521bb	0.013985093
98	0xbd32cba5	-0.04365124
99	0xbe0dac25	-0.13835199
100	0xbe4e976b	-0.20174949
101	0xbdd772fe	-0.1051998
102	0x3dcda216	0.10040681
103	0xbdf5728b	-0.11984738
104	0xbe7ff116	-0.2499431
105	0x3df1d5b7	0.11808341
106	0xbd817dde	-0.063228354
107	0xbe443b0b	-0.19163148
108	0xbe3949fc	-0.18094629
109	0xbe2e4a24	-0.1702047
110	0x3da89840	0.082321644
111	0x3c3eb159	0.011638963
112	0x3d728e88	0.05921796
113	0xbc47f5f3	-0.012204635
114	0xbd274471	-0.040836755
115	0x3d864594	0.0655624
116	0x3c1499aa	0.0090698395
117	0xbdf91fb7	-0.12164252
118	0x3cc7c41e	0.024385508
119	0x3e686d6f	0.22697996
120	0x3e243f12	0.16039684
121	0xbdcf4aa4	-0.101216584
122	0xbda3164e	-0.07963239
123	0x3a84bc5c	0.0010126936
124	0x3d44d254	0.048052147
125	0xbdc27de8	-0.09496671
126	0xbdcee07d	-0.101014115
127	0xbcb8efaa	-0.022575218
128	0xbe49fb62	-0.19724801
129	0x3d8d92ad	0.06912742
130	0xbd13c253	-0.036073994
131	0x3d52df75	0.051482636
132	0xbe56c2f5	-0.20972808
133	0xbdb68757	-0.08912533
134	0xbd88c1d7	-0.06677597
135	0x3d95ac48	0.07308251
136	0x3be53d9e	0.0069958707
137	0x3b026ce6	0.0019901334
138	0xbe2ba4ff	-0.1676216
139	0x3d8b4064	0.06799391
140	0x3caaf8a7	0.02087052
141	0xbe153d8e	-0.14574262
142	0xbd932b54	-0.071859986
143	0x3dade648	0.08491188
144	0xbdb48d4d	-0.088160135
145	0xbe217cd4	-0.15770274
146	0xbe3b3057	-0.18280159
147	0xbe7d134b	-0.24714391
148	0xbd3cd492	-0.04610116
149	0xbddb365f	-0.1070373
150	0xbe08585e	-0.1331496
151	0xbceed65a	-0.029154945
152	0xbe222c86	-0.15837297
153	0xbe2bf7fa	-0.16793814
154	0x3e100508	0.1406442
155	0xbd514710	-0.05109316
156	0xbe029f5a	-0.127561
157	0x3ccf3a18	0.025296256
158	0x3dac4399	0.08411331
159	0x3b4e0354	0.003143509
160	0xbd9fa718	-0.077955425
161	0xbe045b86	-0.12925538
162	0x3c80e3a4	0.015733548
163	0x3e5a7c12	0.21336392
164	0x3dde791f	0.10862946
165	0x3dbbf3a0	0.09177327
166	0x3dbadd0e	0.09124194
167	0xbd9c8836	-0.07643168
168	0x3c8eff9b	0.017455867
169	0x3dff8e78	0.12478346
170	0x3d932255	0.07184283
171	0xbe305f77	-0.17223917
172	0xbd73f90e	-0.05956369
173	0xbe02a8dd	-0.12759729
174	0xbc049c10	-0.008093849
175	0x3e234fa9	0.15948357
176	0x3de16095	0.1100475
177	0x3e08db16	0.13364825
178	0xbd8e9171	-0.069613345
179	0xbdfbb2fd	-0.12289999
180	0x3dd4f65f	0.10398554
181	0x3ddf3b21	0.1089995
182	0xbe0c80bb	-0.13720982
183	0xbd7cf98c	-0.061761424
184	0x3e1196c6	0.14217672
185	0xbd8f083b	-0.06983992
186	0xbd1ef24a	-0.038805284
187	0x3dc5508c	0.09634504
188	0xbde128d9	-0.10994119
189	0xbd90b48f	-0.07065689
190	0xbe145602	-0.14485934
191	0xbd57fa24	-0.052728787
192	0x3dcc47e7	0.09974652
193	0xbe85a0e8	-0.26099324
194	0xbdd893ef	-0.10575091
195	0xbdf2789f	-0.11839413
196	0x3cff4cd0	0.031164557
197	0x3e013933	0.12619476
198	0x3dc8e602	0.098094955
199	0xbdd7aa88	-0.10530573
200	0xbe3fcc95	-0.18730386
201	0xbe204f1c	-0.15655178
202	0x3c5f97f2	0.013647066
203	0xbcf7bb8f	-0.030240802
204	0x3e7b4b21	0.24540378
205	0xbe179396	-0.14802393
206	0x3e1ddf83	0.15417294
207	0xbe0643e6	-0.13111839
208	0xbe256546	-0.16151914
209	0xbdb8c1f8	-0.090213716
210	0xbd879375	-0.06619922
211	0x3d94e188	0.07269579
212	0x3e7adab5	0.24497493
213	0x3dc925a3	0.09821632
214	0x3e383a2f	0.17990945
215	0x3e9868b7	0.2976739
216	0x3df6b274	0.12045756
217	0x3e5fdee8	0.21862376
218	0xbe40eeee	-0.18841144
219	0xbe1944bb	-0.14967625
220	0x3d31ab8c	0.04337649
221	0x3d129dc5	0.035794992
222	0x3e6308a1	0.2217126
223	0xbc3a1692	-0.01135792
224	0x3e533caa	0.2062861
225	0xbd6fccc2	-0.05854488
226	0x3c449706	0.011998897
227	0x3d0a256c	0.033727095
228	0xbe03a361	-0.12855293
229	0xbd3a4cdc	-0.045483455
230	0x3e4f7757	0.20260368
231	0xbcb2f8a2	-0.021847073
232	0x3d5f4cc6	0.054516576
233	0x3d36dbff	0.0446434
234	0xbda77780	-0.0817709
235	0x3db53eb6	0.08849852
236	0xbd8d46d7	-0.06898277
237	0x3d10cff7	0.03535458
238	0x3cba5912	0.02274755
239	0xbe3afdc6	-0.1826087
240	0x3d83a662	0.064282194
241	0x3d782ee7	0.060591605
242	0xbe49b280	-0.19696999
243	0x3de3e613	0.111278675
244	0x3d57d82f	0.052696403
245	0x3bc1f372	0.0059189135
246	0x3e09de7a	0.13463774
247	0x3c081d98	0.008307837
248	0xbea2e910	-0.31818438
249	0xbd975ca2	-0.07390715
250	0x3e81424a	0.25245887
251	0x3dc999af	0.09843766
252	0x3de5f6b8	0.112286985
253	0xbe54a22e	-0.20764992
254	0x3cf67248	0.03008379
255	0xbe501bdb	-0.20323126

mlp2.layers.2.bias f4 [64]
0	0x3d98670d	0.074415304
1	0xbd7bf7d5	-0.061515648
2	0xbe2128fa	-0.15738288
3	0xbdd4bf77	-0.103880815
4	0xbe2ee659	-0.17080058
5	0xbc327dab	-0.010894219
6	0x3c108da3	0.008822831
7	0xbe58a6f0	-0.21157432
8	0xbe191d0c	-0.14952487
9	0xbe4241d7	-0.18970428
10	0x3e2b5d15	0.16734727
11	0xbe764b65	-0.24052198
12	0x3e07ccde	0.13261744
13	0xbe1f847d	-0.15577884
14	0xbe0b0865	-0.13577421
15	0xbd1af7ba	-0.037833907
16	0x3e528666	0.20559081
17	0xbd1b2c88	-0.037884265
18	0xbc8de355	-0.017320314
19	0xbcb71bd2	-0.022352133
20	0xbda50a8b	-0.080586515
21	0xbe4d4bdc	-0.2004847
22	0xbd8a0eb1	-0.067410834
23	0xbd212617	-0.039342966
24	0x3d6ad01f	0.057327386
25	0x3d0522d1	0.032503907
26	0xbe019d26	-0.12657604
27	0x3e592d7d	0.21208759
28	0xbdd21799	-0.10258407
29	0xbe7cce1d	-0.24688001
30	0xbe5f069c	-0.21779865
31	0xbda8f7bd	-0.08250377
32	0xbd6cb657	-0.05779108
33	0xbc092a9a	-0.008371973
34	0xbe0a9255	-0.13532384
35	0x3e019163	0.12653117
36	0x3ddd0a23	0.10792949
37	0x3de95371	0.11392868
38	0x3e057418	0.13032568
39	0xbe077b52	-0.13230637
40	0x3dc7d63f	0.09757661
41	0x3e631aad	0.22178145
42	0x3cd96442	0.026537064
43	0xbd2c6c54	-0.042095497
44	0x3e13bf3a	0.14428416
45	0x3b045963	0.002019488
46	0x3d8c25b4	0.06843129
47	0xbc5e0ffe	-0.0135536175
48	0x3dc30560	0.095225096
49	0x3d2c0e14	0.042005613
50	0x3e0f9c7a	0.14024535
51	0xbe15df9f	-0.14636086
52	0x3e1cd456	0.15315375
53	0x3e334202	0.17505649
54	0xbe223f6f	-0.1584451
55	0xbdd45385	-0.103674926
56	0x3db5627e	0.088566765
57	0xbd64658f	-0.055760916
58	0x3e464210	0.19361138
59	0x3dd51f09	0.1040631
60	0xbc255c1d	-0.010092762
61	0x3d55607a	0.05209396
62	0x3db98f76	0.09060566
63	0xbe4854f8	-0.19563663

mlp2.layers.4.weight f4 [32, 64]
0	0x3da6fe00	0.081539154
1	0xbdb545d1	-0.08851207
2	0xbdeceb36	-0.115683004
3	0x3d0f15e6	0.034932993
4	0x3d85afc9	0.06527669
5	0x3d08305d	0.033249248
6	0xbde3fec5	-0.11132578
7	0xbc7a3a3a	-0.015272671
8	0xbd4bc629	-0.049749527
9	0xbca45279	-0.020058857
10	0xbe0e0574	-0.13869268
11	0xbd3e2af8	-0.046427697
12	0xbcd6c6bc	-0.02621781
13	0xbd0b1e52	-0.033964463
14	0xbd889214	-0.06668487
15	0xbdb7ca70	-0.08974159
16	0x3da4f11d	0.08053801
17	0xbb460eba	-0.003022118
18	0x3e03d309	0.12873472
19	0x3e018b4e	0.12650797
20	0xbdb216e9	-0.08695776
21	0x3c509fd1	0.012733416
22	0x3dc20143	0.09472897
23	0x3ca711ec	0.020394288
24	0x3cc9caee	0.024632897
25	0xbe1045df	-0.14089154
26	0x3dc65bde	0.09685491
27	0x3df6bd8d	0.12047873
28	0x3d3756d0	0.044760525
29	0xbc96f82d	-0.018428886
30	0xbd6164de	-0.055027835
31	0x3e31d2b5	0.17365535
32	0xbda0ba50	-0.07848036
33	0x3dff0032	0.12451209
34	0x3df323fd	0.118720986
35	0x3ccc3d31	0.024931522
36	0xbe504f82	-0.2034283
37	0xbd2ba451	-0.04190475
38	0x3cc2c7f8	0.023776993
39	0x3d5ac1f9	0.053407643
40	0x3deaa9f9	0.11458201
41	0x3de757a3	0.11296012
42	0xbd8bbfe9	-0.06823713
43	0xbd845e92	-0.0646335
44	0x3a0b4a08	0.0005313461
45	0xbe283e9b	-0.16430132
46	0x3b808805	0.003922465
47	0x3cd79f5b	0.026321104
48	0x3cb28861	0.021793546
49	0x3de43c7e	0.111443505
50	0x3e39b3c5	0.18134983
51	0x3dcf2fc1	0.1011653
52	0x3dac2854	0.084061295
53	0x3db84f62	0.08999516
54	0xbd862f4c	-0.0655199
55	0x3e065239	0.13117303
56	0x3d1f2f86	0.03886368
57	0x3d9374c2	0.07200004
58	0xbd5c3288	-0.053759128
59	0x3ddcf968	0.10789758
60	0x3ce5c838	0.028049573
61	0x3db4f458	0.08835667
62	0x3c8eb428	0.01741989
63	0xbd583ce1	-0.052792434
64	0x3dcdeab6	0.10054533
65	0xbc2b6002	-0.010459902
66	0xbdaf0113	-0.08545127
67	0xbdf69318	-0.12039775
68	0xbde8ee41	-0.11373568
69	0xbe00dc0c	-0.12583941
70	0xbd6d1ce7	-0.05788889
71	0xbd05fb0b	-0.032710116
72	0x3dcf6b2c	0.10127863
73	0xbca5b4f3	-0.020227885
74	0x3da585cf	0.080821626
75	0x3d739340	0.0594666
76	0x3d8a2192	0.06744684
77	0x3d727d00	0.05920124
78	0xbce52d7b	-0.027975788
79	0xbdf3db20	-0.11907029
80	0xbe1b720c	-0.15180224
81	0x3c0f13c5	0.008732741
82	0xbc909d8f	-0.017653255
83	0x3d4cf587	0.05003884
84	0x3dac7ec1	0.08422614
85	0xbcc5efad	-0.024162138
86	0xbada55ae	-0.0016657615
87	0xbcad08cc	-0.021122359
88	0xbdab2807	-0.08357244
89	0xbd9c0605	-0.07618336
90	0xbd9665e0	-0.0734365
91	0x3d2b2e60	0.041792274
92	0xbe0941e7	-0.13404046
93	0xbdae9529	-0.08524544
94	0xbd416ede	-0.04722487
95	0x3d196574	0.03745027
96	0x3deab6b6	0.114606306
97	0x3d990264	0.07471159
98	0xbb34aab7	-0.0027567574
99	0x3d863979	0.06553931
100	0x3caa6302	0.020799164
101	0x3d3d8302	0.046267517
102	0xbd69edf7	-0.057111707
103	0x3db63274	0.08896342
104	0xbd7e80b2	-0.062134452
105	0xba3250d7	-0.0006802207
106	0x3b19b6bb	0.0023454863
107	0xbd654483	-0.05597354
108	0x3dcde9dc	0.10054371
109	0xbda26c9d	-0.079308726
110	0x3d5fbb0f	0.054621752
111	0xbd2edde6	-0.042692088
112	0xbaee61fe	-0.0018187163
113	0x3de61a11	0.112354405
114	0x3917e1a8	0.00014484546
115	0x3db48464	0.08814314
116	0xbd9d203f	-0.07672166
117	0x3ccd2d23	0.025045937
118	0xbe09f62d	-0.13472815
119	0x3c99c3eb	0.018770179
120	0x3d652202	0.055940636
121	0xbc0e36bd	-0.008680043
122	0x3d088543	0.033330213
123	0x3d84ce0b	0.06484612
124	0xbd8ace7c	-0.06777665
125	0xbdcaa474	-0.09894648
126	0xbd2879ba	-0.041131712
127	0x3cd37cde	0.025816377
128	0xbd5ebee8	-0.05438128
129	0xbe22d150	-0.15900159
130	0xbd1753eb	-0.036945265
131	0xbe12a2c1	-0.14319898
132	0xbcb2a8d9	-0.021809028
133	0x3c89fce9	0.01684423
134	0xbdae83e7	-0.08521252
135	0x3d634066	0.055481337
136	0x3d2fd660	0.042929053
137	0xbcbce012	-0.023056064
138	0xbdfb47e2	-0.1226957
139	0x3d6ba3ae	0.057529144
140	0x3d8b30f5	0.06796447
141	0xbdb85313	-0.0900022
142	0xbd791637	-0.0608122
143	0x3db8cb07	0.090230994
144	0x3e2eeaa6	0.17081699
145	0x3e133eca	0.14379421
146	0x3e1f1a9e	0.15537497
147	0xbc9e8cf6	-0.019354325
148	0x3dd1b257	0.10239094
149	0xbdc86620	-0.09785104
150	0xbce1d237	-0.027566059
151	0x3e17357f	0.14766501
152	0x3d25cba0	0.040477395
153	0x3ce6eea3	0.028189963
154	0xbcf6b670	-0.03011629
155	0xbe0acc76	-0.13554558
156	0xbd80baa4	-0.06285599
157	0x3d46c220	0.048524976
158	0x3e2b9d94	0.1675933
159	0xbb2c6ebe	-0.0026311125
160	0x3dc48528	0.0959571
161	0xbcdceb31	-0.026967617
162	0x3d8ba7a4	0.06819084
163	0x3b6c897a	0.0036092685
164	0xbe4226f6	-0.18960175
165	0xbc76268d	-0.01502384
166	0x3e31dcd0	0.1736939
167	0x3dcca38e	0.09992133
168	0x3cb6a356	0.022294682
169	0x3dc1fc23	0.094719194
170	0xbcc21511	-0.023691686
171	0x3d1ff87f	0.039055344
172	0x3e6c6503	0.23085408
173	0xbe17c846	-0.14822492
174	0x3dc6d1b8	0.097079694
175	0x3d62f97e	0.055413716
176	0xbd90e700	-0.0707531
177	0x3e080977	0.1328486
178	0x3d8becd7	0.06832283
179	0xbd846563	-0.064646505
180	0x3dd24a74	0.10268107
181	0x3d9c71fe	0.0763893
182	0x3e00a123	0.12561469
183	0x3dc065f3	0.09394445
184	0x3c65954f	0.014012649
185	0xbdaf6e47	-0.085659556
186	0xbd2bd338	-0.04194948
187	0xbdb0ce5e	-0.086331114
188	0x3d439325	0.04774775
189	0x3d8c2cfc	0.068445176
190	0x3dd5d2e3	0.10440614
191	0x3c5a3073	0.013317215
192	0xbd138a9b	-0.036020856
193	0x3c19918c	0.00937308
194	0xbd99b12f	-0.07504498
195	0xbddc44a4	-0.1075528
196	0xbb0b49e5	-0.0021253761
197	0xbe0c07ea	-0.13674894
198	0xbde03a9b	-0.10948678
199	0xbd0ccb21	-0.034373406
200	0xbda43e6b	-0.08019718
201	0xbcdaf998	-0.026730344
202	0x39c653be	0.00037827896
203	0x3ce5ec24	0.028066702
204	0x3e3ba989	0.18326391
205	0xbbcd6df6	-0.006269212
206	0x3d8d0bc5	0.068870105
207	0xbd634304	-0.055483833
208	0xb9d1998b	-0.00039977985
209	0xbd082c9e	-0.033245675
210	0x3c40c583	0.01176584
211	0xbdbb93a5	-0.0915902
212	0xbd05002b	-0.032470863
213	0xbe4fb7cb	-0.20284955
214	0x3b582773	0.0032982498
215	0xbd9ef8da	-0.077623084
216	0x3d05affa	0.032638527
217	0xbdeb59fc	-0.114917725
218	0x3db3a9df	0.08772635
219	0x3d1fc030	0.039001644
220	0xbda1621d	-0.07880042
221	0x3cfa7c5b	0.030576875
222	0x3de78708	0.11305052
223	0xbc707a9c	-0.01467767
224	0x3de1bdb2	0.1102251
225	0x3cdb5f46	0.026778828
226	0xbd244bc7	-0.04011133
227	0x3b00f83c	0.001967921
228	0x3d5f0fcf	0.054458436
229	0xbdb132d5	-0.086522736
230	0x3b8fd0e1	0.004388914
231	0xbe160dd1	-0.14653708
232	0xbd46c1cb	-0.04852466
233	0x3db8e61f	0.09028267
234	0x3dcc0e99	0.09963722
235	0xbd07cbb7	-0.033153262
236	0x3c92d302	0.017922882
237	0x3deec61d	0.11658881
238	0x3e24aa2f	0.16080545
239	0x3cbb3cb3	0.022856092
240	0xbcbc26f8	-0.0229678
241	0x3dbe27e2	0.09284951
242	0xbd77dd3d	-0.060513724
243	0xbd49c002	-0.04925538
244	0x3e2b22f0	0.16712546
245	0x3c00c73a	0.007859999
246	0x3b40648b	0.0029356803
247	0x3dfec504	0.124399215
248	0xbcc2f366	-0.023797702
249	0x3c814b3c	0.015782945
250	0x3b8c17d4	0.0042753015
251	0x3dbdbdef	0.092647426
252	0x3dbef549	0.09324128
253	0xbd67623c	-0.056490168
254	0xbdc880f9	-0.097902246
255	0xbe09d6cc	-0.13460845

mlp2.layers.4.bias f4 [32]
0	0x3dd2d58d	0.10294638
1	0x3d6c2cd0	0.057659924
2	0x3e123dd5	0.142814
3	0xbc511b0f	-0.012762799
4	0xbdb595f0	-0.08866489
5	0x3c33ebdf	0.010981529
6	0xbdf7c40f	-0.12097942
7	0xbc66a107	-0.014076478
8	0x3d8b6ddc	0.068080634
9	0x3bd68149	0.0065461737
10	0xbd612b92	-0.054973193
11	0xbd9d0373	-0.076666735
12	0xbccb4f8a	-0.0248182
13	0xbd634ec5	-0.055495042
14	0x3e7b1365	0.24519117
15	0x3dda4df6	0.10659401
16	0xbd7d56c3	-0.06185032
17	0xbbc92066	-0.0061378954
18	0xbcfa1ecd	-0.030532265
19	0x3dae8c8e	0.085229024
20	0xbcd033b3	-0.025415277
21	0xbddab41b	-0.10678884
22	0xbd9d425e	-0.07678674
23	0x3e00803e	0.1254892
24	0x3e2ab98b	0.16672342
25	0x3de74d15	0.11293999
26	0x3e0dda6b	0.13852851
27	0x3ca4f99e	0.020138558
28	0xbe083125	-0.13299997
29	0xbe035a97	-0.12827526
30	0x3df6c6b2	0.12049617
31	0x3d851897	0.06498831

mlp2.layers.6.weight f4 [2, 32]
0	0xbddc06a1	-0.10743452
1	0xbe19847b	-0.14991944
2	0x3c9b6e0f	0.018973378
3	0xbc2091a8	-0.009800352
4	0xbd7ff423	-0.062488686
5	0xbdbd6e76	-0.092495844
6	0x3e083726	0.13302287
7	0x3e36479b	0.17800753
8	0x3d769746	0.06020286
9	0xbdee82e9	-0.11646063
10	0xbdeb4d0b	-0.11489304
11	0xbc1deed7	-0.009639463
12	0x3c93377a	0.01797079
13	0xbd451854	-0.048118904
14	0x3e95d688	0.29265237
15	0xbd8988f0	-0.06715572
16	0xbde300cf	-0.110841386
17	0x3d37ab55	0.04484113
18	0x3dbfa031	0.09356726
19	0x3bc722cf	0.0060771476
20	0xbe63dd35	-0.22252353
21	0x3d48c82f	0.049019035
22	0xbc43f3fd	-0.011960027
23	0x3c9c1ae9	0.0190558
24	0xbe24e4cc	-0.16102904
25	0xbd381c16	-0.04494866
26	0x3dda4e2e	0.10659443
27	0xbe1e410c	-0.15454501
28	0x3cb4c04b	0.022064349
29	0x3d90e0a3	0.07074096
30	0x3cd78f96	0.026313584
31	0x3e0f4a54	0.13993198
32	0x3df5e8bb	0.120072804
33	0xbe160ae2	-0.14652589
34	0x3e49e9b4	0.19718057
35	0x3e04897f	0.12943076
36	0xbcb7d8cd	-0.022442246
37	0x3d8a96c7	0.0676704
38	0x3de97361	0.1139896
39	0xbcdd95a7	-0.027048899
40	0xbdb61ed2	-0.08892597
41	0x3e453c5b	0.19261305
42	0x3dd90a09	0.10597617
43	0x3d648396	0.055789553
44	0xbd13d044	-0.03608729
45	0xbe25ca3b	-0.16190426
46	0xbd60752b	-0.05479924
47	0x3dfac642	0.12244846
48	0xbd28ff97	-0.041259374
49	0xbdbabf33	-0.091184996
50	0xbde697ac	-0.11259398
51	0x3d8903c7	0.066901736
52	0x3dc449a6	0.0958436
53	0x3e2d6c09	0.16935743
54	0x3de276a2	0.11057784
55	0x3e2538e9	0.16134991
56	0x3dcab6db	0.09898158
57	0x3db4fb74	0.088370234
58	0xbe4b3c7c	-0.19847292
59	0xbdf876e4	-0.121320516
60	0xbdd36997	-0.10322874
61	0xbcacd8b6	-0.02109943
62	0x3deb8637	0.11500209
63	0xbd0b4b8b	-0.03400759

mlp2.layers.6.bias f4 [2]
0	0x3c7a18a4	0.015264664
1	0xbe10c441	-0.14137365
