weights/weights_oracle.pt (torch, 52461 bytes, 14 tensors)

mlp1.layers.0.weight f4 [32, 20]
-0.26170215 -0.1214558 -0.117160484 0.23482783 0.014434279 -0.23074374 -0.18000479 0.27116078
-0.06502192 0.29914835 -0.20052356 0.1658314 0.0093962075 0.18547842 -0.124034405 -0.17639026
0.27973187 0.15180169 0.0678665 -0.16688718 -0.22442222 -0.07217817 0.15270245 0.096332274
0.13133423 0.2499551 -0.024669046 -0.14849283 0.17320572 0.05889658 0.23425049 -0.04386176
0.35584125 0.20815675 -0.21381009 0.15153198 -0.059306305 0.24913493 -0.24805878 0.04832011
0.04482561 -0.17357878 -0.046118602 0.035207126 -0.3510416 0.07232286 0.073270194 0.031626932
0.07752998 0.23334327 -0.12150374 0.068111256 -0.13074228 -0.016982347 0.074157216 0.20311113
0.14032154 -0.27919966 -0.18316434 0.03897556 0.16294509 0.020562377 -0.39897013 0.19528341
0.033996977 -0.22702858 0.10870852 -0.14759511 0.1225441 -0.13227782 0.12875359 0.2224702
0.14935127 0.1527389 0.12676547 -0.16550636 0.02385378 0.029642563 -0.16562295 0.063354984
0.28869352 0.002693719 -0.18972638 -0.06556104 0.22119889 0.09093675 -0.093387984 0.16751856
-0.09523479 0.03466095 0.15484533 -0.17188187 0.11987332 -0.018659754 -0.066569775 -0.14415921
0.19523513 -0.06256654 0.15701218 -0.04713716 -0.0776804 0.30216548 -0.20866174 0.1424133
-0.031321637 0.06317791 0.2302292 -0.04076019 -0.13498864 0.03527562 -0.12025992 0.31196135
0.24644676 -0.14769341 0.15698719 -0.15246494 -0.081848726 -0.17223996 -0.06640648 0.048585642
0.21695805 -0.13074678 0.08511517 -0.05080533 -0.2751412 -0.087096944 0.23692171 -0.044407807
0.0056638084 -0.3206553 0.22380883 0.053955533 -0.10616612 -0.10209105 -0.03644371 0.1005431
0.042109285 -0.12243673 0.2961919 0.16235036 0.107244946 -0.020803833 -0.33413267 -0.05767462
0.1489286 -0.13060136 -0.099606365 -0.18418479 -0.14865926 0.049362704 -0.11137224 0.33354977
-0.16793141 0.24264827 -0.08633476 0.28868112 -0.14690001 -0.103083484 0.038869493 0.076913185
-0.14197595 -0.083077155 0.17263651 -0.12469144 0.025844967 0.16141947 -0.21886271 0.21560763
0.031733595 0.19137618 0.018590264 -0.06858135 -0.030707065 0.004697886 0.4097749 0.16289033
0.08005599 0.25392687 0.29776716 -0.05097331 0.088309795 -0.10746503 0.18983525 -0.25716335
-0.09870472 0.08265462 -0.38842696 -0.07374333 -0.08332445 -0.062148046 -0.26085618 -0.06580073
0.06413331 -0.02442959 0.105776235 -0.1652965 0.18508348 -0.16421713 -0.35634017 -0.022152472
0.21010005 -0.10414826 -0.036870778 -0.22637762 0.064409025 -0.20052928 0.08108308 -0.11705503
0.14777295 -0.08260556 0.112462886 -0.15253502 -0.16382115 0.11206348 -0.16288604 0.03776743
-0.014317941 -0.12865499 0.011659807 -0.08055245 0.0681289 0.35432297 0.19528294 -0.12862441
-0.09554071 0.1717851 -0.087207586 -0.011673476 -0.11665533 -0.03276503 -0.34053287 -0.052399848
-0.01601692 -0.24159977 0.050532103 -0.085091636 -0.08297241 0.16404903 -0.0076888786 0.20562018
0.066625744 0.048805315 0.22444578 -0.099105544 0.12762558 0.33727932 0.15315796 -1.0013784e-05
0.17808355 0.19212288 0.1192083 -0.2757606 0.13399325 -0.1730137 -0.04383224 -0.06953379
00000000: d3fd 85be d2bd f8bd d6f1 efbd b576 703e
00000010: c17d 6c3c 1648 6cbe 2d53 38be 96d5 8a3e
00000020: 362a 85bd f929 993e 0c56 4dbe b5cf 293e
00000030: 8df2 193c 0eee 3d3e c005 febd a69f 34be
00000040: 0439 8f3e e771 1b3e 97fd 8a3d 79e4 2abe
00000050: f0ce 65be 26d2 93bd 085e 1c3e db49 c53d
00000060: 7b7c 063e 3bf4 7f3e bd16 cabc 810e 18be
00000070: d75c 313e 8a3d 713d 5cdf 6f3e 64a8 33bd
00000080: d330 b63e 0b27 553e 08f1 5abe 332b 1b3e
00000090: 2beb 72bd 3a1d 7f3e 1f03 7ebe 4feb 453d
000000a0: 0f9b 373d a3be 31be dce6 3cbd 5935 103d
000000b0: b9bb b3be 021e 943d af0e 963d 3e8b 013d
000000c0: 0ac8 9e3d 8af1 6e3e f4d6 f8bd ea7d 8b3d
000000d0: 4ee1 05be 901e 8bbc bddf 973d 5dfc 4f3e
000000e0: 73b0 0f3e 42f3 8ebe 6f8f 3bbe d6a4 1f3d
000000f0: 14db 263e 6e72 a83c d045 ccbe 60f8 473e
00000100: 6a40 0b3d 2e7a 68be 93a2 de3d 2c23 17be
00000110: 67f8 fa3d d673 07be fbd7 033e 3acf 633e
00000120: 8aef 183e 9667 1c3e cfce 013e 807a 29be
00000130: 0169 c33c f6d4 f23c 1099 29be 42c0 813d
00000140: a3cf 933e 1b89 303b a247 42be de44 86bd
00000150: f681 623e 0c3d ba3d 3342 bfbd fc89 2b3e
00000160: 750a c3bd a4f8 0d3d c68f 1e3e cd01 30be
00000170: 2580 f53d 57dc 98bc bc55 88bd 799e 13be
00000180: b8eb 473e e322 80bd cdc7 203e e512 41bd
00000190: e716 9fbd 6fb5 9a3e 6cab 55be cbd4 113e
000001a0: 1e4b 00bd 6c63 813d 34c1 6b3e 28f4 26bd
000001b0: 763a 0abe 2b7d 103d d54a f6bd 66b9 9f3e
000001c0: 8a5c 7c3e f13c 17be 40c1 203e c51f 1cbe
000001d0: 4ea0 a7bd ac5f 30be 1f00 88bd bd01 473d
000001e0: 402a 5e3e 7ce2 05be dd50 ae3d 4019 50bd
000001f0: 4fdf 8cbe e25f b2bd 9b9b 723e f6e4 35bd
00000200: 7897 b93b ee2c a4be 242e 653e 7a00 5d3d
00000210: 9f6d d9bd 1d15 d1bd 0046 15bd 8ae9 cd3d
00000220: c97a 2c3d 1cc0 fabd 77a6 973e 2c3f 263e
00000230: 3da3 db3d cd6c aabc 7013 abbe 393c 6cbd
00000240: bd80 183e 5dbc 05be 6cfe cbbd f09a 3cbe
00000250: 223a 18be 8c30 4a3d 2117 e4bd 09c7 aa3e
00000260: 36f6 2bbe ca78 783e 47d0 b0bd 03ce 933e
00000270: f56c 16be 6f1d d3bd 9e35 1f3d a984 9d3d
00000280: 2562 11be 5b24 aabd a0c7 303e 3a5e ffbd
00000290: d3b8 d33c 254b 253e 8c1d 60be 3fc8 5c3e
000002a0: 16fb 013d 1ef8 433e 9c4a 983c 6174 8cbd
000002b0: 628d fbbc b9f0 993b 04ce d13e b9cc 263e
000002c0: 65f4 a33d b402 823e f074 983e 64c9 50bd
000002d0: c4db b43d a016 dcbd 2c64 423e eaaa 83be
000002e0: b325 cabd d346 a93d e6df c6be be06 97bd
000002f0: 02a6 aabd f38e 7ebd f18e 85be 88c2 86bd
00000300: 5358 833d 9020 c8bc 36a1 d83d 7c43 29be
00000310: 8686 3d3e 8928 28be 3872 b6be 1a79 b5bc
00000320: 7824 573e af4b d5bd d005 17bd 89cf 67be
00000330: e1e8 833d 8c57 4dbe e30e a63d 8cba efbd
00000340: cb51 173e 1b2d a9bd f152 e63d 2432 1cbe
00000350: bbc0 27be 8a81 e53d 99cb 26be 05b2 1a3d
00000360: cc95 6abc 22be 03be c608 3f3c aff8 a4bd
00000370: 2a87 8b3d d269 b53e 40f8 473e 1eb6 03be
00000380: d9aa c3bd 6fe8 2f3e e499 b2bd 1b42 3fbc
00000390: fde8 eebd a034 06bd 535a aebe 39a1 56bd
000003a0: ea35 83bc ee65 77be c0fa 4e3d 8644 aebd
000003b0: 70ed a9bd 78fc 273e fdf2 fbbb 198e 523e
000003c0: 1473 883d 15e8 473d 1dd5 653e d9f7 cabd
000003d0: 48b0 023e e0af ac3e 71d5 1c3e e000 28b7
000003e0: 895b 363e dcbb 443e 7b23 f43d 7e30 8dbe
000003f0: 8735 093e 812a 31be 6f89 33bd bb67 8ebd

mlp1.layers.0.bias f4 [32]
0.2946703 0.11005392 0.02801125 0.1471248 0.3555497 0.045671504 0.20833503 0.326924
0.2915504 -0.070850424 0.045832377 0.17158774 -0.084732875 -0.11131464 -0.08568573 0.07674311
-0.058958497 0.059029926 0.08668916 -0.122457445 -0.017259529 0.036506165 0.08214766 0.1679753
0.21648201 -0.0026548028 0.31160805 -0.08822239 0.15105875 0.03036166 0.007810515 0.0034857765
00000000: 07df 963e f363 e13d d977 e53c e2a7 163e
00000010: 9c0a b63e 0b12 3b3d c755 553e 9562 a73e
00000020: 1846 953e 071a 91bd bbba 3b3d b2b4 2f3e
00000030: 6e88 adbd eef8 e3bd 007c afbd 7e2b 9d3d
00000040: 777e 71bd 5dc9 713d 168a b13d f8ca fabd
00000050: db63 8dbc 7d87 153d 083d a83d b801 2c3e
00000060: 76ad 5d3e 33fc 2dbb 178b 9f3e f1ad b4bd
00000070: 25af 1a3e 04b9 f83c 59ef ff3b a071 643b

mlp1.layers.2.weight f4 [64, 32]
-0.11781721 0.043808904 0.22563499 0.18508023 -0.2044555 0.13140272 -0.05277713 0.073193155
-0.10559976 -0.06298498 0.08964814 -0.08010954 -0.0001695184 0.0998462 -0.103569634 -0.03205347
0.21456227 0.064088725 0.030315999 -0.2857644 0.032791663 0.13658127 -0.086370945 0.14369906
0.09809091 -0.016094498 0.089985505 0.013751483 0.013662232 -0.2008341 0.10847077 -0.12017935
0.17703098 0.15904312 -0.2243968 0.29018372 -0.26895493 -0.092732996 0.022836978 0.28550622
-0.047369484 -0.19281328 0.11668533 -0.017940102 0.05818512 -0.1785337 0.014062991 0.1261278
0.123569384 -0.07932435 -0.027223047 -0.17219143 -0.08078384 0.08130116 0.012970848 0.18035224
-0.20413959 0.14554365 0.08191787 -0.13064618 -0.2361988 0.18979149 0.14621602 -0.10538607
0.31434318 -0.044381015 -0.036658797 0.072084345 -0.05220315 -0.12904064 -0.075739175 0.24203625
-0.1395634 -0.124037795 0.01630325 0.115749255 0.045853224 0.21697134 -0.19866288 -0.15892024
0.20316087 0.0036906884 -0.13162127 -0.066616975 -0.07558536 0.056366295 0.26845765 0.09860523
-0.02376559 0.19311026 0.20946202 -0.09159899 -0.11248205 0.0839656 -0.058599986 -0.16708218
0.15433094 -0.23928884 0.037994146 0.12712772 0.040199414 0.17191035 -0.098753564 0.014394645
-0.07610044 0.19159648 0.056291003 -0.049493253 -0.13522696 -0.011493038 -0.29449075 -0.009210729
0.22233157 0.118182644 -0.0446839 -0.1000387 0.1777228 -0.035296977 0.13403766 0.14905436
0.2567182 -0.16080762 -0.12978907 0.18463632 0.18548217 -0.13334362 -0.18211104 0.10779517
-0.13088602 0.16053265 -0.0018310067 -0.08799799 0.10868369 0.1485144 0.057035126 -0.21341784
-0.14379615 -0.23163563 0.14056838 0.08424471 0.070872925 0.12380072 0.117549576 0.100777045
0.10553492 -0.09771507 -0.07013787 -0.11540891 -0.023327954 0.1691114 0.09108744 -0.19857106
-0.008109582 -0.041648444 -0.08816129 -0.038111385 0.11069249 -0.11361613 -0.010254475 0.01528932
0.11089663 -0.16992752 0.07866638 -0.09768713 0.09279002 0.14751823 -0.36161998 -0.07239602
0.15794681 0.19166157 -0.1006124 0.20008543 -0.05745409 0.11642416 0.23874 -0.050260883
-0.08714741 0.06468072 0.061849516 0.13007636 0.11791948 -0.20259228 0.15977064 0.13235594
-0.10445832 0.23714268 -0.31903738 0.04056057 -0.14226313 -0.09667121 -0.0967576 0.103512205
0.17079091 0.20084356 0.07753391 0.13788246 -0.09210968 -0.052579314 0.15293325 0.10201346
-0.2673292 -0.13046487 0.11779855 0.18439922 0.09023188 -0.15492658 -0.14944841 -0.10010787
-0.09175012 -0.24705216 0.02263612 0.025094405 0.05275417 -0.083495736 -0.08228934 0.01840966
-0.065730125 -0.021507565 0.16204001 0.19078286 0.16619593 -0.092293575 -0.03945614 0.23601384
-0.08487953 -0.06147973 -0.17226055 -0.010675982 0.063974395 -0.14938995 -0.03482246 0.054485496
-0.16490094 -0.012618898 -0.046873476 -0.06818819 0.19342795 -0.020558719 0.2119573 -0.01702385
0.098175816 -0.11223242 -0.20961508 0.29032752 0.05655719 -0.25412047 0.11107001 0.17727998
-0.29977146 -0.008911339 -0.14096476 0.068352774 -0.017975725 -0.028467206 0.084022895 0.025978442
00000000: 264a f1bd f770 333d dc0c 673e ac85 3d3e
00000010: c85c 51be 6f8e 063e d52c 58bd 4be6 953d
00000020: b044 d8bd 45fe 80bd 7299 b73d 7810 a4bd
00000030: c0c0 31b9 2a7c cc3d 511c d4bd 804a 03bd
00000040: 36b6 5b3e f340 833d 4259 f83c b64f 92be
00000050: 8d50 063d f6db 0b3e 40e3 b0bd d925 133e
00000060: e3e3 c83d 9cd8 83bc 524a b83d e64d 613c
00000070: 8ed7 5f3c 74a7 4dbe ec25 de3d 9720 f6bd
00000080: 9c47 353e 33dc 223e 46c8 65be f692 943e
00000090: 76b4 89be ccea bdbd 9d14 bb3c df2d 923e
000000a0: 8106 42bd d870 45be b8f8 ee3d 1ff7 92bc
000000b0: 8553 6e3d 8ad1 36be 7668 663c a527 013e
000000c0: f211 fd3d ce74 a2bd de02 dfbc f352 30be
000000d0: ff71 a5bd 3981 a63d ae83 543c 42ae 383e
000000e0: f809 51be 6509 153e 8ec4 a73d 1dc8 05be
000000f0: 19de 71be b358 423e a7b9 153e a7d4 d7bd
00000100: 97f1 a03e dec8 35bd 8927 16bd f5a0 933d
00000110: f8d2 55bd 3b23 04be 241d 9bbd 5ad8 773e
00000120: b5e9 0ebe 8707 febd 658e 853c f20d ed3d
00000130: 97d0 3b3d bc2d 5e3e 486e 4bbe fdbb 22be
00000140: 6709 503e 7adf 713b bac7 06be 7b6e 88bd
00000150: 7fcc 9abd 58e0 663d 4873 893e 8af1 c93d
00000160: 0eb0 c2bc b2be 453e 367d 563e 4098 bbbd
00000170: fd5c e6bd 28f6 ab3d 8a06 70bd 9717 2bbe
00000180: ee08 1e3e 2208 75be c09f 1b3d c52d 023e
00000190: 24a8 243d 4409 303e 4f3f cabd 84d7 6b3c
000001a0: 8cda 9bbd de31 443e 6591 663d 70b9 4abd
000001b0: f078 0abe 4c4d 3cbc 7ec7 96be 99e8 16bc
000001c0: e3aa 633e be09 f23d 7706 37bd 17e1 ccbd
000001d0: f7fc 353e 9093 10bd 2b41 093e b5a1 183e
000001e0: 9170 833e c1aa 24be 6de7 04be 4e11 3d3e
000001f0: 0aef 3d3e 3b8b 08be 517b 3abe b7c3 dc3d
00000200: fc06 06be ac62 243e 64fe efba 4a38 b4bd
00000210: 8e95 de3d 2914 183e aa9d 693d 358a 5abe
00000220: 4c3f 13be e431 6dbe 28f1 0f3e 7e88 ac3d
00000230: d325 913d 3b8b fd3d d5bd f03d 3264 ce3d
00000240: b122 d83d d71e c8bd 72a4 8fbd 825b ecbd
00000250: 441a bfbc 8a2b 2d3e 0d8c ba3d 3656 4bbe
00000260: 0dde 04bc 8f97 2abd e88d b4bd af1a 1cbd
00000270: bfb2 e23d 93af e8bd 6302 28bc 0e80 7a3c
00000280: c61d e33d 7b01 2ebe d71b a13d 3110 c8bd
00000290: b208 be3d 050f 173e 4126 b9be 5d44 94bd
000002a0: cfbc 213e ee42 443e e00d cebd 32e3 4c3e
000002b0: fb54 6bbd ca6f ee3d 4278 743e 5bde 4dbd
000002c0: 577a b2bd 5377 843d eb55 7d3d bd32 053e
000002d0: c57f f13d 5a74 4fbe ea9a 233e 5188 073e
000002e0: 3eee d5bd 88d5 723e de58 a3be d722 263d
000002f0: 6dad 11be 8efb c5bd d928 c6bd 35fe d33d
00000300: d0e3 2e3e efa9 4d3e 19ca 9e3d 0f31 0d3e
00000310: 00a4 bcbd 685d 57bd 899a 1c3e 6fec d03d
00000320: 5fdf 88be 9598 05be 5e40 f13d 26d3 3c3e
00000330: 7ecb b83d 13a5 1ebe 0109 19be 5b05 cdbd
00000340: 7de7 bbbd 3efb 7cbe 626f b93c c892 cd3c
00000350: c214 583d d0ff aabd 5087 a8bd dbcf 963c
00000360: 849d 86bd a230 b0bc d1ed 253e 955c 433e
00000370: 442f 2a3e 6a04 bdbd c39c 21bd 9dad 713e
00000380: 52d5 adbd 2bd2 7bbd 1265 30be 50ea 2ebc
00000390: 0205 833d aef9 18be ffa1 0ebd 2f2c 5f3d
000003a0: cbdb 28be 7fbf 4ebc 67fe 3fbd 40a6 8bbd
000003b0: fa11 463e c26a a8bc 560b 593e 9a75 8bbc
000003c0: 6710 c93d 1cda e5bd 56a5 56be cfa5 943e
000003d0: 83a8 673d 141c 82be ac78 e33d e288 353e
000003e0: a57b 99be dd00 12bc 1159 10be 8afc 8b3d
000003f0: d441 93bc 0f34 e9bc 3214 ac3d bed0 d43c

mlp1.layers.2.bias f4 [64]
-0.041425828 -0.06267983 0.10432805 0.061732486 0.07570132 -0.048834663 0.12452385 0.10048685
-0.024541913 -0.0027354828 -0.14703095 -0.029447652 -0.1117664 0.06485841 0.14392424 -0.1134333
-0.08443422 0.17403105 0.2449605 0.044068668 0.010113093 0.1856533 0.22579235 0.12852864
0.06297766 -0.040525462 0.1203209 -0.07404885 0.18062647 -0.08320801 -0.0988614 -0.018095879
-0.05734911 0.08939044 0.10942524 0.08554784 0.054114867 0.20514125 0.058524534 -0.14620358
0.15736617 0.055081647 0.08467719 -0.14020808 0.028716067 0.19300629 0.03556604 0.17707928
0.20680329 0.02497092 0.17247662 0.31968388 0.03130457 0.13457023 0.049781173 0.13731778
0.03276321 0.08871471 0.00016763595 -0.041656926 0.045188446 -0.1735183 -0.11077403 0.055748858
00000000: 21ae 29bd 485e 80bd f2a9 d53d 34db 7c3d
00000010: 4b09 9b3d db06 48bd 5c06 ff3d 0dcc cd3d
00000020: 1f0c c9bc c945 33bb 488f 16be 343c f1bc
00000030: c8e5 e4bd 7cd4 843d e060 133e b84f e8bd
00000040: d9eb acbd 3235 323e edd6 7a3e 5981 343d
00000050: 63b1 253c e61b 3e3e 1c36 673e 039d 033e
00000060: 6efa 803d 07fe 25bd ce6a f63d eca6 97bd
00000070: 25f6 383e f668 aabd d877 cabd cf3d 94bc
00000080: e6e6 6abd 5612 b73d 571a e03d b533 af3d
00000090: 8da7 5d3d 8c10 523e 6cb7 6f3d 64b6 15be
000000a0: 9924 213e 4b9d 613d 3c6b ad3d b592 0fbe
000000b0: f53d eb3c 71a3 453e b2ad 113d 4554 353e
000000c0: 3ec4 533e d18f cc3c b69d 303e 9bad a33e
000000d0: 3939 003d c7cc 093e 58e7 4b3d 089d 0c3e
000000e0: b732 063d 0fb0 b53d 6fc7 2f39 74a0 2abd
000000f0: 8517 393d c8ae 31be 7fdd e2bd ea58 643d

mlp1.layers.4.weight f4 [32, 64]
0.016077474 -0.099108934 -0.026550591 0.097627744 -0.11984657 0.18163672 -0.018045522 0.03541577
-0.13663961 -0.06616448 0.00859319 -0.11929459 0.09750384 0.09993152 0.07668508 -0.24715982
-0.22144768 0.026224153 -0.19541132 0.051729776 -0.010571903 0.13640375 0.055810362 -0.17030343
-0.19208305 0.20546836 -0.012102622 0.09341886 -0.1158842 0.07256458 0.17997885 -0.13633838
0.013876495 0.13378032 0.015054055 -0.17503862 -0.20542727 -0.020031326 -0.12419774 0.059281863
0.002114975 0.06883476 0.092966124 -0.13452409 0.06345922 -0.0036235044 -0.17433059 0.1826465
0.11303365 -0.011100095 -0.14589085 -0.10635906 0.09048229 -0.077374734 0.22095238 -0.08013628
0.19944502 0.06025929 0.003012566 -0.04672934 -0.08050086 0.08677558 0.06536033 0.12383973
-0.06674575 -0.09921993 -0.064589664 0.1624619 -0.20330587 0.10893001 0.14366655 0.19466347
-0.036822483 0.12764281 0.19608714 0.071945705 -0.042369537 -0.07041473 -0.20297875 0.032250684
-0.07063786 0.18018563 -0.11535466 0.020896746 -0.04096596 -0.10338387 -0.19211896 -0.09008227
-0.107980594 0.13585886 -0.004154852 -0.051719163 -0.07397531 0.09252901 0.14357734 0.3348442
-0.26361012 0.0973979 0.123108044 0.012646035 -0.15180066 0.038431693 0.06280988 -0.048205394
-0.12051795 0.2432384 0.036101982 -0.049725007 -0.23594216 0.16618714 0.16354054 -0.008496768
-0.031089377 0.12895016 -0.021575881 0.06879305 -0.19755131 -0.19906737 0.0012566327 -0.08355409
0.08815003 0.041501824 -0.05675548 -0.016827928 -0.00800707 -0.0066940654 0.0020098067 -0.087658666
-0.036590986 0.00235878 0.0029978068 0.13341886 0.02845782 0.14228778 -0.121333934 0.045430843
-0.10803601 0.14125802 0.032823384 0.0026324445 -0.18878202 0.16736838 0.1014207 0.15471509
0.009246357 0.005078457 -0.15219265 0.13446657 0.046464924 -0.016130665 0.07273376 -0.055860966
0.06944405 -0.1345072 -0.14666961 -0.07224354 0.047249865 0.025853772 0.01781139 0.2724574
-0.02277415 -0.11801257 -0.044479176 0.016383948 -0.045526203 -0.008341731 0.10314046 0.017936148
-0.081756525 0.110752344 0.109648116 -0.1299423 0.07503724 0.21790762 0.12568602 0.0563341
0.015763907 0.16740069 -0.11857553 -0.04016438 0.05512756 0.07991577 0.0213119 0.2675992
-0.08899472 0.06960462 0.039239172 0.016253272 -0.1341523 -0.1642547 0.03456416 -0.0464684
0.08474221 -0.036117747 -0.047147803 -0.0756193 0.025698708 0.08593434 -0.10043888 0.10991059
-0.08507433 0.10185688 -0.10199206 -0.09958931 -0.1991765 -0.07053869 -0.21456489 0.09910578
0.028324189 -0.029542787 0.07899435 0.37518013 0.033439226 -0.074194305 -0.07082967 -0.07719107
-0.062257737 -0.039699905 0.09310582 0.007285276 -0.055183884 0.03861417 0.022482103 0.14136674
0.064537294 0.04699459 -0.06716754 -0.041688815 -0.18770736 0.18135889 -0.00086334825 -0.13141483
0.033049576 -0.15275843 0.1496006 0.019428723 -0.04698437 0.16397297 0.000526655 -0.0004566697
-0.06963585 0.11818601 -0.15849754 0.03283395 -0.13256015 -0.102872655 0.0008722005 0.027885308
-0.040638678 -0.111006446 -0.10441587 0.22036505 -0.08312143 -0.13444434 0.18769681 0.12048905
00000000: e8b4 833c a0f9 cabd a080 d9bc 0ef1 c73d
00000010: 1e72 f5bd fafe 393e 34d4 93bc 2010 113d
00000020: 41eb 0bbe 3e81 87bd 74ca 0c3c b950 f4bd
00000030: 18b0 c73d e6a8 cc3d 110d 9d3d 7717 7dbe
00000040: 2ec3 62be 09d4 d63c e819 48be 9ae2 533d
00000050: c635 2dbc 6dad 0b3e 6899 643d 0664 2ebe
00000060: 6bb1 44be 4c66 523e 134a 46bc 6352 bf3d
00000070: b254 edbd bd9c 943d 604c 383e 4a9c 0bbe
00000080: 3d5a 633c b5fd 083e 48a5 763c 533d 33be
00000090: 875b 52be bc18 a4bc 625b febd 8ad1 723d
000000a0: 649b 0a3b 3df9 8c3d 0665 be3d afc0 09be
000000b0: e8f6 813d 5178 6dbb b883 32be af07 3b3e
000000c0: 307e e73d 2cdd 35bc 6964 15be c7d2 d9bd
000000d0: c74e b93d a576 9ebd 5741 623e 7d1e a4bd
000000e0: 513b 4c3e 72d2 763d 786e 453b 4467 3fbd
000000f0: a3dd a4bd 65b7 b13d a3db 853d af9f fd3d
00000100: ffb1 88bd d233 cbbd 9647 84bd 6a5c 263e
00000110: 6a2f 50be b216 df3d 531d 133e dc55 473e
00000120: 2cd3 16bd ccb4 023e 11cb 483e 4558 933d
00000130: ae8b 2dbd 9935 90bd a9d9 4fbe 4b19 043d
00000140: 95aa 90bd 9582 383e 103f ecbd a72f ab3c
00000150: eccb 27bd ecba d3bd d5ba 44be 0e7d b8bd
00000160: ee24 ddbd 961e 0b3e 6d25 88bb 79d7 53bd
00000170: 5e80 97bd d97f bd3d f005 133e b370 ab3e
00000180: e8f7 86be 8d78 c73d 1220 fc3d 5131 4f3c
00000190: a271 1bbe 8d6a 1d3d 77a2 803d 0573 45bd
000001a0: 1dd2 f6bd 7d13 793e acdf 133d 73ac 4bbd
000001b0: d29a 71be f62c 2a3e 2c77 273e 0736 0bbc
000001c0: 26af febc 830b 043e e7bf b0bc 5fe3 8c3d
000001d0: e44a 4abe 51d8 4bbe 99b5 a43a 681e abbd
000001e0: 0188 b43d d1fd 293d 6f78 68bd b9da 89bc
000001f0: 1630 03bc e459 dbbb f6b6 033b 6386 b3bd
00000200: 6ee0 15bd c395 1a3b da76 443b f49e 083e
00000210: 6020 e93c e3b3 113e ed7d f8bd b115 3a3d
00000220: fc41 ddbd f1a5 103e d071 063d 1785 2c3b
00000230: 1350 41be 9e62 2b3e a8b5 cf3d a26d 1e3e
00000240: 087e 173c 2f69 a63b 64d8 1bbe 9bb1 093e
00000250: 0152 3e3d 7524 84bc 70f5 943d 78ce 64bd
00000260: af38 8e3d 41bc 09be 8f30 16be 6cf4 93bd
00000270: 1389 413d 4acb d33c 31e9 913c 897f 8b3e
00000280: db90 babc 93b0 f1bd cc2f 36bd a137 863c
00000290: af79 3abd c1ab 08bc 4e3b d33d d4ee 923c
000002a0: f76f a7bd 20d2 e23d 318f e03d 980f 05be
000002b0: 20ad 993d 2d23 5f3e d6b3 003e 96be 663d
000002c0: 4f23 813c 166b 2b3e bad7 f2bd 6883 24bd
000002d0: 70cd 613d e1aa a33d 4b96 ae3c c302 893e
000002e0: dd42 b6bd de8c 8e3d 41b9 203d 9525 853c
000002f0: 385f 09be 6232 28be 2693 0d3d a655 3ebd
00000300: 538d ad3d 34f0 13bd 0e1e 41bd 4bde 9abd
00000310: 1986 d23c 58fe af3d e6b2 cdbd ce18 e13d
00000320: 733b aebd 579a d03d 37e1 d0bd 7bf5 cbbd
00000330: edf4 4bbe 9776 90bd e6b6 5bbe f9f7 ca3d
00000340: 2108 e83c b703 f2bc cac7 a13d 9c17 c03e
00000350: 92f7 083d 2ff3 97bd 250f 91bd 5a16 9ebd
00000360: f801 7fbd 5e9c 22bd 44ae be3d 53b9 ee3b
00000370: 7f08 62bd e429 1e3d 632c b83c 71c2 103e
00000380: 212c 843d 667d 403d 238f 89bd e4c1 2abd
00000390: 5c36 40be 25b6 393e 5252 62ba 9c91 06be
000003a0: fe5e 073d b56c 1cbe e630 193e fc28 9f3c
000003b0: af72 40bd 88e8 273e 380f 0a3a 2b6d efb9
000003c0: 3e9d 8ebd 820b f23d 2e4d 22be e47c 063d
000003d0: d9bd 07be e6ae d2bd 62a4 643a bb6f e43c
000003e0: be74 26bd 5957 e3bd fdd7 d5bd 60a7 613e
000003f0: 913b aabd c7ab 09be 9833 403e f7c2 f63d

mlp1.layers.4.bias f4 [32]
-0.043956004 -0.07946083 0.15189122 -0.12474623 -0.09088611 -0.17899676 -0.03726675 0.0019093915
-0.16217898 -0.02375914 0.13517606 -0.08361224 -0.1768875 -0.007517067 0.023544965 -0.05701557
0.24729568 0.17036824 0.22973141 -0.0051075737 0.20219891 -0.03261949 -0.2104096 -0.048033018
-0.1545123 0.077527195 0.02623416 -0.029891498 -0.11560603 0.09254998 -0.03727152 0.058573853
00000000: 360b 34bd 5cbc a2bd 5f89 1b3e f47a ffbd
00000010: 7f22 babd ed4a 37be 05a5 18bd 8c44 fa3a
00000020: 3f12 26be 87a2 c2bc 986b 0a3e e53c abbd
00000030: ff21 35be ba51 f6bb 5fe1 c03c 2989 69bd
00000040: 143b 7d3e 0375 2e3e b63e 6b3e 6f5d a7bb
00000050: 3b0d 4f3e 049c 05bd 9d75 57be 45be 44bd
00000060: 7938 1ebe 94c6 9e3d 05e9 d63c 04df f4bc
00000070: dbc2 ecbd d88a bd3d 05aa 18bd 23eb 6f3d

mlp2.layers.0.weight f4 [32, 84]
-0.08220489 0.028647587 -0.17979161 0.032597832 -0.025568645 0.054624412 -0.054726318 -0.0026997235
0.26802 -0.0020789248 0.038529225 0.11721872 0.020081157 -0.095344156 0.0013009423 0.14483443
0.037463795 -0.21474238 -0.077757955 -0.04129446 -0.14543183 -0.096457 -0.022710336 -0.14916535
0.040143676 0.061447915 -0.14965996 -0.14504035 -0.09889471 0.12558898 0.15745603 0.117571406
-0.09507548 0.07492068 -0.06755579 0.03194317 0.026263649 0.042427562 -0.019673977 0.090143576
0.09487038 -0.049888004 -0.04118407 0.17855129 -0.100441165 -0.0701552 -0.020062001 -0.017156124
-0.030232301 0.1031765 0.0270757 0.08662202 0.048658047 0.101254314 -0.023420753 0.001473307
-0.09240385 -0.062060766 0.12032033 0.078332976 0.074683174 0.0007749976 -0.13170534 -0.1098143
0.10807367 -0.09139857 0.025585374 -0.05311715 0.015634112 -0.026998859 -0.05727458 0.08377845
-0.1368793 0.01823462 0.054762 -0.117950656 -0.028232638 0.061121285 -0.026990166 -0.08361631
0.0639817 -0.03766141 0.07623469 -0.030169927 0.06572252 -0.15240072 -0.035851706 0.038136125
0.2445032 0.08685202 -0.100272216 0.14908198 -0.08146634 0.14029363 0.17016205 -0.08568467
0.072608985 0.090041995 -0.057724856 -0.113203295 0.032383826 -0.06523597 0.051098008 -0.06716388
0.01393062 -0.13721897 0.047216725 -0.088616244 0.06650986 -0.085613 -0.094148666 -0.021625154
0.09290373 0.04742019 0.040034987 -0.06995608 0.08054078 -0.20146404 -0.004312172 -0.089314185
0.006019743 0.066069916 0.13737997 0.14051421 0.060520098 -0.029061517 0.051478986 0.0313754
-0.068119735 -0.14066742 -0.12044847 0.04936 -0.030118112 -0.048616976 -0.00084080937 0.046807315
-0.0060541998 0.14780252 0.080698736 0.04201021 -0.006845062 -0.010217817 -0.045239177 -0.09947519
-0.029978521 -0.050240323 -0.081968844 -0.02973674 -0.15584959 0.11455999 0.11935842 0.040202364
0.0848478 -0.041833114 -0.0601866 -0.015172058 -0.019822452 -0.04945449 -0.11159788 0.09420697
-0.04138122 0.09557307 -0.0883134 -0.045763206 -0.010134352 -0.037038397 -0.082559034 0.15217298
-0.007032121 0.10222434 0.11801011 -0.12026242 -0.030141992 -0.05937384 0.022014957 0.07136305
-0.07850366 -0.19051181 0.04114902 -0.21108665 0.103833824 -0.1984685 0.089810155 -0.011063926
0.043110263 0.038285065 0.100177184 -0.1155989 0.02460447 0.007204375 0.07826564 -0.027182573
-0.030882645 0.053846475 -0.06709397 -0.07727483 0.12020695 0.14377597 0.13398468 0.17354038
0.034380145 -0.051263098 -0.055311847 -0.025512224 -0.101470195 -0.040565833 -0.081242144 0.031165795
0.012040866 -0.040006157 -0.051337365 0.04137449 0.033027668 -0.031870227 -0.040676985 0.030588197
0.0068244254 -0.07957206 -0.02523554 -0.09835705 0.07546119 0.06965295 -0.13389508 -0.057013616
-0.06204364 -0.0066283094 0.01645589 -0.05255208 -0.11686266 0.026438309 -0.19424911 -0.18480618
-0.03992757 0.11796043 0.0402619 0.03490365 0.1422753 0.14977963 0.12187852 -0.023872428
-0.03843645 0.018896515 -0.0069273105 -0.02342229 -0.020349028 0.15840733 0.0017720511 0.0776092
-0.07711525 0.12349463 0.11332795 0.043483738 -0.01944137 0.1377532 0.12528628 -0.09467872
00000000: 0a5b a8bd 58ae ea3c 4b1b 38be 4e85 053d
00000010: 5675 d1bc d9bd 5f3d b428 60bd d8ed 30bb
00000020: eb39 893e 923e 08bb d2d0 1d3d 5e10 f03d
00000030: 3d81 a43c cc43 c3bd 6184 aa3a 7a4f 143e
00000040: a373 193d 6de5 5bbe 903f 9fbd 6124 29bd
00000050: 15ec 14be 3f8b c5bd 070b babc cdbe 18be
00000060: b26d 243d cfb0 7b3d 7640 19be 7585 14be
00000070: 4f89 cabd 669a 003e 273c 213e 47c9 f03d
00000080: efb6 c2bd 0370 993d b15a 8abd d7d6 023d
00000090: dd26 d73c 86c8 2d3d 522b a1bc 329d b83d
000000a0: 674b c23d 5d57 4cbd a1b0 28bd 26d6 363e
000000b0: 19b4 cdbd 88ad 8fbd 1159 a4bc 008b 8cbc
000000c0: bba9 f7bc 334e d33d dccd dd3c e366 b13d
000000d0: a94d 473d 6c5e cf3d e1dc bfbc fb1b c13a
000000e0: 3b3e bdbd 6e33 7ebd 816a f63d 0a6d a03d
000000f0: 7ef3 983d 3529 4b3a c4dd 06be 52e6 e0bd
00000100: ba55 dd3d 2c2f bbbd 6b98 d13c 5e91 59bd
00000110: 1c13 803c b62c ddbc c098 6abd 0994 ab3d
00000120: 162a 0cbe c560 953c 1e4e 603d 1d90 f1bd
00000130: 2248 e7bc 505a 7a3d 7b1a ddbc 073f abbd
00000140: d608 833d da42 1abd ef20 9c3d ec26 f7bc
00000150: 8799 863d ef0e 1cbe 3dd9 12bd a034 1c3d
00000160: 0c5f 7a3e 79df b13d 855b cdbd f2a8 183e
00000170: d3d7 a6bd 22a9 0f3e f63e 2e3e 727b afbd
00000180: 05b4 943d f067 b83d e670 6cbd 21d7 e7bd
00000190: e7a4 043d 709a 85bd 254c 513d 378d 89bd
000001a0: 413d 643c 2183 0cbe 5366 413d 6f7c b5bd
000001b0: 5236 883d de55 afbd 04d1 c0bd 3c27 b1bc
000001c0: 5044 be3d ac3b 423d bafb 233d 2245 8fbd
000001d0: 91f2 a43d 974c 4ebe 1f4d 8dbb 5bea b6bd
000001e0: 4441 c53b aa4f 873d 56ad 0c3e f5e2 0f3e
000001f0: ece3 773d 6b12 eebc a1db 523d 7e83 003d
00000200: 5c82 8bbd 1f0b 10be b0ad f6bd b62d 4a3d
00000210: 42ba f6bc 9822 47bd c369 5cba 07b9 3f3d
00000220: 4f62 c6bb 8b59 173e 6145 a53d e612 2c3d
00000230: 8b4c e0bb a168 27bc b74c 39bd a6b9 cbbd
00000240: 8495 f5bc ccc8 4dbd 48df a7bd 779a f3bc
00000250: 0997 1fbe 6e9e ea3d 3072 f43d 3cab 243d
00000260: afc4 ad3d 3359 2bbd 3986 76bd 3994 78bc
00000270: b262 a2bc cb90 4abd 6e8d e4bd 95ef c03d
00000280: 5b7f 29bd d0bb c33d a8dd b4bd 3372 3bbd
00000290: 8e0a 26bc 93b5 17bd b614 a9bd 3cd3 1b3e
000002a0: b56d e6bb ff5a d13d 49af f13d 254c f6bd
000002b0: 57ec f6bc fc31 73bd b658 b43c ca26 923d
000002c0: 87c6 a0bd 8715 43be e08b 283d 1927 58be
000002d0: d4a6 d43d 543b 4bbe 63ee b73d 7845 35bc
000002e0: 6394 303d cdd0 1c3d b229 cd3d 1ebf ecbd
000002f0: 508f c93c ae12 ec3b bc49 a03d fdad debc
00000300: 9afd fcbc 1f8e 5c3d 9068 89bd 4442 9ebd
00000310: 102f f63d 023a 133e 4833 093e 92b4 313e
00000320: 32d2 0c3d 41f9 51bd ad8e 62bd 03ff d0bc
00000330: 9bcf cfbd 5c28 26bd 4862 a6bd 694f ff3c
00000340: 0d47 453c 7fdd 23bd 2147 52bd 4c78 293d
00000350: 0548 073d 5b8a 02bd e99c 26bd 1994 fa3c
00000360: 6e9f df3b adf6 a2bd c3ba cebc 6c6f c9bd
00000370: 658b 9a3d 35a6 8e3d cb1b 09be 1c87 69bd
00000380: 7921 7ebd 4a32 d9bb 81ce 863c da40 57bd
00000390: b155 efbd 2795 d83c 3de9 46be d53d 3dbe
000003a0: 178b 23bd 3d95 f13d a9e9 243d 21f7 0e3d
000003b0: 9eb0 113e d55f 193e 729b f93d 1c90 c3bc
000003c0: 8a6f 1dbd ddcc 9a3c 7efe e2bb 1ae0 bfbc
000003d0: 01b3 a6bc 8835 223e 2b44 e83a 92f1 9e3d
000003e0: 9aee 9dbd c1ea fc3d 7c18 e83d 011c 323d
000003f0: 8243 9fbc 2d0f 0d3e 0c4b 003e ebe6 c1bd

mlp2.layers.0.bias f4 [32]
-0.10126545 0.07801269 -0.03180319 -0.0416459 0.12789145 0.019692972 -0.03717241 -0.07496809
-0.09600004 0.5288375 -0.030743036 -0.029505428 0.106218636 -0.058117572 0.060738735 -0.05371307
0.07377101 -0.07334886 -0.10090306 -0.0063609276 -0.08962447 0.14717242 -0.07070524 0.06311004
-0.003306452 0.079562396 0.047898307 0.017990265 -0.2293358 -0.09428066 -0.057440657 0.0025503088
00000000: 4364 cfbd 1ec5 9f3d 1044 02bd e494 2abd
00000010: faf5 023e 2853 a13c 1942 18bd df88 99bd
00000020: ab9b c4bd e561 073f d2d8 fbbc 5eb5 f1bc
00000030: 2889 d93d b10c 6ebd 2ec9 783d 3c02 5cbd
00000040: 4115 973d ed37 96bd 43a6 cebd 546f d0bb
00000050: 098d b7bd 5eb4 163e e9cd 90bd d63f 813d
00000060: 0fb1 58bb 9cf1 a23d 0431 443d 5260 933c
00000070: 01d7 6abe 3816 c1bd e546 6bbd 1523 273b

mlp2.layers.2.weight f4 [64, 32]
-0.1529465 -0.014441872 0.13608505 -0.01588552 -0.045531858 -0.118604146 0.16602173 0.21725662
0.1468429 -0.33531642 0.032148562 -0.055722203 -0.061273307 0.13603589 0.009403064 0.0684544
0.07269354 -0.23513773 -0.19415762 -0.005649777 -0.21267141 -0.17336172 -0.002216104 0.108389
0.19447571 0.10694427 -0.038976517 -0.23240533 -0.10912083 -0.013769129 -0.11581403 0.22667871
-0.09720833 -0.10399236 0.044033118 0.1682783 0.15695983 0.21614571 -0.052245073 -0.028635442
-0.23647158 -0.11294934 -0.119536474 0.047069825 -0.07444719 0.19130312 0.08321594 -0.033291694
0.025588935 -0.005333682 0.17608076 -0.055526085 0.093937665 -0.014734525 0.15151483 -0.11878818
0.0077213394 0.16974388 0.010567299 -0.14717679 0.21103106 -0.24768747 -0.04687941 -0.14072868
-0.051048137 0.09605989 -0.16343962 -0.015894257 0.014797444 0.16635282 -0.07796215 -0.1654994
-0.201521 -0.25012803 0.2036143 0.117711045 -0.100269146 0.0033428958 0.212431 0.13530774
-0.098031625 0.099155895 0.23839581 -0.038215622 0.13991882 -0.050975315 -0.027694022 0.0028944933
0.053307384 0.07159519 -0.054827474 -0.2279793 0.048720427 -0.029584115 -0.00050839974 0.14681627
0.12928128 -0.034474272 0.06787028 -0.07613513 -0.065457426 -0.08687115 -0.06435405 -0.17640138
0.20226984 -0.13506679 -0.02641041 0.06342585 -0.0655082 0.13655426 -0.0030493978 -0.07882872
0.104477756 -0.023816777 -0.047395267 -0.12867492 -0.11945816 -0.034523282 -0.2190741 -0.0933251
0.16066225 0.104684226 -0.07089216 0.0817888 0.10270737 0.113924764 0.043339998 0.0026560407
0.0033718054 -0.05165276 -0.01748344 0.1182137 -0.04573608 0.05643582 0.011188733 -0.27207693
0.09534565 0.4512568 0.17535892 -0.1253894 0.0074995672 -0.08997396 0.00010728003 -0.16611779
0.20872794 0.023969289 0.26406893 -0.11153366 0.0741802 0.08856181 -0.10189542 0.14149411
0.021753103 0.14293276 -0.012183581 0.20972183 -0.074406706 -0.109480985 -0.01379055 0.12585416
0.13918543 -0.01739089 -0.27883604 -0.01284906 -0.2373141 -0.10698437 0.12937658 -0.09014097
0.18768017 -0.15727425 0.019698337 -0.031289756 0.0065123593 -0.024203086 0.09008677 -0.2470742
-0.20237957 0.19188157 -0.0124498755 0.06136122 -0.1647388 0.1424888 -0.018182851 0.01628437
-0.22532637 0.060041323 0.023028854 0.0068895197 -0.24881947 0.034792826 -0.006056535 -0.11734859
-0.11400936 0.051619735 -0.0022453407 -0.10635403 -0.0020782216 0.025483089 -0.054055933 -0.09387389
-0.015581169 -0.14288428 -0.01965362 0.07700191 -0.0815967 0.104670495 0.17448176 0.18455411
-0.122673415 0.13922396 0.21920429 -0.0838728 0.011666673 -0.13379471 -0.04821918 0.045804594
-0.17684598 -0.039257362 -0.016108977 -0.2798414 0.041393775 -0.04432369 -0.11395115 0.15969667
0.106226146 -0.17161833 -0.039560102 -0.15191957 0.055289026 0.073890164 0.09977558 0.050729893
-0.19534498 -0.18653657 0.22547819 0.0059556714 0.0034602985 0.13356501 0.19381371 0.15604213
0.057418235 0.0015763271 0.125168 -0.052428365 -0.06727667 0.09135758 0.12263116 0.14109857
-0.037690025 0.0866079 -0.12965278 -0.06489583 -0.012720369 0.048052434 0.057545427 -0.023181073
00000000: 029e 1cbe 9a9d 6cbc e159 0b3e 5a22 82bc
00000010: 9d7f 3abd bbe6 f2bd 9a01 2a3e 8578 5e3e
00000020: fc5d 163e 98ae abbe 36ae 033d f73c 64bd
00000030: b8f9 7abd fe4c 0b3e 4f0f 1a3c d231 8c3d
00000040: 5ae0 943d f2c7 70be 41d1 46be c421 b9bb
00000050: 89c6 59be bc85 31be 0e3c 11bb 0dfb dd3d
00000060: a424 473e 9905 db3d d7a5 1fbd aafb 6dbe
00000070: be7a dfbd ea97 61bc e82f edbd 771e 683e
00000080: 2915 c7bd f2f9 d4bd 125c 343d 2651 2c3e
00000090: 14ba 203e 4d55 5d3e eefe 55bd e094 eabc
000000a0: 9b25 72be fc51 e7bd 8acf f4bd 4acc 403d
000000b0: c577 98bd f7e4 433e 1e6d aa3d df5c 08bd
000000c0: e39f d13c 2bc6 aebb 844e 343e 526f 63bd
000000d0: 6462 c03d 1469 71bc b426 1b3e 3847 f3bd
000000e0: 4a03 fd3b 57d1 2d3e 7722 2d3c 83b5 16be
000000f0: 8718 583e c9a1 7dbe a004 40bd 2e1b 10be
00000100: da17 51bd 0cbb c43d b75c 27be ac34 82bc
00000110: fb70 723c 6558 2a3e 9faa 9fbd ad78 29be
00000120: 855b 4ebe c810 80be 4480 503e 7d12 f13d
00000130: e959 cdbd 7c14 5b3b 8387 593e 1d8e 0a3e
00000140: cec4 c8bd 3f12 cb3d 081e 743e fc87 1cbd
00000150: e146 0f3e 7ecb 50bd 93de e2bc 8ab1 3d3b
00000160: d858 5a3d 80a0 923d c692 60bd 6873 69be
00000170: 128f 473d 635a f2bc 2146 05ba 0157 163e
00000180: 5062 043e e534 0dbd 93ff 8a3d bcec 9bbd
00000190: 8b0e 86bd 80e9 b1bd 0ecc 83bd 90a2 34be
000001a0: d31f 4f3e f34e 0abe a55a d8bc 69e5 813d
000001b0: 2a29 86bd e1d4 0b3e 68d8 47bb f470 a1bd
000001c0: 6ff8 d53d 671b c3bc 8a21 42bd 5cc3 03be
000001d0: 7ba6 f4bd 4968 0dbd f654 60be 3b21 bfbd
000001e0: a584 243e af64 d63d e92f 91bd e380 a73d
000001f0: 3e58 d23d 6351 e93d 4885 313d f810 2e3b
00000200: 82f9 5c3b d891 53bd 6e39 8fbc 061a f23d
00000210: c155 3bbd 3f29 673d f350 373c ab4d 8bbe
00000220: 9544 c33d 220b e73e 4a91 333e 1466 00be
00000230: eebe f53b 4444 b8bd 87fb e038 c81a 2abe
00000240: c7bc 553e 3e5b c43c 0b34 873e c26b e4bd
00000250: caeb 973d e55f b53d 8cae d0bd d5e3 103e
00000260: 9033 b23c f75c 123e a49d 47bc 52c1 563e
00000270: 8b62 98bd 9137 e0bd c2f1 61bc eadf 003e
00000280: a086 0e3e 5777 8ebc 99c3 8ebe dd84 52bc
00000290: 7802 73be 9f1a dbbd 4b7b 043e d49b b8bd
000002a0: 3b2f 403e 800c 21be 685e a13c b029 00bd
000002b0: a165 d53b 8d45 c6bc 6a7f b83d 0501 7dbe
000002c0: 973c 4fbe 9a7c 443e 90fa 4bbc e755 7b3d
000002d0: 4ab1 28be 96e8 113e 34f4 94bc cd66 853c
000002e0: f5bb 66be e4ed 753d 02a7 bc3c 7bc1 e13b
000002f0: 88ca 7ebe ec82 0e3d e675 c6bb 7554 f0bd
00000300: bd7d e9bd 376f 533d 9126 13bb 24d0 d9bd
00000310: c632 08bb e9c1 d03c c169 5dbd f440 c0bd
00000320: 2948 7fbc 4250 12be a100 a1bc 2db3 9d3d
00000330: 2c1c a7bd 7c5d d63d 59ab 323e c1fb 3c3e
00000340: 333c fbbd ba90 0e3e 1777 603e 81c5 abbd
00000350: 9325 3f3c 7b01 09be 7a81 45bd 999d 3b3d
00000360: 1d17 35be 54cc 20bd f9f6 83bc 5f47 8fbe
00000370: 858c 293d c28c 35bd 385f e9bd 8687 233e
00000380: 188d d93d b7bc 2fbe c609 22bd ce90 1bbe
00000390: bf76 623d ba53 973d 2457 cc3d 26ca 4f3d
000003a0: 8408 48be 7103 3fbe c1e3 663e cb27 c33b
000003b0: 2dc6 623b 44c5 083e 1a77 463e 82c9 1f3e
000003c0: 622f 6b3d c39c ce3a 0a2c 003e 20bf 56bd
000003d0: 5ac8 89bd af19 bb3d 0c26 fb3d 257c 103e
000003e0: db60 1abd 7c5f b13d b3c3 04be 1be8 84bd
000003f0: 1869 50bc a1d2 443d c1b4 6b3d 3ce6 bdbc

mlp2.layers.2.bias f4 [64]
-0.15640084 0.060594145 -0.14620532 0.20768858 0.08256725 -0.09782531 -0.047305454 0.1209126
-0.010105029 0.065839894 0.17588739 -0.10298067 -0.034846492 -0.09700866 -0.23247589 -0.0031586115
0.017132103 0.080515906 -0.09644143 -0.17968126 0.14251499 0.050071184 0.07132293 -0.12803736
-0.01449098 -0.018858671 0.015520629 -0.07161411 0.12774171 0.2043477 -0.10279782 -0.032571614
0.20840028 0.057861947 0.027000474 -0.034505807 0.08333787 0.20571715 -0.14462776 -0.043939635
-0.20606002 0.1071924 0.12504011 -0.15549092 0.20155148 0.1531715 0.18812998 -0.11016307
-0.046683725 0.07469386 0.12090783 0.17985153 -0.05504336 -0.17282674 -0.14638135 0.085518986
0.20994163 -0.17341389 -0.03546782 0.124478675 -0.0066992124 -0.15024523 -0.13798499 -0.03969747
00000000: 8b27 20be 9131 783d d9b6 15be 51ac 543e
00000010: 0519 a93d a358 c8bd 5dc3 41bd 06a1 f73d
00000020: 908f 25bc 11d7 863d d31b 343e 88e7 d2bd
00000030: 32bb 0ebd 7aac c6bd 290e 6ebe b500 4fbb
00000040: a058 8c3c 86e5 a43d 1683 c5bd 5dfe 37be
00000050: 73ef 113e 7117 4d3d c211 923d 3a1c 03be
00000060: 936b 6dbc 807d 9abc 3c4a 7e3c 6baa 92bd
00000070: b9ce 023e 8640 513e aa87 d2bd d069 05bd
00000080: e266 553e a600 6d3d 1930 dd3c f655 0dbd
00000090: 0cad aa3d 84a7 523e 4d19 14be 0cfa 33bd
000000a0: 6601 53be b087 db3d 840a 003e 0339 1fbe
000000b0: 8363 4e3e fdd8 1c3e 25a5 403e 2d9d e1bd
000000c0: 6f37 3fbd 18f9 983d 869e f73d 002b 383e
000000d0: 2575 61bd 7ef9 30be fee4 15be 9424 af3d
000000e0: f0fa 563e 6993 31be b446 11bd adee fe3d
000000f0: 1185 dbbb e3d9 19be f04b 0dbe d099 22bd

mlp2.layers.4.weight f4 [32, 64]
-0.05520192 0.023565395 -0.023320334 0.2422386 0.10038753 0.07383329 -0.07441127 -0.075292535
-0.010218129 -0.15904555 0.058351953 -0.11268176 -0.17629094 0.049440436 0.04592955 0.038475707
0.10428378 0.29573753 -0.05047385 0.11673408 -0.11945735 0.15710105 -0.035726536 -0.004566637
-0.3055253 0.20742396 -0.03660219 0.06449441 -0.06263616 -0.011867914 0.07122538 -0.11614881
-0.09456498 -0.26703858 0.013130477 0.12785953 -0.02288163 0.10173742 0.08787158 -0.050847255
-0.011215069 0.007859103 -0.060270887 0.009847917 0.07789552 -0.06511223 0.010099873 0.036753338
0.0918569 -0.14276433 -0.17616062 -0.22429639 -0.11019666 -0.06989168 -0.3091506 -0.058616336
-0.168129 -0.20865685 0.069957055 -0.12687859 0.13112007 0.053560145 -0.08131412 0.08959691
-0.12860759 0.15940279 -0.038830433 -0.1639986 -0.18729006 0.014611152 -0.05322607 0.07454328
-0.014339727 0.05917948 -0.29395616 -0.002625658 -0.041252628 -0.07053109 0.08953608 0.085588515
0.05934683 -0.08689899 -0.19515288 -0.1503439 0.031605855 -0.19258372 -0.12810244 0.22397831
-0.12605152 0.19070512 -0.2186756 -0.14917062 0.092244714 -0.050393384 -0.021625292 0.19432126
0.05206999 0.009671617 -0.011292193 0.037250157 0.069698066 0.12209812 0.080668435 0.04745589
0.11337064 -0.075673975 0.101831175 -0.021424145 -0.22517282 -0.047627013 -0.07905054 0.19745603
0.03829422 -0.03474891 -0.0974235 -0.15454255 0.047431648 0.21905164 -0.0732466 0.04016617
0.099698514 0.15362039 -0.14713971 0.14890938 0.14852008 0.04541685 -0.16230881 0.1806265
-0.13344857 -0.041600887 -0.065645106 -0.073815815 -0.013882212 0.020686636 -0.029550979 0.11511653
-0.10132934 -0.06269907 -0.10128305 0.0405914 -0.0628338 -0.049224146 0.08884363 -0.18221626
0.12480031 -0.1928365 -0.01729926 -0.13848837 0.029728446 -0.16175695 -0.22792482 0.0745129
0.0056280755 0.11931571 -0.15035473 -0.12935129 0.049617145 -0.115257904 0.04703765 0.14047788
0.03586201 -0.0030321314 -0.1568837 0.05090916 0.022373835 0.08242666 0.08646855 0.20787227
0.11660988 -0.024012515 -0.03612897 0.13133274 -0.1675298 -0.12154481 -0.190181 0.1873123
0.2414281 0.18259305 0.045602985 0.015497059 0.13852105 0.18031168 -0.014835512 -0.07628762
0.12271405 0.08475883 -0.15680675 0.00235526 0.018026428 0.05211893 -0.14455275 0.114721306
0.096245036 0.076885514 0.030786408 0.009534004 0.08585165 -0.070608586 -0.09626774 0.09400093
0.02982537 -0.17240246 -0.18513612 0.0723053 0.033063315 -0.07011644 -0.016101182 0.17126395
-0.06887373 -0.03137093 0.07727627 0.08250513 0.099541396 0.10373465 0.2102996 -0.06420804
-0.011286817 -0.19924676 -0.13506326 0.19320548 0.1665108 0.0804146 0.0374683 -0.17942412
-0.057548363 -0.17670113 -0.027420383 -0.04587912 0.06755286 -0.038047943 0.087323174 -0.015766468
0.046929225 -0.3096018 -0.2120355 -0.044142805 -0.0069307443 -0.0013350882 -0.0017118151 -0.014360629
0.022621209 -0.18133259 0.14139883 -0.03083524 -0.1119841 -0.053643346 -0.22848053 -0.00047698582
-0.041160796 -0.17482476 0.03619398 -0.16919869 0.059753012 -0.16261794 0.19461459 -0.04661698
00000000: 691b 62bd 370c c13c 490a bfbc 650d 783e
00000010: fa97 cd3d e835 973d f064 98bd f932 9abd
00000020: f069 27bc d6dc 22be 7502 6f3d b2c5 e6bd
00000030: 9d85 34be 0e82 4a3d a020 3c3d b498 1d3d
00000040: bc92 d53d e96a 973e abbd 4ebd 4712 ef3d
00000050: 0ea6 f4bd 19df 203e fd55 12bd baa3 95bb
00000060: d06d 9cbe f266 543e 2eec 15bd a515 843d
00000070: 6347 80bd a471 42bc 9dde 913d 6ddf edbd
00000080: 49ab c1bd 48b9 88be 3621 573c 9ced 023e
00000090: 4272 bbbc b55b d03d 04f6 b33d 3645 50bd
000000a0: 69bf 37bc 78c3 003c 9bde 76bd 2859 213c
000000b0: b087 9f3d 9059 85bd f079 253c ab8a 163d
000000c0: 781f bc3d d030 12be 7363 34be f4ad 65be
000000d0: c9ae e1bd 5e23 8fbd fd48 9ebe af17 70bd
000000e0: 022a 2cbe 24aa 55be a545 8f3d 76ec 01be
000000f0: 5744 063e e261 5b3d 0488 a6bd 967e b73d
00000100: b5b1 03be 7c3a 233e a90c 1fbd 40ef 27be
00000110: f7c8 3fbe 9d63 6f3c 9403 5abd 26aa 983d
00000120: 2df1 6abc 2f66 723d 6c81 96be 3b13 2cbb
00000130: 84f8 28bd 9b72 90bd b15e b73d 0849 af3d
00000140: a915 733d 19f8 b1bd 28d6 47be c0f3 19be
00000150: 2475 013d ab34 45be 492d 03be 925a 653e
00000160: a613 01be 3448 433e 7fec 5fbe 2fc0 18be
00000170: ccea bc3d 4b69 4ebd 8627 b1bc 27fc 463e
00000180: 5847 553d b475 1e3c e402 39bc 9f93 183d
00000190: dcbd 8e3d 940e fa3d 7e35 a53d 1b61 423d
000001a0: de2e e83d f5fa 9abd dd8c d03d b081 afbc
000001b0: b493 66be 8b14 43bd 40e5 a1bd ea31 4a3e
000001c0: 66da 1c3d e054 0ebd f985 c7bd 6740 1ebe
000001d0: b047 423d 134f 603e 5002 96bd 4885 243d
000001e0: bc2e cc3d aa4e 1d3e cbab 16be b37b 183e
000001f0: a615 183e 0507 3a3d 4834 26be 27f6 383e
00000200: bea6 08be b165 2abd f170 86bd bf2c 97bd
00000210: 3872 63bc 0577 a93c e514 f2bc 37c2 eb3d
00000220: c285 cfbd 5f68 80bd 7d6d cfbd 2b43 263d
00000230: 02af 80bd 429f 49bd a6f3 b53d e696 3abe
00000240: 4e97 ff3d ee76 45be 2db7 8dbc e5cf 0dbe
00000250: 1289 f33c 9da3 25be 2065 69be 389a 983d
00000260: b86b b83b cc5b f43d 97f6 19be aa74 04be
00000270: 593b 4b3d 560c ecbd 8daa 403d 6fd9 0f3e
00000280: 0be4 123d b9b6 46bb 1fa6 20be 2086 503d
00000290: 5549 b73c 4fcf a83d 6c16 b13d 78dc 543e
000002a0: 29d1 ee3d e5b5 c4bc f9fb 13bd 177c 063e
000002b0: ef8c 2bbe 7cec f8bd cfbe 42be ccce 3f3e
000002c0: ee38 773e acf9 3a3e 32ca 3a3d 60e7 7d3c
000002d0: 76d8 0d3e a0a3 383e a610 73bc af3c 9cbd
000002e0: 8151 fb3d 0a96 ad3d f391 20be b55a 1a3b
000002f0: 29ac 933c a97a 553d a305 14be 01f3 ea3d
00000300: 1e1c c53d 2776 9d3d c733 fc3c 8334 1c3c
00000310: fdd2 af3d 3c9b 90bd 0528 c5bd 8f83 c03d
00000320: 5654 f43c 458a 30be 5394 3dbe cd14 943d
00000330: 666d 073d 3599 8fbd a0e6 83bc d15f 2f3e
00000340: ac0d 8dbd ce7e 00bd 0543 9e3d 73f8 a83d
00000350: 5cdc cb3d d572 d43d c758 573e 817f 83bd
00000360: 57ec 38bc 5807 4cbe 064e 0abe a8d7 453e
00000370: cf81 2a3e 69b0 a43d 5c78 193d f5ba 37be
00000380: d5b7 6bbd 24f1 34be b6a0 e0bc beeb 3bbd
00000390: 2759 8a3d 29d8 1bbd 7ed6 b23d ae28 81bc
000003a0: dc38 403d 2184 9ebe d61f 59be 16cf 34bd
000003b0: 4c1b e3bb 20fe aeba fc5e e0ba d848 6bbc
000003c0: 1d50 b93c 40af 39be dbca 103e 2f9a fcbc
000003d0: eb57 e5bd 20b9 5bbd cdf6 69be f413 fab9
000003e0: 3998 28bd 4305 33be 2440 143d 6c42 2dbe
000003f0: 93bf 743d 5185 26be 0c49 473e 72f1 3ebd

mlp2.layers.4.bias f4 [32]
-0.052035954 0.07652525 0.033521853 -0.0395675 -0.077351205 -0.099730946 0.17407545 -0.0035214159
-0.0788667 0.11987265 0.0015004039 0.12869357 -0.008009124 0.15797418 0.08469329 0.00406272
-0.06437575 0.04079667 -0.064704336 0.16935974 0.07428215 -0.08096533 0.00024107813 0.0051362696
0.03691953 0.05775548 0.07009149 -0.0031260152 -0.10847206 0.04662842 -0.058734823 -0.0660947
00000000: a723 55bd 45b9 9c3d 364e 093d 8811 22bd
00000010: 4f6a 9ebd bd3f ccbd d640 323e 8ec7 66bb
00000020: dd84 a1bd cb7f f53d 33a9 c43a 3fc8 033e
00000030: b338 03bc fcc3 213e ad73 ad3d 9120 853b
00000040: 6fd7 83bd 691a 273d b583 84bd a46c 2d3e
00000050: 3d21 983d 27d1 a5bd ebc9 7c39 274e a83b
00000060: ef38 173d 0391 6c3d 218c 8f3d d5dd 4cbb
00000070: 9926 debd 71fd 3e3d ed93 70bd a85c 87bd

mlp2.layers.6.weight f4 [2, 32]
-0.24610959 -0.057148043 -0.22859311 0.15506795 0.028734375 -0.09843637 0.12815246 -0.31512225
-0.21853106 0.295993 0.13945583 -0.19854967 0.2387057 0.0805706 0.25841087 -0.2291908
0.22601023 0.28519782 0.2707013 0.3027341 -0.21445072 -0.28969383 0.12301506 0.33385086
-0.19667132 -0.06982884 0.25007632 -0.13753185 0.2910691 0.12688039 -0.32682356 -0.21265228
0.36518025 0.29457316 0.022003163 -0.35543957 -0.23382197 0.22861555 -0.024531595 0.05767937
0.27277768 -0.21626031 -0.13452882 0.26023757 -0.033329688 -0.2661614 -0.2119533 0.31751382
-0.11910148 -0.26551834 0.01484187 -0.19507684 -0.0164274 0.14484805 -0.36093956 -0.20675488
0.3629774 0.23328523 -0.26053903 0.0445444 -0.20777288 -0.19028328 0.22941773 0.14732394
00000000: 2704 7cbe 1114 6abd 5014 6abe 22ca 1e3e
00000010: 5a64 eb3c 0299 c9bd 663a 033e b457 a1be
00000020: 9bc6 5fbe 658c 973e 82cd 0e3e 9b50 4bbe
00000030: 446f 743e 3302 a53d 6e4e 843e feb0 6abe
00000040: 3a6f 673e 7305 923e 5c99 8a3e f7ff 9a3e
00000050: f898 5bbe c052 94be 52ef fb3d 80ee aa3e
00000060: 3564 49be 6c02 8fbd 010a 803e 26d5 0cbe
00000070: 0207 953e efec 013e 6b55 a7be 85c1 59be
00000080: e8f8 ba3e 4bd2 963e fa3f b43c 2dfc b5be
00000090: 076f 6fbe 321a 6a3e 7cf6 c8bc 3441 6c3d
000000a0: 84a9 8b3e 5873 5dbe ecc1 09be dc3d 853e
000000b0: b684 08bd 4f46 88be 490a 59be 2c91 a23e
000000c0: 7aeb f3bd 05f2 87be 512b 733c 39c2 47be
000000d0: c192 86bc 0c53 143e 12cd b8be 8db7 53be
000000e0: 2cd8 b93e 53e2 6e3e 5f65 85be 3074 363d
000000f0: 6ac2 54be 9fd9 42be 7bec 6a3e 16dc 163e

mlp2.layers.6.bias f4 [2]
0.14494789 -0.063007355
00000000: 386d 143e 000a 81bd
