weights/weights_MOCA_Uniform_B.pt (torch, 52845 bytes, 14 tensors)

baseModel.mlp1.layers.0.weight f4 [32, 20]
-0.024674663 -0.16080901 -0.0256912 -0.14433405 -0.17629357 -0.055254303 -0.010116465 0.061816823
-0.070154704 0.013186582 0.055790603 0.008321893 -0.013363386 0.18927209 0.21226795 0.07209318
-0.12039152 0.11793344 0.1833099 -0.2277211 -0.12389653 0.18406026 0.19413416 0.11203773
-0.17389908 0.21542625 0.117043376 -0.052414242 0.17155164 0.039880034 0.07200109 -0.16146474
0.121002145 -0.23028006 -0.26954234 -0.23773518 0.080865815 0.01692244 0.19442493 -0.11843205
-0.2008154 -0.19001272 -0.040791124 0.1416584 -0.018379545 0.07165656 -0.06737361 -0.11179052
-0.19558874 0.0796894 -0.026384179 -0.02594803 0.18670642 0.17547773 -0.04385153 -0.088865824
-0.034043867 0.23845135 -0.091791295 0.1937512 0.11971586 0.13317671 0.25899994 -0.170609
0.027814917 -0.14348441 0.048372447 -0.017903123 -0.23339842 0.1145182 0.0888188 -0.123331346
0.1285404 -0.091783114 -0.02988797 -0.19484091 -0.048805743 -0.08764931 -0.14320618 0.25126815
-0.0125409905 -0.026227314 -0.17160143 0.23145212 -0.033835437 -0.20498864 -0.030677268 -0.08354194
0.10478551 -0.020419748 -0.10932711 -0.0071323775 0.06916194 0.185709 -0.2904621 -0.028093163
0.07397287 0.25078845 -0.012124198 0.034572452 0.041373476 -0.11477561 -0.18797413 -0.110612586
0.19399579 0.15874903 0.19380116 0.046183072 0.03178914 -0.15345976 0.03887431 -0.101743
-0.10171667 0.15953963 0.19470593 -0.06651032 -0.2271784 0.096643664 -0.016996317 -0.039930776
0.061199114 0.075674534 0.044444382 -0.09914327 -0.00037669507 0.05209629 -0.23608677 0.22916158
0.049782656 -0.22261193 -0.033904865 0.021214513 -0.015579126 0.104801215 -0.10445413 0.01640679
0.24692248 -0.22684674 0.25923982 0.16865009 -0.122213244 -0.039652254 0.17851344 -0.102753855
-0.10629231 -0.016497241 -0.21097673 -0.049366288 -6.82636e-05 0.25377584 0.22371115 0.059295923
-0.10001798 -0.14087017 0.14778712 0.028745212 0.02977206 0.2626443 0.28417355 0.05033709
0.09143731 0.053294703 0.18422723 -0.07317211 0.14297865 -0.2121728 -0.121393085 -0.046195716
0.083517805 -0.041152187 -0.015140038 0.12565403 -0.08259015 0.16882618 0.3060654 -0.049775187
-0.043734893 -0.24303195 0.17338447 -0.007727265 -0.21890482 -0.1637784 0.19005263 -0.018720178
-0.18789615 0.25647414 -0.0060682655 0.115025096 0.1485793 -0.016213838 -0.21593243 -0.043508146
-0.013751648 -0.21466313 0.1320878 0.15991983 -0.0075385477 0.14514981 0.08531855 -0.10687753
-0.102233455 0.24821132 0.06654222 -0.19937117 0.07424423 -0.25837472 -0.042204343 0.023769893
-0.053896364 0.10303971 -0.23701432 0.2754317 -0.086704165 0.13689898 -0.27595302 0.16223724
0.02801632 -0.15335774 -0.023818934 -0.22205392 0.1427302 -0.034257106 0.13698693 -0.032802947
-0.26907116 0.24507996 -0.19453484 -0.19609135 0.19923505 0.04259702 0.1323581 0.11084158
0.11739668 0.05816428 -0.19296668 0.063251086 0.1296936 -0.075117856 -0.22588417 0.1253745
0.07713926 -0.011844537 0.17680119 0.038797256 -0.20477144 -0.12007095 0.22602083 -0.1964781
-0.15653217 -0.18116999 -0.14922237 0.28374758 0.25387836 0.028886065 0.29999563 0.20139478
00000000: 8522 cabc 1eab 24be 5a76 d2bc 4ecc 13be
00000010: 4d86 34be 5652 62bd 88bf 25bc a333 7d3d
00000020: 45ad 8fbd 890c 583c b084 643d 8d58 083c
00000030: 1af2 5abc 8bd0 413e c55c 593e 97a5 933d
00000040: d48f f6bd 1687 f13d 97b5 3b3e b82f 69be
00000050: 77bd fdbd 4b7a 3c3e 1bcb 463e 0a74 e53d
00000060: 9a12 32be b398 5c3e 70b4 ef3d 51b0 56bd
00000070: 3cab 2f3e 3f59 233d 4f75 933d 0357 25be
00000080: f9cf f73d 89ce 6bbe 7401 8abe da70 73be
00000090: fa9c a53d eea0 8a3c 5417 473e 818c f2bd
000000a0: 8da2 4dbe b292 42be 9814 27bd e60e 113e
000000b0: b390 96bc adc0 923d 2dfb 89bd 6ef2 e4bd
000000c0: 6a48 48be 3234 a33d a223 d8bc f790 d4bc
000000d0: f82f 3f3e 6fb0 333e a99d 33bd 49ff b5bd
000000e0: 9571 0bbd 972c 743e 13fd bbbd b766 463e
000000f0: 972d f53d 7a5f 083e a49b 843e 20b4 2ebe
00000100: 1cdc e33c 94ed 12be 3022 463d 92a9 92bc
00000110: ffff 6ebe 8588 ea3d a2e6 b53d 2595 fcbd
00000120: 18a0 033e c9f8 bbbd 9ed7 f4bc 6084 47be
00000130: 88e8 47bd 7b81 b3bd a4a4 12be 38a6 803e
00000140: ba78 4dbc aada d6bc 49b8 2fbe c901 6d3e
00000150: 0797 0abd 8be8 51be e54e fbbc 0918 abbd
00000160: c999 d63d 5147 a7bc e4e6 dfbd b8b6 e9bb
00000170: c6a4 8d3d 802a 3e3e 73b7 94be a223 e6bc
00000180: 177f 973d 5867 803e 92a4 46bc d89b 0d3d
00000190: 3c77 293d 7a0f ebbd 4a7c 40be da88 e2bd
000001a0: d5a6 463e 1b8f 223e d073 463e 762a 3d3d
000001b0: 5435 023d 8e24 1dbe ab3a 1f3d a25e d0bd
000001c0: d450 d0bd 5b5e 233e fe60 473e 9036 88bd
000001d0: 74a1 68be 1ded c53d dc3b 8bbc 748e 23bd
000001e0: ecab 7a3d 40fb 9a3d 500b 363d a00b cbbd
000001f0: 287f c5b9 eb62 553d bbc0 71be 55a9 6a3e
00000200: e6e8 4b3d 62f4 63be d4df 0abd 0fca ad3c
00000210: 973f 7fbc 05a2 d63d 0cec d5bd 8867 863c
00000220: 3fd9 7c3e 834a 68be 15bb 843e 9cb2 2c3e
00000230: f04a fabd 676a 22bd 3acc 363e 9d70 d2bd
00000240: c8af d9bd 3925 87bc 490a 58be 4e34 4abd
00000250: be28 8fb8 e8ee 813e 8914 653e 48e0 723d
00000260: 3ad6 ccbd 4540 10be 8255 173e 147b eb3c
00000270: 89e4 f33c 5079 863e 327f 913e 442e 4e3d
00000280: 7c43 bb3d 8c4b 5a3d 10a6 3c3e 42db 95bd
00000290: ff68 123e d443 59be f09c f8bd b837 3dbd
000002a0: 620b ab3d 328f 28bd ec0d 78bc 73ab 003e
000002b0: 0625 a9bd c5e0 2c3e 9bb4 9c3e 11e1 4bbd
000002c0: 5c23 33bd 5edd 78be b38b 313e ff34 fdbb
000002d0: 9628 60be 86b5 27be 289d 423e 0f5b 99bc
000002e0: d967 40be 9450 833e 4dd8 c6bb 4792 eb3d
000002f0: 2c25 183e e2d2 84bc 641d 5dbe 9935 32bd
00000300: 984e 61bc a7d0 5bbe 0642 073e 06c2 233e
00000310: ec05 f7bb 27a2 143e 7ebb ae3d 9be2 dabd
00000320: c65f d1bd 1c2b 7e3e 4a47 883d f527 4cbe
00000330: 5c0d 983d b149 84be 76de 2cbd 14b9 c23c
00000340: 6fc2 5cbd 7c06 d33d e2b3 72be 6205 8d3e
00000350: f491 b1bd 3f2f 0c3e b749 8dbe 8521 263e
00000360: 7b82 e53c d009 1dbe ed1f c3bc 1a62 63be
00000370: de27 123e 2e51 0cbd 4d46 0c3e 625c 06bd
00000380: b2c3 89be 3ef6 7a3e 2434 47be 2ccc 48be
00000390: 4604 4c3e 367a 2e3d e288 073e e900 e33d
000003a0: ac6d f03d ab3d 6e3d 0f99 45be c989 813d
000003b0: 66ce 043e 64d7 99bd 2e4e 67be 2c62 003e
000003c0: 30fb 9d3d 970f 42bc 5f0b 353e dfe9 1e3d
000003d0: 9baf 51be c2e7 f5bd 0172 673e 8e31 49be
000003e0: f849 20be a084 39be c0cd 18be 5d47 913e
000003f0: 58fc 813e 78a2 ec3c 0799 993e 6f3a 4e3e

baseModel.mlp1.layers.0.bias f4 [32]
0.031904858 0.0056340294 -0.120297626 0.17947698 0.012578119 -0.15763819 0.03423583 0.19951805
0.084328294 -0.017714515 -0.04782113 0.06290848 0.14930347 -0.026341261 -0.07966754 0.16936177
-0.07783292 0.042868428 0.17319097 0.18640716 -0.10556917 -0.041581605 0.017467642 -0.14194182
0.14906703 -0.10980017 0.030690715 0.08071153 0.12570792 -0.12650038 0.05446465 -0.13654442
00000000: abae 023d aa9d b83b 9a5e f6bd d0c8 373e
00000010: 7414 4e3c e86b 21be df3a 0c3d 764e 4c3e
00000020: 50b4 ac3d 081e 91bc 17e0 43bd 29d6 803d
00000030: 02e3 183e a1c9 d7bc bc28 a3bd 2c6d 2d3e
00000040: de66 9fbd ce96 2f3d f958 313e 85e1 3e3e
00000050: a634 d8bd 7951 2abd 4d18 8f3c 3259 11be
00000060: 07a5 183e e9de e0bd 186b fb3c 164c a53d
00000070: 94b9 003e 5189 01be 5316 5f3d 4dd2 0bbe

baseModel.mlp1.layers.2.weight f4 [64, 32]
0.025418404 0.09123762 0.120961726 -0.17844595 -0.057694245 0.15854707 -0.14376356 -0.0765815
0.11463328 -0.21896183 0.104333416 -0.016594153 0.10249787 -0.020702872 -0.06194396 0.18988751
0.16584077 0.12765537 -0.0697793 -0.09549768 0.0057172715 -0.2168744 -0.10475979 0.07273668
-0.06981528 0.12801063 0.08487253 -0.16689995 0.14361328 0.031042637 -0.12312293 -0.04740041
-0.010476953 -0.032920495 -0.070185006 0.039556887 0.088031694 -0.05218552 -0.052741546 -0.016239818
-0.08134641 -0.04465224 0.04671825 -0.18660367 -0.28021812 0.014153687 -0.08540945 -0.12784874
-0.09914882 0.06512299 0.033340327 0.11976618 0.16440064 0.023057977 -0.038426466 0.20534989
0.08628793 -0.11559071 -0.19407526 0.020485003 0.14238939 -0.2599286 0.07058485 0.053480435
-0.07983751 0.019631926 -0.044859324 -0.09299365 -0.0089417435 0.12354179 -0.004073643 -0.13533238
0.067468226 0.18117233 -0.28713572 -0.18756782 -0.13669929 -0.23894061 -0.34990773 -0.10710044
-0.13168488 0.027624264 0.17419818 0.08512797 -0.101244695 0.030962806 0.105703495 0.024368748
0.08477558 0.059656512 -0.027964922 -0.31548625 -0.124405414 0.21192302 -0.0019346806 -0.08597839
-0.13997234 -0.19143179 0.2106381 0.037730224 -0.0080219805 0.16761772 0.00709446 -0.12982932
-0.0620966 -0.04449593 -0.033972684 0.064270064 -0.15074211 0.012200687 -0.02986627 0.06307173
-0.0943049 -0.14247112 0.21389353 0.07330623 -0.10574649 -0.1311069 0.0584508 -0.28209955
-0.09703942 0.06836396 0.12986688 -0.022309242 0.0455248 -0.13763483 0.12562275 -0.03258366
0.22179139 0.098376825 0.00789028 0.0045877616 0.08481728 -0.07879639 -0.09833042 0.08666858
-0.21444774 0.13639984 -0.19837151 0.18446155 0.1459511 -0.31667808 0.109863035 -0.07814328
-0.058170304 0.17562282 -0.051874995 -0.015727514 -0.16757038 -0.18091345 0.16895522 -0.011088667
-0.050453678 -0.11553766 0.10990929 -0.16204931 -0.17407405 0.106984384 0.21330939 -0.04769215
0.029930951 -0.0179198 0.08997555 -0.004736274 0.15473759 0.053689573 -0.11042807 0.105264805
0.08406456 -0.031341873 -0.104478106 -0.09206565 -0.18298015 -0.058464013 0.10756453 -0.012260773
-0.07795722 0.033549186 -0.094731815 -0.15189007 0.0025748955 0.09675841 -0.11327211 0.09479987
-0.04095502 -0.13306738 0.00012091649 -0.12727393 -0.09362778 0.17371593 0.118897185 0.03611865
0.014068887 0.055104382 -0.11042159 -0.054117277 0.039925776 0.08380236 -0.17958525 0.08357057
0.047385916 0.15583554 0.14459506 0.012444608 -0.010567487 -0.13584408 0.15247723 -0.01097047
-0.21228889 -0.035202127 0.061053086 0.03160031 -0.08531503 0.0651694 -0.086580284 0.05324313
0.1707771 0.20816036 -0.17992319 0.029799568 0.112489074 0.036950104 0.05302015 -0.03938771
0.14671661 -0.128607 0.13861974 -0.18737124 -0.1537101 -0.012429683 -0.09767729 -0.087496
-0.027701782 -0.25026327 -0.1488039 -0.29730296 0.15523058 0.048374757 0.16443305 -0.0475067
-0.10004505 -0.024604538 0.023964092 -0.04960209 0.10472196 -0.059023593 0.05816003 0.10029221
-0.028009757 -0.020161718 0.1434525 0.03216224 -6.643384e-05 0.17549364 -0.12621102 -0.04465145
00000000: 423a d03c cada ba3d c8ba f73d 89ba 36be
00000010: cd50 6cbd 2a5a 223e c136 13be c3d6 9cbd
00000020: dac4 ea3d 8837 60be c2ac d53d 76f0 87bc
00000030: 67ea d13d 1299 a9bc f3b8 7dbd df71 423e
00000040: 2ad2 293e 17b8 023e 73e8 8ebd 4a94 c3bd
00000050: f357 bb3b 5314 5ebe 4d8c d6bd f8f6 943d
00000060: 50fb 8ebd 3815 033e a6d1 ad3d d2e7 2abe
00000070: 5c0f 133e 214d fe3c e027 fcbd ef26 42bd
00000080: 87a7 2bbc a4d7 06bd 28bd 8fbd 6706 223d
00000090: f649 b43d 7cc0 55bd 8507 58bd 5e09 85bc
000000a0: f298 a6bd 44e5 36bd a35b 3f3d 0815 3fbe
000000b0: c078 8fbe dee4 673c 26eb aebd c8ea 02be
000000c0: 890e cbbd 345f 853d de8f 083d f947 f53d
000000d0: a458 283e 15e4 bc3c 1265 1dbd 3e47 523e
000000e0: bab7 b03d d2ba ecbd aabb 46be 2ad0 a73c
000000f0: 86ce 113e 5d15 85be ca8e 903d 4d0e 5b3d
00000100: d981 a3bd 22d3 a03c 69be 37bd 7473 bebd
00000110: 6480 12bc 7a03 fd3d 327c 85bb 9294 0abe
00000120: c82c 8a3d 3d85 393e 7403 93be c711 40be
00000130: e6fa 0bbe d9ac 74be 1b27 b3be 7a57 dbbd
00000140: 67d8 06be 484c e23c 0261 323e 9357 ae3d
00000150: 6159 cfbd b6a5 fd3c 137b d83d f8a0 c73c
00000160: d29e ad3d 635a 743d b116 e5bc 6a87 a1be
00000170: 44c8 febd 5902 593e 1c95 fdba 7015 b0bd
00000180: e954 0fbe b206 44be 84b1 573e 028b 1a3d
00000190: a06e 03bc fba3 2b3e a578 e83b faf1 04be
000001a0: 0159 7ebd 5d41 36bd f126 0bbd 06a0 833d
000001b0: 245c 1abe 64e5 473c 1caa f4bc c02b 813d
000001c0: ed22 c1bd f3e3 11be e806 5b3e 9421 963d
000001d0: 9e91 d8bd e340 06be 1b6a 6f3d 5a6f 90be
000001e0: 9abc c6bd 6702 8c3d d3fb 043e dfc1 b6bc
000001f0: 3678 3a3d 25f0 0cbe 40a3 003e 7276 05bd
00000200: 481d 633e ca79 c93d 3c46 013c ef54 963b
00000210: afb4 ad3d 0060 a1bd 7661 c9bd 4c7f b13d
00000220: 3098 5bbe 66ac 0b3e e721 4bbe 7de3 3c3e
00000230: 3574 153e a123 a2be dfff e03d 9609 a0bd
00000240: fc43 6ebd 78d6 333e e07a 54bd fdd6 80bc
00000250: 9297 2bbe 6041 39be 9902 2d3e 3ead 35bc
00000260: 84a8 4ebd 029f ecbd 1f18 e13d 41f0 25be
00000270: 7840 32be a11a db3d c76d 5a3e d858 43bd
00000280: c131 f53c 8bcc 92bc 1a45 b83d bf32 9bbb
00000290: 8873 1e3e 99e9 5b3d 1d28 e2bd 1395 d73d
000002a0: 0a2a ac3d 5660 00bd 9ef8 d5bd ea8c bcbd
000002b0: 265f 3bbe f677 6fbd cb4a dc3d 69e1 48bc
000002c0: 09a8 9fbd df6a 093d c102 c2bd 1289 1bbe
000002d0: 94bf 283b 4629 c63d 35fb e7bd 6f26 c23d
000002e0: 73c0 27bd d142 08be 8c94 fd38 1954 02be
000002f0: ecbf bfbd 97e2 313e 5e80 f33d 26f1 133d
00000300: 3081 663c 22b5 613d b724 e2bd 14aa 5dbd
00000310: 3689 233d 92a0 ab3d 32e5 37be 0c27 ab3d
00000320: bc17 423d 5a93 1f3e ba10 143e 78e4 4b3c
00000330: 4123 2dbc b61a 0bbe fe22 1c3e 7cbd 33bc
00000340: 4262 59be 1b30 10bd cd12 7a3d 546f 013d
00000350: a5b9 aebd 8977 853d 0151 b1bd 7815 5a3d
00000360: 31e0 2e3e fd27 553e c93d 38be 391e f43c
00000370: ac60 e63d fe58 173d a82b 593d 0255 21bd
00000380: e13c 163e 8eb1 03be 55f2 0d3e 3fde 3fbe
00000390: 2e66 1dbe dea5 4bbc 080b c8bd 1a31 b3bd
000003a0: d9ee e2bc 8222 80be 0d60 18be 1838 98be
000003b0: c4f4 1e3e 9c24 463d 2361 283e 6396 42bd
000003c0: 6be4 ccbd 758f c9bc 5850 c43c 902b 4bbd
000003d0: 7878 d63d b9c2 71bd 3639 6e3d 0166 cd3d
000003e0: b874 e5bc 302a a5bc 36e5 123e 8ebc 033d
000003f0: 6552 8bb8 9bb4 333e 763d 01be 70e4 36bd

baseModel.mlp1.layers.2.bias f4 [64]
0.13471282 0.14226922 0.09414843 0.04810415 -0.15778472 0.08480809 0.10790511 0.081968516
0.03755973 0.11572649 -0.021477684 -0.08932877 -0.039320994 0.086258404 0.090573765 0.1641336
0.07186729 0.07674136 0.16103338 -0.15802097 0.20731045 -0.05808827 0.13811131 -0.045450035
0.090529054 0.062105622 0.03799156 -0.16431095 0.15248254 0.0030479701 -0.14867674 -0.099772744
-0.108910166 -0.115505636 0.22173154 -0.09378343 -0.059629932 0.1788849 -0.0027960674 0.11768615
-0.05084557 -0.059320226 -0.025418133 -0.027532617 0.2594723 -0.014705324 0.21937205 0.119169414
0.10747473 -0.013675139 0.111873806 0.15019651 0.11999984 0.19435284 -0.033365704 0.018744271
-0.0061641545 0.00932256 0.07524997 -0.18598025 -0.121821985 -0.15169771 0.07613369 0.09897848
00000000: 28f2 093e 06af 113e e4d0 c03d db08 453d
00000010: 5192 21be ddaf ad3d 5bfd dc3d 1cdf a73d
00000020: 3bd8 193d 0302 ed3d f8f1 afbc 01f2 b6bd
00000030: 0d0f 21bd 3fa8 b03d bd7e b93d a312 283e
00000040: 282f 933d 932a 9d3d efe5 243e 40d0 21be
00000050: 3149 543e f7ed 6dbd 0d6d 0d3e d129 3abd
00000060: 4c67 b93d 7762 7e3d 0a9d 1b3d 2141 28be
00000070: 6224 1c3e 74c0 473b b73e 18be a755 ccbd
00000080: 4b0c dfbd 388e ecbd 980d 633e 8711 c0bd
00000090: 843e 74bd 9a2d 373e 3a3e 37bb 7005 f13d
000000a0: 7243 50bd c4f9 72bd b039 d0bc 158c e1bc
000000b0: 8ed9 843e 99ee 70bc 11a3 603e 180f f43d
000000c0: b61b dc3d b10d 60bc 181e e53d 1dcd 193e
000000d0: 7ac2 f53d 6e04 473e 7aaa 08bd 968d 993c
000000e0: adfc c9bb a7bd 183c a81c 9a3d 9b71 3ebe
000000f0: ce7d f9bd a556 1bbe fbeb 9b3d 3bb5 ca3d

baseModel.mlp1.layers.4.weight f4 [32, 64]
0.124359705 -0.069551826 0.04430368 0.043054964 0.10993682 0.07824739 -0.09338903 0.00852989
-0.0818916 -0.036274567 -0.19616315 0.10504606 0.0688903 0.19190344 0.028656622 0.049081847
0.03304304 -0.10465249 0.039040577 -0.06658824 0.04236063 0.021644695 -0.052600645 0.108400874
-0.076848045 -0.12563287 0.14230864 -0.042104617 0.030364702 -0.11721297 0.03125609 0.071798205
0.040164664 -0.19070488 -0.01903291 0.098918006 -0.13191876 0.003660241 -0.032323744 -0.095102236
0.06018551 0.17815645 -0.2363174 -0.11299029 -0.008314797 -0.1315833 0.0481072 0.07065128
-0.058703877 -0.2386778 0.09077285 0.019176781 0.09033944 0.089970626 -0.018850863 0.039209116
0.030656 0.15667282 -0.021797674 -0.043421675 0.060215607 -0.22771138 -0.05746843 0.05788636
-0.11061212 -0.11306584 -0.17125045 -0.068820864 0.013439252 0.032757655 0.096022666 -0.15412344
-0.028080292 0.13497287 -0.03934634 0.021723242 0.037784178 -0.024510562 0.13266942 0.12091226
0.11801502 -0.029471526 -0.054938566 0.137401 -0.03403886 0.046498537 -0.031807244 -0.17390221
0.12930919 -0.15055826 -0.07872744 0.14253551 -0.09878092 0.12588781 0.08738567 0.09847422
0.007842381 -0.097293876 0.023892876 0.12790355 -0.06228033 0.11752666 -0.03756617 0.07783244
0.011479573 -0.17315769 0.095829904 0.097017385 0.13381664 0.14903308 -0.06438012 -0.09313089
-0.03717731 0.13008781 -0.06253122 0.072591946 0.09221668 -0.078668244 -0.0053756004 -0.15683535
0.107954815 0.10938875 -0.07646678 0.12297954 -0.12958342 0.017777812 0.101874925 -0.06709975
0.1180384 0.069632314 0.09358117 -0.11275204 -0.09015656 -0.038217984 -0.10067985 0.11259115
0.01335472 0.082293086 0.057342988 -0.034825154 -0.08741466 -0.102407716 -0.055121113 0.08499275
0.16483787 0.11350141 0.040948402 -0.028819015 0.041939173 -0.01575268 0.08394891 -0.03606384
0.14625186 0.13795064 -0.06985819 -0.113173604 -0.104421884 0.036189426 -0.037942674 -0.060719203
-0.077584654 0.177389 -0.17670806 0.011368639 -0.06764073 0.164772 0.12219957 -0.061895315
-0.13289957 -0.16787127 -0.14375946 0.0671968 0.08912066 -0.15119562 -0.11223812 -0.0035560601
0.088591225 -0.06200414 0.15091792 0.0008401311 -0.025656762 -0.16300888 -0.008971175 -0.08633556
-0.13403697 -0.01721639 0.07838381 -0.03974756 -0.14260039 0.079909384 0.0023421738 0.22364897
0.03276959 0.022257416 0.12964863 -0.0619002 0.14722432 0.13380711 0.04227122 -0.07635199
0.024140714 0.013280376 -0.06541105 0.048734184 0.025044175 0.059864588 -0.0546372 0.120272994
-0.079775766 0.018154854 0.025046263 0.056426805 0.0647933 -0.017217599 0.04201703 0.12450612
-0.18118104 0.117521904 -0.047841482 0.0044952813 -0.0065645124 -0.09199966 0.04310191 -0.16172966
-0.20840712 0.011170956 0.061517015 -0.113838255 -0.005453389 -0.12813446 0.06797863 -0.12246581
-0.10894602 0.12303377 -0.13306308 -0.06405579 -0.1848793 -0.047956724 0.106690414 -0.06602186
-0.11439581 -0.033308182 0.0598834 -0.13162705 0.122530624 0.13698058 -0.09464925 0.043359835
-0.09585231 0.079563625 0.01553448 -0.08480748 0.01709885 0.013199958 0.12238263 -0.12428613
00000000: 4db0 fe3d 3071 8ebd c777 353d 675a 303d
00000010: 8e26 e13d 2b40 a03d bf42 bfbd f4c0 0b3c
00000020: c8b6 a7bd a494 14bd fede 48be 6422 d73d
00000030: 5c16 8d3d 5682 443e 4bc1 ea3c 0c0a 493d
00000040: 2458 073d 0b54 d6bd 03e9 1f3d 6a5f 88bd
00000050: 5782 2d3d 3750 b13c c673 57bd 4701 de3d
00000060: 8262 9dbd e7a5 00be 5bb9 113e e475 2cbd
00000070: 65bf f83c 5b0d f0bd 6306 003d f00a 933d
00000080: b483 243d 2448 43be e8ea 9bbc 8695 ca3d
00000090: b615 07be a7e0 6f3b e765 04bd f6c4 c2bd
000000a0: 1585 763d a56e 363e 30fd 71be 7467 e7bd
000000b0: c93a 08bc c6bd 06be 0e0c 453d 9eb1 903d
000000c0: 7a73 70bd f467 74be 1ee7 b93d a018 9d3c
000000d0: e203 b93d 8542 b83d 206d 9abc bd99 203d
000000e0: 4b22 fb3c d76e 203e 0991 b2bc edda 31bd
000000f0: a4a4 763d 2c2d 69be 0464 6bbd 3f1a 6d3d
00000100: 9b88 e2bd 108f e7bd 475c 2fbe f4f1 8cbd
00000110: 4f30 5c3c e42c 063d 88a7 c43d 89d2 1dbe
00000120: a408 e6bc 5436 0a3e a129 21bd f1f4 b13c
00000130: 95c3 1a3d 60ca c8bc 7eda 073e d9a0 f73d
00000140: dcb1 f13d 456e f1bc 4307 61bd d9b2 0c3e
00000150: 556c 0bbd 4075 3e3d 5048 02bd 6c13 32be
00000160: a169 043e f22b 1abe da3b a1bd d4f4 113e
00000170: a74d cabd bce8 003e 42f7 b23d daac c93d
00000180: 547d 003c 0342 c7bd feba c33c 26f9 023e
00000190: a919 7fbd d1b1 f03d fcde 19bd 9d66 9f3d
000001a0: d214 3c3c 4050 31be 7842 c43d 0db1 c63d
000001b0: 3b07 093e 219c 183e b9d9 83bd 68bb bebd
000001c0: 3c47 18bd bd35 053e 5e10 80bd 16ab 943d
000001d0: 19dc bc3d d11c a1bd ce25 b0bb 7299 20be
000001e0: 6a17 dd3d 3507 e03d 9d9a 9cbd b2dc fb3d
000001f0: 84b1 04be c6a2 913c cda3 d03d 986b 89bd
00000200: 1ebe f13d 639b 8e3d 7ca7 bf3d 8bea e6bd
00000210: 01a4 b8bd 768a 1cbd 3d31 cebd 3096 e63d
00000220: c1cd 5a3c 4789 a83d 7be0 6a3d d2a4 0ebd
00000230: 7506 b3bd 23bb d1bd adc6 61bd ae10 ae3d
00000240: 42cb 283e 6d73 e83d 83b9 273d db15 ecbc
00000250: 69c8 2b3d c40b 81bc 68ed ab3d adb7 13bd
00000260: 0cc3 153e ef42 0d3e d011 8fbd 90c7 e7bd
00000270: 24db d5bd 5d3b 143d c769 1bbd b3b4 78bd
00000280: b4e4 9ebd 76a5 353e f5f2 34be 8743 3a3c
00000290: 3987 8abd feb9 283e c543 fa3d f185 7dbd
000002a0: d316 08be 72e6 2bbe ae35 13be 7a9e 893d
000002b0: e584 b63d 06d3 1abe 19dd e5bd ca0c 69bb
000002c0: 516f b53d 0ef8 7dbd 3a8a 1a3e 3e3c 5c3a
000002d0: 212e d2bc cdeb 26be d6fb 12bc b3d0 b0bd
000002e0: fd40 09be 6309 8dbc b187 a03d 56ce 22bd
000002f0: d605 12be 88a7 a33d 287f 193b 3c04 653e
00000300: 6839 063d 2f55 b63c 9cc2 043e 108b 7dbd
00000310: f9c1 163e bb04 093e 9624 2d3d 6f5e 9cbd
00000320: bfc2 c53c ef95 593c 3bf6 85bd 7f9d 473d
00000330: 7129 cd3c 9234 753d 42cb 5fbd b051 f63d
00000340: 7a61 a3bd 7db9 943c d22d cd3c cb1f 673d
00000350: 5ab2 843d ec0b 8dbc 0d1a 2c3d 11fd fe3d
00000360: 8687 39be 53af f03d 6ef5 43bd 274d 933b
00000370: 1f1b d7bb 516a bcbd a18b 303d 769c 25be
00000380: ad68 55be 6306 373c 44f9 7b3d 0824 e9bd
00000390: 58b2 b2bb ae35 03be 6138 8b3d 5bcf fabd
000003a0: 171f dfbd 21f9 fb3d b041 08be af2f 83bd
000003b0: 0051 3dbe 456e 44bd 8180 da3d 7836 87bd
000003c0: 5a48 eabd 296e 08bd 4c48 753d 3ec9 06be
000003d0: 56f1 fa3d a344 0c3e 77d7 c1bd 159a 313d
000003e0: 374e c4bd 41f2 a23d 5584 7e3c 8baf adbd
000003f0: e312 8c3c a344 583c bfa3 fa3d ba89 febd

baseModel.mlp1.layers.4.bias f4 [32]
-0.024077818 -0.10396612 0.06156086 -0.14482148 -0.18954875 -0.13564897 -0.056972355 0.043036222
0.01776874 0.0761975 0.01522489 -0.006716254 0.05051079 0.20257318 -0.050991826 -0.07522646
0.14376685 0.0872967 -0.21695271 0.10842079 -0.057648197 0.13924874 -0.37003613 0.12818716
0.09969015 0.15200388 -0.13380478 0.050619617 0.098662816 0.10566022 -0.076433875 0.06805934
00000000: d83e c5bc 30ec d4bd 3e27 7c3d 154c 14be
00000010: 1119 42be 90e7 0abe d85b 69bd c046 303d
00000020: c08f 913c 6f0d 9c3d d171 793c 0614 dcbb
00000030: 67e4 4e3d 586f 4f3e cedc 50bd 5510 9abd
00000040: 9e37 133e 9dc8 b23d da28 5ebe b80b de3d
00000050: 8420 6cbd 3997 0e3e 6075 bdbe 7f43 033e
00000060: 592a cc3d e8a6 1b3e 1f04 09be 8456 4f3d
00000070: bb0f ca3d 6364 d83d 5d89 9cbd b262 8b3d

baseModel.mlp2.layers.0.weight f4 [32, 84]
0.066120364 -0.015093716 0.104958504 -0.17275079 0.09267553 0.22555499 0.025159854 -0.08635721
0.1412109 0.039510377 0.08549059 -0.009260616 0.096251555 -0.004621855 -0.00173361 -0.057220943
-0.054242305 -0.061709873 -0.09265775 -0.08741855 0.010532831 -0.059947938 -0.027703118 -0.007523912
0.04164156 0.05225137 -0.0077052126 -0.026019508 -0.015278679 0.011267866 -0.022023594 0.102467604
0.039428968 -0.14780252 0.055690095 0.054190554 0.0215979 -0.007311987 0.06421532 -0.10592825
-0.080691144 0.020789461 0.07341236 -0.11738026 -0.06400289 -0.0027279728 0.09278582 0.08127152
-0.0431751 -0.04259283 0.09546414 -0.11762159 -0.032825623 -0.03298536 0.029451044 -0.08774382
-0.034883402 0.027641816 0.120521046 -0.09643706 -0.0057814857 -0.029879775 0.069981635 -0.042331982
0.0715336 0.10144326 -0.01210697 -0.19208744 0.06477624 0.05346889 -0.076671965 0.14597227
0.049886364 0.106394924 -0.14992902 0.07824096 -0.03529174 0.09981212 -0.07421934 -0.05190174
0.036218967 0.07674956 -0.09070552 0.036631607 0.07030908 -0.030927695 -0.04422688 -0.0056236014
0.03206281 0.18444921 -0.10351984 -0.06799257 0.036087587 0.12806554 0.0737645 -0.15769608
0.11392089 0.042496502 0.06517892 -0.1532329 0.099940725 0.22318825 -0.07003836 -0.042881247
-0.25241467 0.1189784 0.29380238 -0.21968098 0.09547178 0.09634688 0.06680598 0.039989144
0.06443287 -0.008045286 -0.058714468 0.005035237 0.19000958 0.113272056 0.0067659183 -0.19937535
0.013251232 -0.086486846 -0.036159858 -0.06759929 0.20631303 0.021142207 0.003925542 -0.031800576
0.022259263 0.05578503 -0.01893799 0.114043646 -0.027045753 0.14675161 0.011214832 0.0114456
0.21080628 -0.091193736 -0.18876472 0.09929487 -0.032802586 0.0085408185 -0.06405944 -0.011507578
0.04429757 0.047689002 0.042165082 -0.057869438 -0.06323435 -0.046674635 -0.016562324 0.117458336
-0.00010619106 -0.0063301413 0.020974677 -0.042659104 -0.27316386 -0.12833154 0.058755375 -0.093862325
-0.02340402 -0.030506726 -0.051684506 -0.08436992 -0.13546667 -0.06913351 -0.016453011 -0.17328526
0.015909852 0.18950614 -0.0068284865 -0.035639234 0.080192775 -0.062426448 0.013401669 -0.15015733
0.12306746 0.012365141 -0.19182727 0.098689266 -0.029465146 -0.10405639 -0.0761203 -0.08042617
0.015850667 0.094715066 -0.07856478 0.025422234 -0.08742785 0.0016820389 -0.06320805 -0.0755083
-0.031431563 0.15604241 0.121911064 0.0733619 0.061666496 -0.02587774 -0.030624302 0.07535215
0.120234765 -0.020450331 -0.07752845 0.04678676 -0.13980168 -0.051575746 0.06878723 0.15700062
-0.06899194 -0.022176497 0.07036354 -0.12402466 -0.12018563 -0.01844873 0.04872895 0.057493497
-0.04048535 0.00714974 -0.10665956 -0.18557042 0.111164905 -0.044448342 0.022460293 -0.0917446
0.13599326 -0.07316159 -0.050939444 -0.09021149 -0.092563085 -0.056918886 -0.15805902 0.03266316
0.030319624 -0.06823015 0.03327641 0.07654178 -0.04162528 -0.1148745 -0.050515264 -0.09389555
-0.14287996 0.06387141 -0.06663636 -0.096647285 0.009120826 0.05571396 0.06020296 -0.09807786
-0.06203283 -0.036102455 -0.0663533 0.020779498 -0.10555402 -0.071152925 -0.04526467 0.050912287
00000000: 1d6a 873d a24b 77bc 7cf4 d63d 95e5 30be
00000010: abcc bd3d e3f7 663e 0a1c ce3c 0ddc b0bd
00000020: 9799 103e a2d5 213d b115 af3d d7b9 17bc
00000030: 891f c53d ee72 97bb 4d3a e3ba 8260 6abd
00000040: 2e2d 5ebd 7ec3 7cbd 59c3 bdbd 7f08 b3bd
00000050: e591 2c3c f88b 75bd a6f1 e2bc 268b f6bb
00000060: 5790 2a3d 8805 563d 027c fcbb dd26 d5bc
00000070: 6d53 7abc db9c 383c d36a b4bc 89da d13d
00000080: 4580 213d 8b59 17be 4c1b 643d eaf6 5d3d
00000090: 14ee b03c 6599 efbb 5283 833d e9f0 d8bd
000000a0: 6641 a5bd a94e aa3c 3859 963d 1065 f0bd
000000b0: f213 83bd cac7 32bb 7e06 be3d af71 a63d
000000c0: 60d8 30bd d275 2ebd b482 c33d 97e3 f0bd
000000d0: 2974 06bd a81b 07bd 5143 f13c 08b3 b3bd
000000e0: e6e1 0ebd 1771 e23c bdd3 f63d cb80 c5bd
000000f0: 9e72 bdbb 6ec6 f4bc 8852 8f3d 4d64 2dbd
00000100: 3580 923d 7cc1 cf3d 505c 46bc 92b2 44be
00000110: 68a9 843d 3202 5b3d 3106 9dbd c179 153e
00000120: a555 4c3d 95e5 d93d fe86 19be cc3c a03d
00000130: 128e 10bd 4c6a cc3d 4f00 98bd eb96 54bd
00000140: 575a 143d e02e 9d3d d1c3 b9bd 060b 163d
00000150: 35fe 8f3d 145c fdbc 3f27 35bd 3046 b8bb
00000160: 4b54 033d 41e0 3c3e 3602 d4bd b03f 8bbd
00000170: 94d0 133d 9d23 033e d811 973d 157b 21be
00000180: 5b4f e93d d010 2e3d 877c 853d 16e9 1cbe
00000190: b9ad cc3d 768b 643e 4670 8fbd 3fa4 2fbd
000001a0: 7f3c 81be f3aa f33d 446d 963e 0df4 60be
000001b0: b586 c33d 8351 c53d 93d1 883d a8cb 233d
000001c0: 61f5 833d 60d0 03bc 957e 70bd a1fe a43b
000001d0: df91 423e 2efb e73d a3b4 dd3b 0d29 4cbe
000001e0: b21b 593c 0420 b1bd 5c1c 14bd 7f71 8abd
000001f0: b943 533e 6c32 ad3c d5a1 803b 5241 02bd
00000200: 0f59 b63c d87e 643d d823 9bbc b78f e93d
00000210: 0e8f ddbc 0e46 163e 6abe 373c 5386 3b3c
00000220: 9add 573e c8c3 babd 8a4b 41be 1c5b cb3d
00000230: 015c 06bd caee 0b3c 9831 83bd 488a 3cbc
00000240: 5e71 353d 8b55 433d 4bb5 2c3d 8108 6dbd
00000250: 0381 81bd e72d 3fbd b6ad 87bc ff8d f03d
00000260: e4b2 deb8 136d cfbb 16d3 ab3c 50bb 2ebd
00000270: 22dc 8bbe 5869 03be 7aa9 703d e43a c0bd
00000280: cab9 bfbc 3ee9 f9bc 22b3 53bd 23ca acbd
00000290: c6b7 0abe df95 8dbd 77c8 86bc b171 31be
000002a0: 6155 823c e60d 423e 7fc1 dfbb 72fa 11bd
000002b0: 1c3c a43d e0b2 7fbd ad92 5b3c d8c2 19be
000002c0: cb0a fc3d 2997 4a3c 5e6e 44be 991d ca3d
000002d0: e460 f1bc 841b d5bd f6e4 9bbd 7ab6 a4bd
000002e0: 42d9 813c f9f9 c13d 92e6 a0bd 4a42 d03c
000002f0: 5f0d b3bd dc77 dc3a 3973 81bd 18a4 9abd
00000300: 62be 00bd 95c9 1f3e 82ac f93d c43e 963d
00000310: 0296 7c3d 8efd d3bc d1df fabc 3a52 9a3d
00000320: a53d f63d 7487 a7bc 3cc7 9ebd 79a3 3f3d
00000330: 2c28 0fbe 1741 53bd 52e0 8c3d c5c4 203e
00000340: a54b 8dbd 7cab b5bc c21a 903d a400 febd
00000350: e223 f6bd cb21 97bc 0298 473d 4d7e 6b3d
00000360: f7d3 25bd 5e48 ea3b 5470 dabd 2c06 3ebe
00000370: 6daa e33d 770f 36bd a6fe b73c 98e4 bbbd
00000380: d141 0b3e bed5 95bd e1a5 50bd cdc0 b8bd
00000390: b791 bdbd c723 69bd 39da 21be cec9 053d
000003a0: dc60 f83c 40bc 8bbd d84c 083d f0c1 9c3d
000003b0: 457f 2abd 5243 ebbd 18e9 4ebd 4f4c c0bd
000003c0: 204f 12be 04cf 823d a578 88bd 03ef c5bd
000003d0: 846f 153c 5234 643d 6197 763d 0cdd c8bd
000003e0: 2316 7ebd 2be0 13bd 3de4 87bd c439 aa3c
000003f0: b52c d8bd a0b8 91bd 7267 39bd 6789 503d

baseModel.mlp2.layers.0.bias f4 [32]
0.11172429 -0.100236505 -0.06413139 -0.07003579 -0.004308585 -0.027524011 -0.115139216 -0.012974741
0.049642194 0.09989887 -0.02223009 0.055789504 -0.045501538 -0.046725977 0.10080953 -0.06250346
-0.14841366 -0.08846424 -0.13890567 0.120442666 -0.016578509 0.12597673 0.028526291 0.06238889
0.10226291 -0.05865692 -0.016802585 -0.26017174 -0.09824338 -0.0601739 -0.046296567 -0.14317317
00000000: b4cf e43d cc48 cdbd 5157 83bd ed6e 8fbd
00000010: 082f 8dbb 097a e1bc 1cce ebbd 0294 54bc
00000020: 9d55 4b3d c797 cc3d e11b b6bc 8983 643d
00000030: d25f 3abd bd63 3fbd 3a75 ce3d d001 80bd
00000040: c0f9 17be bd2c b5bd 4a3d 0ebe a5aa f63d
00000050: a7cf 87bc 0b00 013e f8af e93c 7e8b 7f3d
00000060: 376f d13d 3d42 70bd 93a5 89bc 3b35 85be
00000070: d333 c9bd e878 76bd 78a1 3dbd fd9b 12be

baseModel.mlp2.layers.2.weight f4 [64, 32]
-0.035031646 0.029195467 -0.15397204 -0.10354607 -0.096333705 -0.23750548 -0.022851663 -0.04061064
-0.12306734 -0.16448262 0.04640107 -0.0035099504 -0.024493143 -0.047169987 -0.041953873 -0.0005084838
0.18507715 0.14672984 0.0502641 -0.020159263 0.086820334 0.1545486 -0.17065392 -0.116095364
0.04820487 0.04538283 -0.12521194 0.041097593 0.024246182 0.0686651 -0.037903056 -0.13042454
0.07692863 -0.1543827 0.12712634 0.16487378 -0.012731199 0.27415812 -0.0877507 0.1375414
-0.027370518 0.15356249 0.0020286834 0.23362273 -0.18673335 -0.0043134196 -0.12744978 0.20564604
-0.23123206 0.004562687 0.17243086 -0.06056687 -0.14162004 -0.101076804 0.06562133 0.08294796
0.18212135 -0.04156382 -0.041047666 -0.03907436 -0.13751727 -0.13160466 -0.07857691 -0.011756541
0.008402345 0.18805143 0.09775991 0.21438166 0.14757197 0.22471616 0.0933663 -0.051981326
0.05367608 0.032996614 -0.071217224 0.1540622 -0.012140161 -0.12248935 0.051860932 0.16629165
-0.0411291 -0.0056170668 -0.15461269 0.16071972 -0.03567752 0.15781023 -0.12485716 0.07901618
0.067370825 -0.041241903 -0.13052548 0.008880339 0.114008345 -0.0023793872 0.1697381 0.03316115
-0.2022132 -0.16264656 0.014670418 0.0219961 0.13112462 -0.066530645 -0.21581501 0.12919396
-0.036698494 -0.13639604 0.1331599 -0.1642536 0.044081446 0.015167119 0.0706126 -0.1628449
-0.049932715 0.097749665 -0.032894876 -0.14189667 0.13924657 -0.14985114 -0.18681307 -0.062305704
0.10554121 -0.23193069 0.18848562 0.12677641 -0.10773369 -0.06756751 -0.023220727 -0.051046915
0.18216065 -0.1715944 -0.0023697272 -0.1266336 -0.1703689 -0.19264661 -0.089298956 -0.17581727
0.076208994 0.23752636 0.13096814 0.08596109 -0.16705148 0.040372215 0.013066154 -0.16168693
-0.12303059 0.0060188984 -0.06283879 0.14934209 0.007874834 0.10712436 0.22068246 0.05449704
0.010478405 0.07975996 0.090211056 -0.11749678 0.1782645 0.14312325 0.2566938 0.056261215
-0.23645835 -0.031530514 0.044520114 0.1444991 -0.01840268 0.066989385 -0.122559704 0.17520727
0.057190936 -0.1155251 0.13438413 0.00050494645 -0.16548191 0.08939986 0.08528009 0.21420278
0.08335745 0.09723445 0.09593461 -0.14652918 -0.06645263 0.1252298 -0.0374528 0.19453155
-0.18787637 -0.02814855 -0.03770107 -0.036046825 -0.18333374 0.038239703 -0.019911138 -0.027711593
0.17913188 -0.14950134 0.18263744 -0.18122064 -0.0015367671 -0.01794772 -0.110663146 -0.08690074
0.10561561 0.024802245 0.20406474 -0.11964206 -0.17813873 0.22868645 -0.058739927 0.04640437
0.16768362 -0.0024301845 -0.07788652 0.2091144 0.13790618 0.010694909 0.00024284763 0.13517751
0.027578617 0.02552994 -0.19274914 -0.13262403 0.12611961 -0.0052606096 0.2277258 -0.08534137
0.08970135 -0.2399219 0.02597908 0.072128564 -0.16382553 -0.056506384 -0.12796924 -0.1083393
0.17522065 0.1432488 -0.14751977 0.07398181 0.07112561 0.03547735 -0.028779207 0.004518028
0.12182509 0.18574701 -0.035016704 0.09937744 -0.04581372 0.14674628 0.053975314 0.0015011305
0.08752815 0.1574324 0.017674379 -0.23386516 -0.033276714 0.12811366 0.18952239 0.08779438
00000000: 587d 0fbd 552b ef3c d9aa 1dbe f60f d4bd
00000010: 9b4a c5bd a334 73be 6933 bbbc 5857 26bd
00000020: bb0a fcbd 226e 28be 0c0f 3e3d 3207 66bb
00000030: d8a5 c8bc 5135 41bd d3d7 2bbd c54b 05ba
00000040: dd84 3d3e 5940 163e bbe1 4d3d 0a25 a5bc
00000050: dcce b13d fd41 1e3e e7bf 2ebe 68c3 edbd
00000060: 7872 453d 59e3 393d 8f37 00be f355 283d
00000070: ee9f c63c 4aa0 8c3d 3c40 1bbd 038e 05be
00000080: c28c 9d3d 8016 1ebe 682d 023e acd4 283e
00000090: 8596 50bc 745e 8c3e a4b6 b3bd a7d7 0c3e
000000a0: 2338 e0bc 7c3f 1d3e a9f3 043b cc3a 6f3e
000000b0: 0737 3fbe 9657 8dbb 3282 02be e094 523e
000000c0: 19c8 6cbe 9882 953b b791 303e f714 78bd
000000d0: d804 11be 5b01 cfbd 7a64 863d 9fe0 a93d
000000e0: 057e 3a3e d33e 2abd 9921 28bd 700c 20bd
000000f0: 54d1 0cbe 5fc3 06be eeec a0bd 829e 40bc
00000100: fda9 093c 8e90 403e 5936 c83d de86 5b3e
00000110: 1b1d 173e fe1b 663e d536 bf3d 5fea 54bd
00000120: 73db 5b3d 7527 073d 56da 91bd 7bc2 1d3e
00000130: 87e7 46bc b2db fabd 216c 543d 5c48 2a3e
00000140: fd76 28bd 5f0f b8bb ca52 1ebe b693 243e
00000150: 9722 12bd 0199 213e 1cb5 ffbd 3cd3 a13d
00000160: b7f9 893d 45ed 28bd 79a8 05be d77e 113c
00000170: 357d e93d 7eef 1bbb d3cf 2d3e fcd3 073d
00000180: fa10 4fbe d28c 26be 315c 703c 2a31 b43c
00000190: 8845 063e 3841 88bd 9cfe 5cbe 6c4b 043e
000001a0: 2951 16bd 67ab 0bbe 125b 083e 1932 28be
000001b0: bf8e 343d 827f 783c 579d 903d d0c0 26be
000001c0: 3f86 4cbd fa30 c83d c7bc 06bd 5c4d 11be
000001d0: a796 0e3e 9472 19be ed4b 3fbe 4434 7fbd
000001e0: fd25 d83d 3d7f 6dbe 6002 413e add1 013e
000001f0: 7ba3 dcbd d660 8abd 6539 bebc 9216 51bd
00000200: 5288 3a3e 71b6 2fbe 6d4d 1bbb 3dac 01be
00000210: 2f75 2ebe 2745 45be 5fe2 b6bd 7109 34be
00000220: 7613 9c3d 1c3a 733e 831c 063e 5e0c b03d
00000230: 8b0f 2bbe 565d 253d 6c13 563c 4291 25be
00000240: 76f7 fbbd 2e3a c53b a0b1 80bd 22ed 183e
00000250: 7305 013c 0464 db3d 95fa 613e 4a38 5f3d
00000260: 9ead 2b3c 3159 a33d 93c0 b83d 27a2 f0bd
00000270: f88a 363e e78e 123e 5f6d 833e 2972 663d
00000280: 2322 72be 2426 01bd b95a 363d 92f7 133e
00000290: 38c1 96bc bb31 893d 9500 fbbd 8969 333e
000002a0: 0b41 6a3d 6c98 ecbd fe9b 093e 625e 043a
000002b0: 1774 29be 4617 b73d 54a7 ae3d f957 5b3e
000002c0: 50b7 aa3d db22 c73d 5d79 c43d bf0b 16be
000002d0: 5118 88bd 3e3c 003e 1b68 19bd 4733 473e
000002e0: aa62 40be ca97 e6bc 706c 1abd d6a5 13bd
000002f0: d7bb 3bbe 3ca1 1c3d af1c a3bc 6c03 e3bc
00000300: 596e 373e e116 19be 4f05 3b3e e791 39be
00000310: 596d c9ba 1907 93bc 5ca3 e2bd 04f9 b1bd
00000320: ff4c d83d 142e cb3c 59f6 503e e506 f5bd
00000330: 006a 36be c82c 6a3e 4799 70bd 8212 3e3d
00000340: 41b5 2b3e bb43 1fbb f882 9fbd 1622 563e
00000350: 4737 0d3e b339 2f3c eaa4 7e39 f96b 0a3e
00000360: 8dec e13c 2a24 d13c 0860 45be 98ce 07be
00000370: 8025 013e 3161 acbb f430 693e 75c7 aebd
00000380: 57b5 b73d 16ae 75be 14d2 d43c 24b8 933d
00000390: e1c1 27be 3d73 67bd 5e0a 03be ffe0 ddbd
000003a0: 0b6d 333e d0af 123e 6c0f 17be c683 973d
000003b0: 4eaa 913d b350 113d 5fc2 ebbc f70b 943b
000003c0: 6f7f f93d 7734 3e3e ad6d 0fbd 6686 cb3d
000003d0: 2ba7 3bbd a844 163e 3815 5d3d 95c1 c43a
000003e0: f541 b33d f635 213e dcc9 903c 597a 6fbe
000003f0: 2a4d 08bd 3a30 033e 2812 423e 8acd b33d

baseModel.mlp2.layers.2.bias f4 [64]
-0.13381903 0.0021681094 0.24148762 -0.08089052 0.2252334 -0.039657675 0.17190619 0.21541613
0.119082496 -0.029753646 -0.17373241 -0.03243501 -0.063163824 0.22735849 0.17986071 -0.08162507
-0.1337095 -0.023824232 -0.23910992 0.018214501 -0.025039664 -0.033973247 -0.097593494 0.18672085
-0.23435238 0.14160001 0.14928733 0.16563264 -0.17609745 0.006357741 -0.20395003 -0.07565232
-0.18059453 0.08551148 0.27383035 -0.18672818 -0.10036727 -0.056124162 0.2684136 -0.07761444
0.057772312 -0.16203293 0.10414189 0.06835981 -0.14590587 0.007993398 0.08376543 0.0812634
0.16938536 0.29508328 0.032481268 0.16884267 0.048784554 -0.14827645 -0.10188922 0.12484945
-0.40305293 0.163042 0.09272899 -0.045194175 0.23493685 -0.07149701 -0.10538383 -0.2144757
00000000: db07 09be d716 0e3b 8848 773e eea9 a5bd
00000010: 96a3 663e 1670 22bd 2d08 303e 0c96 5c3e
00000020: 86e1 f33d ebbd f3bc e9e6 31be 93da 04bd
00000030: 095c 81bd aad0 683e 682d 383e 0b2b a7bd
00000040: 25eb 08be 092b c3bc 3bd9 74be 9436 953c
00000050: fb1f cdbc 8827 0bbd 19df c7bd c033 3f3e
00000060: 12fa 6fbe 98ff 103e c7de 183e 9a9b 293e
00000070: e452 34be 9954 d03b 47d8 50be 9bef 9abd
00000080: c6ed 38be a520 af3d 7e33 8c3e ac35 3fbe
00000090: 5b8d cdbd 73e2 65bd 826d 893e 52f4 9ebd
000000a0: a9a2 6c3d f6eb 25be 5848 d53d 3a00 8c3d
000000b0: 5968 15be bef6 023c 368d ab3d 6d6d a63d
000000c0: 5b73 2d3e 2815 973e 140b 053d 18e5 2c3e
000000d0: 50d2 473d c8d5 17be 4cab d0bd 12b1 ff3d
000000e0: f45c cebe 7bf4 263e b2e8 bd3d 871d 39bd
000000f0: 4993 703e 066d 92bd 7ad3 d7bd 859f 5bbe

baseModel.mlp2.layers.4.weight f4 [32, 64]
-0.16367728 0.06754479 0.075075336 0.08727308 -0.12265457 -0.06180575 0.060701486 0.09192495
0.08620234 -0.15364377 -0.11127414 0.10039038 0.039768163 0.0063527105 0.06298961 0.026144033
-0.32355082 -0.12785746 -0.15475969 0.021379163 -0.03485861 -0.17522551 0.14243639 0.082011804
0.012106457 0.13209172 0.106971666 0.07729364 -0.15609045 -0.16210613 -0.014279436 0.007113311
-0.012606245 -0.031338666 0.09945529 -0.26272827 0.09780685 0.03353266 0.0037210516 0.11209655
0.2190458 -0.046468493 0.027657082 -0.11492631 -0.04280205 -0.13464917 0.005221903 -0.07415036
-0.0718228 0.18262316 -0.23992985 0.154524 0.09314522 0.15229642 0.246916 0.061234158
-0.093377635 0.032904744 0.105407946 0.040405083 -0.108676225 -0.026851356 0.028172154 0.18294291
-0.0074370336 0.13363576 -0.0025389467 0.059619255 -0.021518951 0.016224954 0.060152635 0.090729065
-0.16506277 -0.039457615 -0.0124739185 -0.026467064 -0.005430571 -0.027486823 0.1448193 0.12585694
-0.042053126 -0.076337665 -0.1572988 -0.09105695 0.0044576665 -0.062854216 0.04742025 -0.023612605
0.029018221 0.078363724 0.11589206 0.13810778 0.06893451 -0.09876031 -0.25422114 -0.003622252
-0.084790446 -0.0135216955 0.18626139 -0.111382455 0.21173216 -0.07780856 0.09508892 -0.09701847
0.14204024 -0.041890576 -0.21989033 0.04967968 -0.16242379 -0.14558844 0.06320678 -0.25362384
-0.102475144 0.21100526 0.0042376365 0.29113725 0.23662186 0.056717843 0.2645456 -0.065935835
-0.08733398 0.024446148 -0.0019272739 0.11344355 0.13992044 0.07146389 0.048921674 0.13506126
0.0051901857 0.0066763577 -0.11744 0.117725484 0.121443726 0.006675139 -0.0043502706 0.012811545
-0.07188536 -0.074858665 0.006012984 -0.056072783 0.086157516 0.06712965 0.11883868 0.017569758
-0.07928339 -0.13294414 0.05579539 0.106656276 0.13248995 -0.08845427 0.044023618 -0.013512837
-0.015284312 0.07142608 0.047485523 -0.09353145 -0.12924862 -0.0021743628 -0.12237558 0.0043547153
-0.095613524 0.023410687 0.0022395563 -0.024179982 0.020230789 0.048044346 -0.103072315 0.026168607
0.01605724 0.022277143 0.08796847 -0.088289365 0.11108085 -0.08520719 -0.05098843 -0.11272087
-0.04904456 0.17163664 -0.0067850216 0.17333385 0.179396 0.034911282 0.1937161 -0.012292798
0.004928492 -0.0549721 0.027818577 -0.003692944 -0.04991481 0.02824909 -0.031499296 -0.023072321
-0.02328734 -0.010427486 -0.1385878 -0.09805189 0.09612595 -0.016892625 -0.102747634 0.029128604
0.00475725 -0.11800915 0.043545384 -0.09701298 -0.08036193 0.023547035 -0.001211067 -0.09596303
-0.07422455 0.058143195 -0.092783935 -0.14228214 -0.04624311 -0.06058989 0.0011693758 -0.023288215
-0.073722295 -0.040706098 -0.10764957 -0.00761933 -0.117975645 -0.083167896 0.0691012 0.0036589704
-0.07115004 -0.06405326 -0.08752377 0.07566612 0.022783525 -0.04630833 0.014687925 -0.12927723
-0.1074809 0.054163948 0.06512061 0.05687563 -0.05136954 -0.08200855 0.030720355 -0.100734256
0.060544014 0.04176846 -0.062371843 -0.124317825 -0.10990118 0.068117134 0.098152906 -0.029996907
-0.048045542 -0.113702945 -0.08842808 -0.05938648 0.019153304 -0.021477059 -0.031335868 0.051441353
00000000: 049b 27be ec54 8a3d 19c1 993d 3bbc b23d
00000010: 5232 fbbd 0728 7dbd 1fa2 783d 2643 bc3d
00000020: da8a b03d cb54 1dbe b2e3 e3bd 7999 cd3d
00000030: f1e3 223d 662a d03b b200 813d 032c d63c
00000040: 74a8 a5be 11ed 02be 5379 1ebe 5b23 af3c
00000050: e7c7 0ebd 516e 33be d8da 113e cef5 a73d
00000060: 295a 463c 0d43 073e f613 db3d 214c 9e3d
00000070: 2dd6 1fbe 26ff 25be 4cf4 69bc c716 e93b
00000080: 6d8a 4ebc f95c 00bd 37af cb3d 5284 86be
00000090: f54e c83d 8b59 093d e3dc 733b e092 e53d
000000a0: 8b4d 603e bf55 3ebd 1b91 e23c 7c5e ebbd
000000b0: 3451 2fbd 79e1 09be 7f1c ab3b 25dc 97bd
000000c0: d517 93bd 9101 3b3e 2cb0 75be 8a3b 1e3e
000000d0: ecc2 be3d 98f3 1b3e 8cd7 7c3e abd0 7a3d
000000e0: c63c bfbd 20c7 063d 1fe0 d73d cd7f 253d
000000f0: a491 debd 60f7 dbbc 4ac9 e63c 6355 3b3e
00000100: 5cb2 f3bb d0d7 083e 7564 26bb 5233 743d
00000110: 8348 b0bc 32ea 843c 9c62 763d 29d0 b93d
00000120: 3706 29be 4f9e 21bd 685f 4cbc 75d1 d8bc
00000130: eef2 b1bb 0c2c e1bc 834b 143e a4e0 003e
00000140: e63f 2cbd ec56 9cbd f012 21be 117c babd
00000150: 9e11 923b b6b9 80bd bc3b 423d 396f c1bc
00000160: 9fb7 ed3c 297d a03d d158 ed3d 206c 0d3e
00000170: 892d 8d3d d842 cabd 4629 82be 4e63 6dbb
00000180: 9da6 adbd 1a8a 5dbc 4ebb 3e3e 7c1c e4bd
00000190: 51d0 583e 185a 9fbd fbbd c23d 9fb1 c6bd
000001a0: ff72 113e 7495 2bbd ee2a 61be ec7c 4b3d
000001b0: 6c52 26be 2315 15be 8e72 813d fcda 81be
000001c0: 7dde d1bd c311 583e dfdb 8a3b f10f 953e
000001d0: 004d 723e f850 683d 8572 873e 5e09 87bd
000001e0: 28dc b2bd 4a43 c83c 959c fcba 1855 e83d
000001f0: 4e47 0f3e a95b 923d 1862 483d 804d 0a3e
00000200: 6f12 aa3b 59c5 da3b 6284 f0bd 0f1a f13d
00000210: 7db7 f83d 20bb da3b b78c 8ebb 84e7 513c
00000220: a238 93bd 804f 99bd 9108 c53b 93ac 65bd
00000230: 5a73 b03d 457b 893d b261 f33d 74ee 8f3c
00000240: 545f a2bd 8222 08be b589 643d 9b6e da3d
00000250: 72ab 073e 8327 b5bd 1c52 343d f264 5dbc
00000260: 0d6b 7abc d647 923d 2e80 423d 6b8d bfbd
00000270: c059 04be c17f 0ebb 0ca0 fabd 00b2 8e3b
00000280: 06d1 c3bd c5c7 bf3c 85c5 123b 1915 c6bc
00000290: 0abb a53c 26ca 443d 9417 d3bd 8c5f d63c
000002a0: 798a 833c 8e7e b63c d028 b43d 0ed1 b4bd
000002b0: 5b7e e33d 1b81 aebd 3ed9 50bd 33da e6bd
000002c0: f3e2 48bd 84c1 2f3e e354 debb 6e7e 313e
000002d0: 96b3 373e 22ff 0e3d 835d 463e bb67 49bc
000002e0: 307f a13b 6d2a 61bd c9e3 e33c 5205 72bb
000002f0: 7973 4cbd a36a e73c 6805 01bd 2a02 bdbc
00000300: 17c5 bebc 0cd8 2abc f6e9 0dbe 6ecf c8bd
00000310: afdd c43d 6762 8abc 5a6d d2bd 1c9f ee3c
00000320: b5e2 9b3b c8ae f1bd a55c 323d beae c6bd
00000330: cc94 a4bd b6e5 c03c aabc 9eba 4488 c4bd
00000340: 0a03 98bd 8f27 6e3d 8105 bebd 69b2 11be
00000350: 6a69 3dbd 1b2d 78bd be45 993a edc6 bebc
00000360: b7fb 96bd 70bb 26bd 6177 dcbd 93ab f9bb
00000370: 379d f1bd ee53 aabd ee84 8d3d 56cb 6f3b
00000380: 1db7 91bd 5b2e 83bd aa3f b3bd d7f6 9a3d
00000390: 84a4 ba3c cead 3dbd 9fa5 703c 4061 04be
000003a0: f21e dcbd 04db 5d3d f45d 853d 6cf6 683d
000003b0: de68 52bd 19f4 a7bd 41a9 fb3c c34d cebd
000003c0: 00fd 773d 6815 2b3d 9e79 7fbd 589a febd
000003d0: df13 e1bd ff80 8b3d 6404 c93d 13bc f5bc
000003e0: 67cb 44bd 17dd e8bd c819 b5bd 3d3f 73bd
000003f0: 64e7 9c3c a8f0 afbc 0a5a 00bd 2bb4 523d

baseModel.mlp2.layers.4.bias f4 [32]
0.049196076 0.13276784 -0.07288902 -0.024898037 -0.0073116706 -0.068653636 0.17037685 0.16821878
0.05308984 0.24566229 0.11384772 0.07174628 0.13670753 0.06508906 0.10231399 0.045966245
0.12115803 0.16886923 0.05489277 -0.040975623 0.2657096 0.21457613 0.16299601 0.03526927
-0.15220119 0.0064631687 -0.0115632145 0.077672996 0.041650325 0.09821232 -0.07070577 0.021333395
00000000: d381 493d 4bf4 073e d746 95bd f8f6 cbbc
00000010: bd96 efbb 479a 8cbd 4577 2e3e 8b41 2c3e
00000020: bb74 593d e58e 7b3e fe28 e93d b7ef 923d
00000030: 0ffd 0b3e 6a4d 853d ff89 d13d 1a47 3c3d
00000040: b421 f83d 0eec 2c3e 3ed7 603d 0ed6 27bd
00000050: 170b 883e d8b9 5b3e 6de8 263e 8376 103d
00000060: a1da 1bbe fdc8 d33b a373 3dbc 0513 9f3d
00000070: 8899 2a3d 8a23 c93d 30ce 90bd 5fc3 ae3c

baseModel.mlp2.layers.6.weight f4 [2, 32]
-0.10058464 -0.24633141 -0.11459052 0.14263433 0.019054864 0.1548712 -0.24586259 -0.26211405
-0.17311965 -0.09000359 0.0751585 0.12369575 -0.06260413 0.25240463 0.16613816 -0.22820438
-0.11838473 0.27285647 0.046108473 -0.09045222 -0.31775323 -0.00420734 -0.2435089 -0.22777481
0.11617431 0.16802607 -0.15903488 -0.20757319 -0.026026383 0.2726928 0.17924464 0.2778048
0.23655915 0.31751075 -0.06723869 -0.10302499 0.11271243 -0.020416236 -0.056024376 0.008244852
0.06772222 0.32986373 -0.22779292 -0.1232906 0.09035907 -0.06581726 -0.05976982 0.2370847
-0.020975681 -0.054975364 0.14097801 0.026590113 0.33095568 0.14346877 -0.010922168 0.15460645
0.036918096 -0.20409405 -0.03078174 0.081280306 0.18814555 -0.10941628 0.032399066 -0.23128685
00000000: 52ff cdbd 4d3e 7cbe 6fae eabd bc0e 123e
00000010: f218 9c3c 8e96 1e3e 67c3 7bbe d033 86be
00000020: 4746 31be cd53 b8bd b3ec 993d 3354 fd3d
00000030: 9836 80bd 2e3b 813e 1f20 2a3e 69ae 69be
00000040: b173 f2bd d8b3 8b3e 3ddc 3c3d 033f b9bd
00000050: 8db0 a2be badd 89bb 665a 79be cd3d 69be
00000060: ccec ed3d 070f 2c3e 0ada 22be 118e 54be
00000070: 4835 d5bc 649e 8b3e e88b 373e 6e3c 8e3e
00000080: 903c 723e c590 a23e 70b4 89bd c4fe d2bd
00000090: c6d5 e63d f33f a7bc d179 65bd 6a15 073c
000000a0: f3b1 8a3d e6e3 a83e 8c42 69be c87f fcbd
000000b0: 2d0e b93d 33cb 86bd 33d1 74bd 55c6 723e
000000c0: 31d5 abbc d92d 61bd 8a5c 103e 82d3 d93c
000000d0: 0673 a93e 7ae9 123e e5f2 32bc 2751 1e3e
000000e0: 6e37 173d 08fe 50be fd29 fcbc 4a76 a63d
000000f0: 3aa9 403e a515 e0bd e2b4 043d 76d6 6cbe

baseModel.mlp2.layers.6.bias f4 [2]
-0.07004936 0.13308197
00000000: 0a76 8fbd a446 083e
