weights/weights_MOCA_lstm.pt (torch, 246509 bytes, 14 tensors)

baseModel.encoder.layers.0.weight f8 [8, 4]
00000000: 09b3 1d12 d971 dabf 308b 5ec0 257a bebf
00000010: 07f0 5349 7949 dcbf 592b b538 53d4 803f
00000020: 7055 551f bdd7 d4bf fc59 c762 4b64 de3f
00000030: 810b c6ad 0228 c13f c57e 9599 c655 e03f
00000040: 0000 0000 081e b03f 0000 0000 68e1 bbbf
00000050: 0000 0080 c0c2 c03f 0000 0000 0144 bcbf
00000060: c8b4 29be bcaf c63f 5f57 10d5 fd21 e3bf
00000070: cd1e e79c 6ab1 b9bf b26c 43a5 d9ae dd3f
00000080: eb46 c08f 8be3 d8bf e7f9 0f88 6654 d1bf
00000090: 3d93 4f70 638f cc3f c223 54d0 4bfb de3f
000000a0: 831d de32 01bb ce3f d521 36c6 11be dcbf
000000b0: 71e9 1f64 5ea5 cc3f a225 1c5e 3937 dabf
000000c0: b189 3811 4b28 7e3f 7557 367e c004 c9bf
000000d0: 42a0 3a95 a797 babf c2cf 15bd 906f e33f
000000e0: c5f7 4942 fa94 c03f 246a 7338 3193 bc3f
000000f0: 3703 dfbc 791e c83f 95db ce7a 057f e03f
-0.413198726359767 -0.11905132242695227 -0.44198448334623247 0.008217477958756868 -0.32566764888664235 0.47487148901328147 0.13403352246322345 0.5104706763922527
0.0629582405090332 -0.10890817642211914 0.13094335794448853 -0.11041265726089478 0.17723807606981823 -0.5978993569758407 -0.1003634102881918 0.4637970079326791
-0.388888254529873 -0.2707763985380595 0.22312586769035106 0.4840878996333765 0.24008193000575426 -0.44910091740214614 0.22379665268801888 -0.409620611099479
0.007362645370024999 -0.1954575172682628 -0.10387656586920094 0.6073688214369144 0.1295464347530794 0.11162097576326652 0.18843003961776514 0.5155055426210874

baseModel.encoder.layers.0.bias f8 [8]
00000000: 514d f395 c697 c43f 31bb a217 cc20 913f
00000010: 0000 0080 f5c6 d5bf 3f3a 574f 8d78 dd3f
00000020: df8e 01be 1294 c13f 42b4 603b ff25 e03f
00000030: 6400 272f b4f0 b4bf 653b ee46 f36f da3f
0.16088182756230165 0.01672667402516054 -0.34026849269866943 0.4604829096614686 0.13733133580819065 0.5046383056375208 -0.0817978491895715 0.4130829041177349

baseModel.encoder.layers.2.weight f8 [16, 8]
00000000: 0000 0040 bbaf a0bf 0000 00e0 5158 cbbf
00000010: 0000 0080 c736 b73f 0000 0060 804f c03f
00000020: 0000 0040 9d5a b33f 0000 00e0 58d8 943f
00000030: 0000 0060 9f11 d2bf 0000 00c0 689b 85bf
00000040: 7c62 23d2 e8eb b8bf 1243 9398 ba13 c5bf
00000050: 0000 00c0 4439 b9bf 5cd3 ed3d 30a0 d83f
00000060: d5eb f1fd 3631 ac3f 2956 41e6 72a1 e13f
00000070: 70a1 07b9 b42b bc3f 1ff9 d794 9261 cebf
00000080: 4339 bef4 26ec b33f 4af4 d38b e7ad da3f
00000090: 0000 0000 a0f9 a43f 77c6 e8b4 a1aa cdbf
000000a0: 19ea 345b 5453 bd3f f1ee cf1a 6515 d7bf
000000b0: dd82 0844 7551 d3bf 1a66 a04d 962a b73f
000000c0: 0000 00a0 aba8 cb3f 0000 0000 d752 b7bf
000000d0: 0000 00e0 cb5f be3f 0000 00c0 d2c7 81bf
000000e0: 0000 0040 2dc7 823f 0000 0060 740d c63f
000000f0: 0000 00c0 9a72 cc3f 0000 0000 8deb 8abf
00000100: 0000 0020 cc14 d43f 0000 0020 a734 983f
00000110: 0000 00a0 91fd a13f 0000 0020 93cd d2bf
00000120: 0000 0080 733c d63f 0000 00c0 9957 d5bf
00000130: 0000 00e0 c894 92bf 0000 0040 2dfb a13f
00000140: 2efd 0a3a 17c1 97bf ca06 6086 0b31 ce3f
00000150: 0000 0000 9079 d3bf e7f3 51c8 710a cc3f
00000160: 512d 426f 9406 c73f ea30 4663 fd1b c4bf
00000170: 72e9 a253 46f5 babf 0af1 ce9b d408 d3bf
00000180: 97cb 1cc6 86f1 dd3f d237 a7fb 958a c83f
00000190: 0000 0000 a0b6 c23f 324a 4792 7b9b bc3f
000001a0: f2c9 f3ce 5ca0 90bf 837e ecc2 45ec d5bf
000001b0: d094 9d98 f013 9bbf c5e1 bb30 d766 cb3f
000001c0: 0000 0080 2315 bfbf bef6 e2ab a5d3 d33f
000001d0: 0000 0060 83eb d5bf 0ad7 8efe ee88 bc3f
000001e0: 1ee0 2195 757f b53f 0000 0040 3fb3 c93f
000001f0: 8363 5dd8 53a5 c03f 319a da2c 373f cdbf
00000200: 1e6c 61e7 b74b c03f aec4 7504 dd3d c83f
00000210: 0000 0060 92fe c23f 785a a777 00b8 91bf
00000220: 8787 2b93 dd7d e3bf eeff d451 2074 cfbf
00000230: 0825 e7e4 2c82 d0bf f918 9a70 8ebf d23f
00000240: 26fd 91e6 0a71 c3bf c3f0 a76c e741 c63f
00000250: 0000 00e0 8adb aebf 3b07 d55e c074 d43f
00000260: 4e4b 2c5c 919b d93f ccf4 ac5a 3d70 c9bf
00000270: 42d8 4cad 1832 a2bf 7f85 94b2 d52f c13f
00000280: 0000 0040 c85a 8cbf 0000 0080 7cab d2bf
00000290: 0000 0060 1f42 c83f 0000 00a0 854e c9bf
000002a0: 0000 0080 1044 d43f 0000 0000 ec4a 5bbf
000002b0: 0000 00a0 cbfc bbbf 0000 00a0 f243 ccbf
000002c0: 5432 6763 e488 c13f ef00 6930 5bd8 a63f
000002d0: 0000 0060 3420 c23f 4bf9 c936 ddaa aabf
000002e0: 72ae 6991 ee05 d0bf b394 7a77 59c1 e4bf
000002f0: e959 ad65 359a c7bf 8c5d 8ebb 7cfb d83f
00000300: 7a01 0529 420c cc3f 0f82 7f71 0bee b73f
00000310: 0000 0080 6bc6 c1bf 6be1 8e30 65eb d63f
00000320: 7dea 1117 a4ff e03f d87c ae1a 437c b6bf
00000330: cdf6 4e92 0b52 dd3f 4a3f 375f 2403 abbf
00000340: 030c 7fa6 e4db b73f 6c41 87a0 1118 d9bf
00000350: 0000 00e0 f6d6 c8bf 22ce 91c3 4f66 d23f
00000360: 6d23 111d c668 cebf d64c 48f2 51f2 933f
00000370: b119 86c2 d897 cfbf 1e2d 7413 3045 d33f
00000380: a408 8816 a406 a43f e73b f87d 8bda a9bf
00000390: 0000 0020 574a c5bf a299 6278 0162 dc3f
000003a0: 29e4 9ef6 53f5 c63f 09b4 38fa 19e7 c8bf
000003b0: a346 5edd 23de e33f 286e 0024 87e4 d63f
000003c0: d349 1627 0190 d3bf 3ae9 99f9 9fc0 c63f
000003d0: 0000 00c0 a1f0 b5bf 81ca 9dfb cb6a 953f
000003e0: 6346 8524 c19e c4bf 0ec9 7299 15b9 dcbf
000003f0: ff6a a5ff 7d64 c53f f613 8579 48f8 a1bf
-0.032590724527835846 -0.21363280713558197 0.09067961573600769 0.12742619216442108 0.07560141384601593 0.020356548950076103 -0.2823255956172943 -0.010550325736403465
-0.09734969263389276 -0.16466457796061512 -0.09853009879589081 0.3847771267676785 0.05506297922052964 0.5509581086323055 0.11004189984635615 -0.23735267894512277
0.07782214617893594 0.4168642869479454 0.04096698760986328 -0.2317697652193151 0.11455275751806261 -0.3606808435285834 -0.30184680599090347 0.09049357791118276
0.21608491241931915 -0.09110778570175171 0.11864923685789108 -0.00868191383779049 0.009168962016701698 0.17228560149669647 0.22224745154380798 -0.013144589960575104
0.3137693703174591 0.023638354614377022 0.03513770177960396 -0.2937972843647003 0.34743964672088623 -0.33347171545028687 -0.018145693466067314 0.03511945158243179
-0.023197520177516022 0.23587173520359378 -0.3042945861816406 0.21906873971229787 0.1798883002523817 -0.1571041807877756 -0.1053050951185577 -0.2974139710966176
0.467866605252476 0.19172930515054404 0.14619827270507812 0.11174747773410657 -0.01623673451553915 -0.3425459292938983 -0.026443251910127696 0.21407594565950042
-0.12141630053520203 0.30979291711615164 -0.34249958395957947 0.11146444048685225 0.08397612467695167 0.2007826864719391 0.13004539551436886 -0.22849168481953222
0.12731074140433035 0.18938791959548013 0.148393914103508 -0.017303473761638405 -0.6091144442000179 -0.24573139186577414 -0.25794527391242683 0.2929416751507144
-0.15188728578866878 0.1738862305209122 -0.06026872619986534 0.31962594281150175 0.4001201057555378 -0.19873778274078402 -0.03553845515709543 0.13427230090841744
-0.013845028355717659 -0.29171669483184814 0.18951790034770966 -0.19770880043506622 0.3166543245315552 -0.0016658119857311249 -0.10932610183954239 -0.22082360088825226
0.13699011663119853 0.04461941686577286 0.14160780608654022 -0.05208483976183461 -0.2503620548293163 -0.648602231366246 -0.18439357247071023 0.3903495627978024
0.21912409785182857 0.09347602387379815 -0.1388677954673767 0.3581173872185192 0.5312061739526396 -0.0878335895672423 0.4581326416772356 -0.05275834715177881
0.09319905342913164 -0.3920940463695135 -0.19406019151210785 0.2874946031435873 -0.23757244509968292 0.01947906533503104 -0.24682149408563483 0.3010978879908225
0.03911316657105715 -0.05049549019542337 -0.1663311868906021 0.44348179584849323 0.1793618158533559 -0.19455265729757823 0.6208667110060627 0.3576982356623568
-0.30566433732124415 0.17775344550666167 -0.08570300042629242 0.020915209991879017 -0.16109480174286536 -0.4487966536063518 0.16712927801821562 -0.03509737475773271

baseModel.encoder.layers.2.bias f8 [16]
00000000: 0000 00a0 158e d2bf 5c4a 964a ca07 d03f
00000010: 9c4e b06e 4229 a2bf 0000 00c0 5b6d cabf
00000020: 0000 0040 8f32 d2bf 42f7 1aa0 fd0b b7bf
00000030: b3a2 b120 dc07 cdbf 4f21 2400 236b d1bf
00000040: b236 ed02 1465 843f e7cb a3eb 6c5f cc3f
00000050: 0000 0020 c663 c4bf 0e19 301b 25e7 cf3f
00000060: 2295 f5ac c0f8 9ebf c0a4 b17b 1a9b cb3f
00000070: 7af9 3def 044c b8bf 4558 d725 2fe3 c43f
-0.28992214798927307 0.25047547611135257 -0.03547103501491941 -0.20646235346794128 -0.2843359112739563 -0.09002671393224396 -0.22680236431485454 -0.27216410650045914
0.009958416308701732 0.2216621542534931 -0.15929485857486725 0.24924148395093265 -0.030245791012380903 0.2156708816503734 -0.09490996209021843 0.16318311069216143

baseModel.encoder.layers.4.weight f8 [8, 16]
00000000: 0000 0000 7f94 aa3f a917 11f1 1386 b43f
00000010: 3632 cdc8 0c75 a43f 0000 0000 2fce a33f
00000020: 0000 0000 80e6 47bf f117 3e66 2b37 c53f
00000030: 4a44 cb13 d25c c8bf 5c31 8f97 2fd7 ba3f
00000040: c31d e81b 06d5 91bf c5ad 3278 ad9e c0bf
00000050: 0000 00c0 2a58 c0bf 9e74 4e4f 87b2 d1bf
00000060: 91a8 e371 2a8d cebf 599b 897a c565 b6bf
00000070: 61ac 938c b321 cfbf e284 1be9 c7c1 d0bf
00000080: 0000 00c0 fda2 c33f 7576 f0b0 b6c5 c2bf
00000090: cd19 bf64 5bb6 d33f 0000 0000 17ee b0bf
000000a0: 0000 0080 b800 b83f 655c 9990 b391 c1bf
000000b0: f86a ed49 2c38 c43f f5d2 1efc 139d c9bf
000000c0: 5864 c9a2 0521 b83f 95ab f53c b23e c1bf
000000d0: 0000 0000 c5e1 a43f 6e1f 3582 e5bd 973f
000000e0: 916b 7b29 8726 b9bf 8a00 37df 6ed4 c2bf
000000f0: e9df dfd3 8da4 bcbf 6bd5 7e78 9430 b9bf
00000100: 0000 0000 1c77 a73f c5bb b682 767f c3bf
00000110: f7da e6d6 55bb 96bf 0000 0000 89a0 a13f
00000120: 0000 00c0 07c1 c23f feb4 9afe db17 bebf
00000130: d8fd 5c84 abdd c33f 3da6 7932 3c18 903f
00000140: 5014 e406 6ce3 cc3f 2d6f 66d6 b6ec cebf
00000150: 0000 00c0 0339 c33f 2f58 4233 08f1 c7bf
00000160: 0e54 31ae 4d91 bdbf 47c6 5fb9 da2e cabf
00000170: ed9f d853 19c6 babf ff23 dd3e 3360 bbbf
00000180: 0000 0040 a046 ca3f 965a 667d 99b8 c03f
00000190: 74b2 f6bd f03f d0bf 0000 0080 dd63 c6bf
000001a0: 0000 0000 a4ba b3bf bfcb caf5 61f7 c53f
000001b0: 4bb5 0f91 86f7 d4bf 8efe 29dd a60c b63f
000001c0: 2c2a e61d eb96 d0bf 8aab ccb3 633e c4bf
000001d0: 0000 0080 f467 b1bf 085a f746 378f b63f
000001e0: e22d 6213 c734 b83f f037 4a92 9f21 c83f
000001f0: 24c1 04da 27aa cfbf 31db 2da3 3305 b63f
00000200: 0000 0000 49cf cabf ccbc bc95 6f24 cfbf
00000210: 268c 2fa0 a70a a73f 0000 0080 b9c5 c3bf
00000220: 0000 0080 cfac cebf 4cf5 0b4a 93f9 a6bf
00000230: cc09 e7b9 423e c9bf 7dea 3c05 48a8 cd3f
00000240: ad68 ee17 3b73 d53f 067f 80ec e72d a9bf
00000250: 0000 0000 8d36 a33f 024c 4d1d 74bc d03f
00000260: 3572 e20a d0d1 d7bf ff21 929f ab2a b43f
00000270: 6b33 8f31 d750 ac3f eec3 0a23 12cf ce3f
00000280: 0000 0000 0a81 b9bf f53c 7703 50c7 d33f
00000290: 7e78 26cc e30e cabf 0000 0000 6d25 bebf
000002a0: 0000 0080 34bd bb3f c2f0 8dfd 1368 b6bf
000002b0: 2405 38e3 cd54 c1bf e050 d49a e34c c9bf
000002c0: f2ac 8261 ca84 cabf d4d4 b686 73ff d23f
000002d0: 0000 0000 50c8 87bf 809e d9a8 aa15 ba3f
000002e0: 9f4e 5b36 4de7 c53f 6814 d157 4a36 7e3f
000002f0: b6bf a845 318f d03f 9f01 e8c2 981a 9dbf
00000300: 0000 0000 98c7 76bf 8361 697e f869 d63f
00000310: 4b93 dad5 cf09 bf3f 0000 0080 7042 b93f
00000320: 0000 00c0 c745 cbbf 8740 b853 7250 bb3f
00000330: b49a 14a2 f1ad c3bf 8e25 fee9 1378 97bf
00000340: 803a d2e6 c556 bfbf 0f76 3375 c83e ae3f
00000350: 0000 0080 fb3e babf 7600 2b93 a414 c7bf
00000360: 6c04 a490 2631 ccbf 3e40 1ade ba43 c53f
00000370: 774c 93f9 c2c9 c4bf 138d 4e46 d616 76bf
00000380: 0000 0080 cf21 cd3f 1038 d540 0c91 cbbf
00000390: 381f 9a16 f0f8 ce3f 0000 0000 a03a 69bf
000003a0: 0000 0040 4af3 c8bf 694c eaf3 b710 ccbf
000003b0: 1f30 a54d 9d82 a53f 57ea 5f35 75db c2bf
000003c0: 88b3 0d0a 200b abbf 7684 29cb c44f b2bf
000003d0: 0000 0000 076f b1bf 9139 5499 acf9 d03f
000003e0: 0307 c833 15dd ab3f fade 00aa 8817 acbf
000003f0: 8b7e ba5d 4a58 71bf e72a be63 1e41 d23f
0.05191418528556824 0.08017086635035632 0.03995552016440167 0.03868243098258972 -0.0007293820381164551 0.16574614040672445 -0.1903326603556102 0.10484597635440224
-0.01741418404892926 -0.12984245652238094 -0.1276906430721283 -0.2765215181805817 -0.23868303833961993 -0.08749040834082446 -0.24321598400215108 -0.2618274475517649
0.1534115970134735 -0.14665874137510895 0.3080051883556763 -0.06613296270370483 0.09376099705696106 -0.13725895462514184 0.15796426400887476 -0.2001061421448395
0.09425387596401558 -0.13472583748383885 0.040784984827041626 0.023185335228191155 -0.09824414026972607 -0.1471079435268659 -0.11188589499204195 -0.09839752141745854
0.045830607414245605 -0.1523273599863996 -0.022199002496303213 0.034427911043167114 0.14651581645011902 -0.117551564845332 0.1552023311905788 0.01571744974208954
0.22569036804648812 -0.2415989443660406 0.15017744898796082 -0.18704321387184694 -0.11549840452910606 -0.20455488254042306 -0.10458524987245683 -0.10693664822350966
0.2052803337574005 0.13063353179014275 -0.25390261222017974 -0.1749226450920105 -0.07706665992736816 0.17161201955386038 -0.32760776678226894 0.0861305513335486
-0.25921132964927796 -0.15815397528907865 -0.06799247860908508 0.08812280161451025 0.09455532286863602 0.1885261024767142 -0.24738023896635142 0.08601687177529695
-0.2094508409500122 -0.24329943477048344 0.04500316458122482 -0.15447157621383667 -0.2396487593650818 -0.04487285879984401 -0.19721254422445467 0.2316980386329596
0.3351581319526627 -0.04917835962282706 0.037525564432144165 0.26150229321973495 -0.37218094885773506 0.07877609868786094 0.05530426483128433 0.24069430075681403
-0.09962522983551025 0.3090400728078316 -0.20357940166735838 -0.11775857210159302 0.10835579037666321 -0.08752560558599767 -0.13540052027387006 -0.19765896854426668
-0.2071774459958316 0.2968415084427083 -0.011612534523010254 0.1018931066733959 0.1711212649739666 0.007375994112469454 0.25873977472928844 -0.028421770950446065
-0.00556144118309021 0.3502179369438851 0.12124346705475124 0.09867003560066223 -0.21306702494621277 0.10669626754702409 -0.1537458459290143 -0.022918997914108945
-0.12241780171664551 0.05907274656940952 -0.10252353549003601 -0.18031747041641538 -0.22024995863469898 0.16612945408678742 -0.16240727602289315 -0.005392872820183986
0.2275943160057068 -0.2153640095297651 0.2419719801293867 -0.003079712390899658 -0.19492462277412415 -0.21926021013186706 0.04201213429277594 -0.14732232195076975
-0.052819253184544 -0.07152967414869402 -0.06810039281845093 0.2652389047006177 0.05442110306831973 -0.05486704898106427 -0.0042345910002549265 0.2852245306063836

baseModel.encoder.layers.4.bias f8 [8]
00000000: d3ec b5d5 8405 8c3f 154a 9366 60f4 9f3f
00000010: 9233 cb5b 63da bfbf c036 a584 3449 d0bf
00000020: ece3 1e90 c60e c13f 213f 177d 2274 ce3f
00000030: c476 892c 0440 ccbf 6819 87c1 269f c03f
0.013682401439601232 0.03120566011495825 -0.12442608824785698 -0.2544680877079877 0.1332634166444956 0.23791915042829095 -0.22070362257630027 0.12985691499325047

baseModel.lstm.weight_ih_l0 f8 [256, 12]
00000000: 31f3 3f2b f045 bdbf 44c6 897b ba00 c6bf
00000010: 1e3a d9f2 81cb a9bf 9ecb 02ec 6458 c0bf
00000020: c18c 1d73 5b63 963f 6272 79b2 218b af3f
00000030: 8dd3 f205 4dc1 9ebf beec 8acc c73d cd3f
00000040: b826 cca4 52f1 563f b98a b929 00cc c83f
00000050: 3385 c567 c8ba c83f 706c 0aa3 cd90 bb3f
00000060: b02e d80c 338c 793f ce5d a03d 13b5 b13f
00000070: 3bb9 d193 b971 c8bf 79ad 2264 7052 b5bf
00000080: 2276 ddf9 dd44 cd3f 9f01 1241 98c8 9cbf
00000090: eb67 acff 442a c3bf 6df2 3b84 3257 b53f
000000a0: 952e 6d54 d7ee 91bf 8af8 0715 e033 c6bf
000000b0: 3b2a 171b 5956 ac3f 3b85 0e2e 4117 a63f
000000c0: 7bd1 b1c1 e0e9 a0bf e971 5ef0 83a1 9f3f
000000d0: ab6d 07c7 df1b a83f 7fab 84d3 50bb 513f
000000e0: a5be 61a7 9375 c33f e750 4979 12b1 b43f
000000f0: 36f3 6da4 0772 babf 7a00 c987 84f4 a23f
00000100: 9fb8 acda e633 b1bf c28f 6b95 4d69 b03f
00000110: 636c 5b32 fc9b cb3f c2ff aa7f 7717 743f
00000120: 2d7a e8f7 6532 a2bf 23c8 011e d5ab a0bf
00000130: e899 e3c5 ea93 a73f 3f7e a14f f72d b0bf
00000140: e71f 8d2b b165 b5bf 2240 ecc9 5597 ae3f
00000150: e57a 1609 a7a0 a93f 3af3 c6d1 2c44 853f
00000160: 0ca0 48cd 6b7e a13f 7cf4 45da 819b c03f
00000170: 787f 2569 220a d3bf 1a6c 5f8f 547f b23f
00000180: db8c af7f 9c96 c8bf 75ca 1eb9 be0f c2bf
00000190: df56 6ae0 cef8 86bf 1282 45dd 1315 b5bf
000001a0: 6337 3b87 40e3 ac3f 8793 95f7 72cf c63f
000001b0: 9641 3feb df10 983f 70db a164 adb4 a33f
000001c0: 2be0 9692 f669 b0bf 987e ff8b 999f d33f
000001d0: 261a 8157 5dcd bebf 93b1 6348 7079 b8bf
000001e0: 97bd 9687 caed cebf 995d 2e26 5623 d3bf
000001f0: 98dc e480 513f c4bf 0ceb ff3c 9b1d 82bf
00000200: 54ca fee7 08e8 b33f 1d09 df9f b5ff c23f
00000210: 22c5 9809 c903 b5bf a5db 568e affd cb3f
00000220: 6db4 f0e8 66ad b13f af00 912c b8aa b33f
00000230: 55f3 e6d3 7064 cb3f 8708 2e0c a35f bc3f
00000240: 111f 07c1 922a ccbf 202c 7e56 7a07 c0bf
00000250: 5fb6 6173 a575 c9bf faf6 8d97 b4b6 b2bf
00000260: bde0 d8b3 3851 96bf 3d18 e2b7 6005 ca3f
00000270: 74a2 f856 df82 cdbf 790c 73c7 3669 c33f
00000280: 0fcb 8ee3 f594 ac3f 21b0 80f2 76c4 c93f
00000290: 6f22 284b 8479 9cbf dd38 b9bf 4234 c13f
000002a0: cec8 d7af 29f5 90bf f7ef c964 bb45 b9bf
000002b0: 3837 6242 11ab 98bf aae4 6653 80e4 b13f
000002c0: afab a0f9 ccf8 9abf a2ea c7ac 6907 ab3f
000002d0: f144 17ae 88da b7bf 03fe e014 e5d0 b13f
000002e0: 7a18 ea10 81fa a8bf ebed a8b7 600a b03f
000002f0: 7084 a3f8 f83c 65bf 3b30 1501 65f2 a9bf
00000300: 85ed 1c0c 8062 9bbf ffa0 ec5a 5475 98bf
00000310: 60ab afbd 5c9a bfbf cc15 fad8 3c6e a7bf
00000320: 7d75 7541 9802 a6bf 925c ef31 c732 af3f
00000330: 1900 8ca2 eff1 c5bf 6851 65d8 0c60 a73f
00000340: 788e fc69 f1c7 c53f ec0c 08f9 f4a4 bfbf
00000350: 209a c1dd 35ea b23f 3678 73d4 e7ad c73f
00000360: f2e4 e9ec 0cf1 93bf 000a 5f79 b441 99bf
00000370: ef90 b276 f39d c6bf 914e ba9b 857f ab3f
00000380: da17 53a3 5d5f 943f 03b7 252f c1bd b63f
00000390: 9fa9 bf61 d00e c3bf 311f c7eb 8aec ac3f
000003a0: e69d 4a89 001b bdbf f014 056d d188 91bf
000003b0: 0d5a 7738 b18c c4bf 65c8 975e c9bb c53f
000003c0: 33c8 2696 03a0 d2bf bac7 3926 519d c4bf
000003d0: 0e79 2e70 445c c7bf 385c 414a e620 d2bf
000003e0: 3d4d 86e3 0515 c53f e895 3815 3c83 c83f
000003f0: 57e8 a9ee 1609 d2bf 0c2a f91b 944c bf3f
00000400: 6a23 1ed2 f2f4 b33f 1946 4dc8 ea29 aa3f
00000410: f52e 3ecf 441a a1bf a0c1 fb35 3c12 a03f
00000420: 87d9 c1c2 49f5 88bf 0fd8 71dd 912f bdbf
00000430: 7f51 fca7 8670 b53f 1119 b850 2046 b5bf
00000440: 625b d109 4be1 9e3f 9ca9 5fee af7a c23f
00000450: 39cd dee7 9ae7 b6bf b349 78d0 172e 383f
00000460: fdf1 acd4 1b10 cbbf aa06 56ac ec71 c73f
00000470: 3d5a c9e2 449b 8c3f 436f 2360 4bd6 b83f
00000480: ef4b 312e ae6c b0bf 7431 dc02 9f93 bebf
00000490: 8042 8d1a 3ce6 c5bf 680e e1c8 d014 ccbf
000004a0: b819 c14e 2726 c13f 1d19 753f 3514 ca3f
000004b0: a9ca 85c6 f99b 86bf eb4f 01fc db6e a93f
000004c0: 7dcd be07 d6de c13f 6abe 20cd 148d 823f
000004d0: 6c06 ce7e e59d bcbf 96e8 3c85 691c b93f
000004e0: 1bae 752e d977 c7bf 6aec 00d8 3461 ccbf
000004f0: 8d93 bb76 9807 bcbf eeac e6f5 988e a2bf
00000500: 52cc a683 60aa 5cbf 3cf4 8ee1 09ba ba3f
00000510: a882 52c0 636c a6bf 17d0 09b5 ed31 b73f
00000520: 6ab8 e7c9 8718 c4bf 17ce e1e1 7f35 b43f
00000530: ae72 038b 7b28 b4bf 9545 6d07 727e b23f
00000540: 1123 1a2b a13d a1bf c970 71b1 12e9 a83f
00000550: dacc eb15 ee44 9b3f 6c25 a800 36fc 79bf
00000560: 82e0 e481 7e46 a43f 1ac5 a85c fdfe a43f
00000570: 9383 b38a ef18 443f 2057 c56b 9270 90bf
00000580: 9d23 44a6 b7f4 98bf 59f2 0dc3 1954 c03f
00000590: 0468 f719 914a c1bf d413 b2d1 d54e cc3f
000005a0: 87e5 956a 9940 a4bf 2fb1 0c95 bc64 cbbf
000005b0: c8a3 2f7a d5ed c2bf 14ab f6ed ffea bbbf
000005c0: 57f9 0c02 72ff c93f b4ca f056 1523 b83f
000005d0: b8dc c16a 9b6f a7bf 12d7 ba23 c85d ce3f
000005e0: 5f80 3577 c4e4 c1bf ac9f a9bd 5095 c93f
000005f0: abfb 4b03 f215 bd3f 6e50 cbcc c9b3 8a3f
00000600: f747 a784 4592 c3bf 83eb aadd 21e3 b7bf
00000610: 900a 9f4c 79af a53f 59e1 38e8 3b5f b5bf
00000620: a969 a9fc c6aa c63f cdc2 e890 a5f0 c03f
00000630: 5136 fd32 7b35 b63f 8a59 b103 af74 a33f
00000640: cfe5 70e7 8e15 b4bf be0b f4b9 8719 d23f
00000650: bc8c 8da8 3e8a c8bf 285d 61a3 75f6 b5bf
00000660: a860 a3c0 7501 bcbf dbe0 7213 d225 cabf
00000670: 7363 55c2 46ca bbbf 6909 df64 8879 c9bf
00000680: 9466 ff78 f347 b43f e10f 13aa f8d9 bf3f
00000690: 1575 a4df 0ad2 b1bf 0674 2676 89d5 ba3f
000006a0: ed7c d594 66de 9bbf 7b11 5709 5ab3 b03f
000006b0: 127a c6bc 9c46 cdbf e478 13bc 65cb c53f
000006c0: efac 26e4 2d37 9f3f 79a2 4490 7084 bbbf
000006d0: 47b1 43c9 1ec4 a5bf 177f 5955 fb50 b9bf
000006e0: f89e 0bb2 7dc6 c03f 1c8a 06d9 1f1d b43f
000006f0: c49b f237 2ad3 c2bf 2e75 738e 4b42 c03f
00000700: c759 2666 1b62 bbbf 2eba 3db7 1a27 cd3f
00000710: 4d9f 79aa 9cf2 b83f 90ad 4bab 126a a53f
00000720: ef2f 60b0 987a c7bf 09ca 7337 f440 c2bf
00000730: cc99 7900 47f4 b6bf b19e 31f1 0f64 c0bf
00000740: 6796 ece5 a67b 953f d833 b36a 2266 b53f
00000750: 47fe 7099 3cae c6bf 5371 81d7 6e6f b33f
00000760: cbab 02a6 c8a3 c4bf d0e1 ca4b 8302 c63f
00000770: b687 2ef3 7d47 c03f 654f 67e9 565c a03f
00000780: b404 71de d83c b0bf 99a4 71aa c04a 8b3f
00000790: 8287 c69d af49 c0bf e942 a44b c20a c0bf
000007a0: 5f51 42d8 68ae bb3f 29fa 73e1 9d1e c43f
000007b0: 4f92 5409 3531 a6bf d87d 1ccf 9562 8e3f
000007c0: 4e33 e0c6 e7d7 bdbf ffe2 121e fc56 a03f
000007d0: 373b 0354 516c d23f ab5d 23e7 9b8f bb3f
000007e0: 3af7 2a50 2098 cbbf c6e9 718b 8258 953f
000007f0: 688e 80e9 4c95 c6bf 663e 3d9a ffc1 b1bf
-0.11434842162993843 -0.1718972304548051 -0.05038076486072306 -0.12769757770510365 0.02186339273556537 0.06160836509363744 -0.03003425930792818 0.2284478901618509
0.001400309283044283 0.1937256053671115 0.1932001597115601 0.10767827253805407 0.0062372202060136245 0.06916923765708491 -0.19097060888038606 -0.08328916973794333
0.2286641569179873 -0.02810895821721859 -0.14972746357017228 0.08336177566884269 -0.017512669113144048 -0.1734581091586203 0.0553462834901279 0.04314616858688188
-0.0330343471950156 0.030889569803194936 0.04708766274026329 0.0010822572058468425 0.15202565834942053 0.08082690678685688 -0.10330245746986297 0.037021771979653686
-0.06719820822465515 0.06410679719880277 0.21569778879970433 0.004905192176636266 -0.03554075862142656 -0.032560977852782245 0.04605039277685191 -0.06320138639557003
-0.08358294785750751 0.05974834527853569 0.05005380617079939 0.010383939887896088 0.03416764145760007 0.12974570424913512 -0.29749355571947644 0.07225540638266673
-0.1920962928262274 -0.14110549964023603 -0.011216751311887872 -0.08235286857735272 0.05642129565022349 0.17820584382129942 0.023501871808379336 0.03848783353253438
-0.06411686972467183 0.306616198269674 -0.12032111536346032 -0.09560300605125453 -0.24163180943058357 -0.2990317700254877 -0.15818232339527039 -0.008845532225668438
0.07775931991526736 0.14842863374912776 -0.0820890091352067 0.21867937517319294 0.06905215441720865 0.07682372177169115 0.21400270792755785 0.11083430335387066
-0.22004923272310653 -0.1252282068565771 -0.19890277990218672 -0.07310036373197795 -0.021794210412026106 0.20328911760970128 -0.2305564093269542 0.15164837588062932
0.05582397845082287 0.20130812493278064 -0.02780729969711831 0.1344073711538333 -0.016560222013091423 -0.09872027598061082 -0.024090070416199455 0.06989290271930551
-0.026339724288998386 0.05279093011991633 -0.09317831278100976 0.06959373244989568 -0.04878619510150002 0.06265835269817159 -0.0025925505370741272 -0.05067744863717435
-0.026742935885733416 -0.02388507657011107 -0.1234491313077064 -0.04576292179721583 -0.04298854636247549 0.060934281201917476 -0.1714458030401154 0.045654679694652256
0.17016427683948954 -0.12361079292172733 0.07388626731845038 0.18499467729174207 -0.019474222145139337 -0.02466470709601687 -0.17669528289582767 0.053707289943443766
0.01989504155496733 0.0888329258065959 -0.14888958714375364 0.05649217727801526 -0.11369326927034926 -0.01712348201660502 -0.16054358727588217 0.169793292224827
-0.2910164800952117 -0.16105093351830907 -0.1825032756577873 -0.283258030428843 0.16470407113647836 0.19150496517356363 -0.28180478388788316 0.1222622459692177
0.07795636777713147 0.0511010522374244 -0.03340353994198423 0.03138912352540335 -0.012186599975603908 -0.11400710731854267 0.08374826050959959 -0.08310129137689538
0.030156300043326374 0.1443691171583169 -0.08947151337524852 0.0003689582958667184 -0.2114290989355964 0.18316419997068084 0.01396802727792334 0.09701987359170254
-0.06415833118198554 -0.1194400197966326 -0.17108870789026653 -0.219385240636359 0.1339768538038706 0.2037416992045075 -0.01103968751042335 0.049673914444298216
0.13961291673841095 0.009058153638846284 -0.11178430887050589 0.09808978560332302 -0.1833449818471856 -0.22171650454569952 -0.10949089907405903 -0.03624418260309335
-0.0017496054193599964 0.10440122372433874 -0.04379569742855455 0.0906055991161455 -0.156998609148505 0.07894133820246228 -0.07874271530040275 0.07224190408057603
-0.03367332125805523 0.04865320602468299 0.026630134666402273 -0.006344042727968496 0.03960032783146607 0.04100791698545887 0.0006133241307929464 -0.016054427936374016
-0.024371022723275727 0.12756654762405864 -0.1350880982197965 0.22115586031955436 -0.03955535341351451 -0.2140117385655542 -0.1478831144916326 -0.10905456123024876
0.2031080732358059 0.09428532955716201 -0.04577336958112127 0.2372369932615404 -0.1397939283442637 0.1998692442023161 0.11361610966194628 0.013038231432268978
-0.1529013536188015 -0.09330951368148814 0.04235438404386571 -0.08348440570342087 0.17708670937538543 0.13234395576139094 0.08675355906344719 0.03799960060193815
-0.07845395231642914 0.2828082385969387 -0.1917188952457759 -0.08579192389276058 -0.10939727738457583 -0.2042791933979576 -0.10855524296256451 -0.19902138638833414
0.07922288612408074 0.12441972877701303 -0.06961124382037938 0.10482081541563568 -0.027215578874685887 0.06523668983488122 -0.2287174150232692 0.17026969607736142
0.030483929682003582 -0.10748961946650039 -0.0425119038280593 -0.09889193376283988 0.1310574645387914 0.07856940315699784 -0.14706924182720915 0.1270231671868855
-0.10696574443713934 0.22775587031670014 0.09745196496953419 0.04182489720354987 -0.18342884647461186 -0.14260723788864052 -0.08966487657162431 -0.12805365826647155
0.020979507239778174 0.08358969788532933 -0.17719228260283357 0.0759190822731786 -0.1612482843969175 0.17195168686681805 0.12718176244839946 0.03195449446835034
-0.06342845373821399 0.01332617302087362 -0.12724871829874124 -0.1253283376068091 0.10813002853166641 0.1571843481869604 -0.04334417094131437 0.014836473830256589
-0.11657570462575714 0.03191364161597753 0.2878611870227589 0.10766004937192146 -0.21558002390332281 0.020845451127095925 -0.1764312877795533 -0.06936643138510021

baseModel.lstm.weight_hh_l0 f8 [256, 64]
00000000: d470 9c9f 042b c13f b466 ce90 ef78 c5bf
00000010: 073c ac4e e336 c53f 87c2 c883 00b4 923f
00000020: 20a4 c536 7d8f c6bf 98dc 1e29 186b 36bf
00000030: 89e4 343b 7d4a 9fbf 6b76 a3a3 ade7 c6bf
00000040: 37df a2c3 b643 a1bf 39f3 daf7 d513 ccbf
00000050: cb34 191d baef 983f 462f 02b3 178c c4bf
00000060: a653 d1c0 9615 c43f 43f1 c2e1 fb55 bf3f
00000070: 059a 4ae5 d41b c3bf e434 1548 d71a 813f
00000080: 30f9 7f82 4206 c53f 5624 6369 70f2 bd3f
00000090: 5436 8722 dda3 cdbf 6355 de68 a94a cabf
000000a0: ce73 f655 8251 c1bf 27eb c7cf e4d6 bfbf
000000b0: 573f d812 5ecd c83f a6c0 146f 1d72 9abf
000000c0: bb70 0643 c7b6 b43f 58ae a638 61b0 8abf
000000d0: 6b0b ad37 6380 a3bf 47d4 b6c7 af41 c73f
000000e0: 14eb 580d 7616 bebf 9704 1178 7a70 bbbf
000000f0: 914b e7c2 b50a 66bf 04eb f1c8 8298 ba3f
00000100: bfb5 b9c7 80c7 ca3f 47f9 467b 0d01 c3bf
00000110: 1d09 229b 72be b33f 89c8 748e 9fc7 c8bf
00000120: 97fe 1773 0122 b63f 7246 548a 271f b2bf
00000130: 634a ae4d 1eda 91bf d266 4e9b 1b27 cbbf
00000140: bdb0 c0e0 89c3 b6bf c0d1 9c41 bfee c23f
00000150: 929b 956f 4e73 85bf 6eab 724d 8251 a7bf
00000160: 2010 5cba 16d1 c2bf 9753 a21e 3e96 b33f
00000170: 7bbe 7172 466a 9fbf dc9a 065d 698f a6bf
00000180: 9e7c 603c b42b b6bf a690 ab5c d6a5 b03f
00000190: b82a 3904 5a55 b93f 7ee9 6554 a9ac bd3f
000001a0: db56 43cf ef0d a9bf 021a da44 4673 b1bf
000001b0: d6e0 4f5b 638f c33f c640 9793 8ae3 bbbf
000001c0: a7b1 c460 e137 993f 86bd ecde 836e be3f
000001d0: c3f8 fddd ef0f c5bf ca91 7446 2682 c3bf
000001e0: c280 a2ad 1a59 b53f 0304 1ca2 be7f c5bf
000001f0: a54e 2bb6 bf1c cf3f dc65 a8a2 48c7 c13f
00000200: 185f 1a57 183a ab3f 7306 b9f8 9084 6c3f
00000210: cd22 662e 7c50 933f b5a2 454e 437c cb3f
00000220: a9a0 4d7e 294b 603f 610b b90f 4839 c3bf
00000230: cc3b 578d 8000 a03f c8d4 9ce5 201d 983f
00000240: 6d6c 1f01 add2 b23f 8385 ff4c 2217 c6bf
00000250: dd9e 3e37 88fd 4fbf a1ef 704c ef51 b8bf
00000260: 85a6 a659 9c29 ac3f d067 266b dd91 b33f
00000270: 5dd4 2968 2cdb bdbf f854 e89b dce3 9fbf
00000280: df05 c27d a6e8 c03f 8057 29e9 954d ab3f
00000290: 489b bd85 1958 8dbf 8a95 b2f9 f8a3 c0bf
000002a0: cbf9 b224 3cf5 bfbf 0a53 e6df c094 c4bf
000002b0: 996e 80f9 bb13 9abf 7903 b678 6953 b1bf
000002c0: 6bb8 2bd6 cd4c c43f d827 9c5e d0a6 b03f
000002d0: 108d 5d41 9866 9f3f a0a9 0b02 734a c43f
000002e0: a90f a893 b2cc bdbf f055 4e11 23a3 c6bf
000002f0: efcc 067f 9413 5bbf 1a09 87bd 545c adbf
00000300: 9db4 8441 8ba4 aa3f 196d f934 d19b 833f
00000310: 634f cc6e 7b62 9b3f f56b 90e5 a87a 8ebf
00000320: 67fd 6aa6 f2c4 873f 6c7d 56f3 31ef a7bf
00000330: aa82 c95b ac46 b73f 70f0 f564 a276 9ebf
00000340: c07b b129 544c c0bf 2484 697e 5831 c53f
00000350: 8436 7b43 5ad5 78bf e2a8 cf0d 0b86 a1bf
00000360: 3e89 0e0e 4fd6 b1bf 3b22 1780 7b69 b0bf
00000370: 28e9 9c0d f772 9dbf 444b 1fdb 49a3 52bf
00000380: 6958 8151 060c b83f cb7a e160 563d b7bf
00000390: 2461 9758 1385 813f b380 6935 620e b5bf
000003a0: 3156 bab9 9112 94bf 1a8c a10b f61c b3bf
000003b0: 7e64 b10d 9aaa a6bf 7371 fc7a 4b17 b9bf
000003c0: dbda b0d3 25fb c43f 7151 9390 fc17 be3f
000003d0: 4682 6036 975c bfbf ae5e 7ed5 0613 9f3f
000003e0: 103e 8fc2 21c0 9d3f 5866 a232 0539 babf
000003f0: d220 69aa 42cc c03f 017c 1799 cf52 ca3f
00000400: d1f2 a7e3 5c8e a6bf 60a0 ffa5 af3e a4bf
00000410: cd80 27ad 6fd1 b33f 0024 948b 6175 b33f
00000420: d46f 1c36 ab0e c2bf 3fb6 341d bda7 b33f
00000430: 3603 d27f e542 c93f 2725 63ae ed22 a9bf
00000440: b807 ffbc 8267 a1bf 1924 0dae 4782 b4bf
00000450: 2866 a1c4 0a34 b43f 8e96 a615 4dd3 c3bf
00000460: b3dd b6a0 4768 9cbf 64d0 993c fa0c c93f
00000470: c196 95cd 4796 9ebf 51fb fd1a 579b 6a3f
00000480: 19c6 4072 85c7 8e3f 86bc b5c3 379e 953f
00000490: c5da 4845 f0ba b7bf cf32 1546 6b66 b0bf
000004a0: 3084 364d 95f2 6a3f 1a69 706e 1372 9abf
000004b0: 460f ad52 3028 c13f 6d1f c2e1 b533 91bf
000004c0: 0665 105d d1d1 ba3f cfed c73c 20be a93f
000004d0: b80d d217 ae3f 90bf dd5c ee8c 992f a6bf
000004e0: 2fcc d5e1 9374 a4bf 49d2 4ac3 92d3 83bf
000004f0: 1b17 7cbb 87ed b0bf fc47 f053 a413 b73f
00000500: 5da9 9ffb 682a b93f c696 8567 22a0 c3bf
00000510: 01e1 a1a8 2a0c 923f aa5b 3482 3567 bfbf
00000520: 6529 3053 3e5a a23f 7984 96b8 ae48 9bbf
00000530: 3fa3 4c2a 0f30 c63f 13cb 61a0 6b40 8a3f
00000540: 3fa4 311e d150 b5bf d085 1151 f19d bd3f
00000550: a287 b7fd 54ad 5bbf 6e37 3ccd a6a2 c4bf
00000560: 9a71 ea06 1b3b b1bf ce69 ad66 966d 81bf
00000570: e900 8ed8 7816 c5bf 6978 e364 b0c4 a7bf
00000580: 5dad 81c1 a162 9bbf 1874 42ec 88d3 b6bf
00000590: d76c b65d d98c ca3f 8cae 909d 51a1 273f
000005a0: 452d 1e84 8e84 943f c2d5 0944 df3a 9b3f
000005b0: 1d9f e174 5640 883f cf5d 4976 828b ac3f
000005c0: dfb6 429e 2a88 b33f ded7 94d4 2a8f 8e3f
000005d0: f423 a18d 21cc bfbf 7bc5 e064 9ebf 8dbf
000005e0: a51a 548e 1c8c b03f 548c 3413 a766 8a3f
000005f0: 6dc4 f9df 1788 9dbf 6430 fbf1 b93c 973f
00000600: b7f7 be57 77f9 67bf 8135 4e4c 9c01 823f
00000610: 486b 58be a78a c03f 712b 8b47 e592 bb3f
00000620: 1925 9f66 c177 9f3f e8e9 ed55 c5e1 86bf
00000630: f475 d378 8eae b4bf 94ea e85d c2b4 a0bf
00000640: 1080 92f1 82fb b33f f33f 522c 6415 b0bf
00000650: 890e 732c de21 a5bf 145b 9265 e650 b3bf
00000660: 2ae7 328d 0042 bc3f 2eca f46b 59fa b0bf
00000670: 4a15 9a1b d3ea bfbf 018d 86e2 81c2 a03f
00000680: cf12 5a20 64f3 b73f a45d 370b 0638 96bf
00000690: d91d 38c6 c8ac adbf 954a 0096 53f7 b7bf
000006a0: 084f 3b94 a0f6 72bf fa37 b7c7 64e0 9b3f
000006b0: ae04 747b d85d bf3f 75f7 6d1b d7a9 b5bf
000006c0: 5670 db9c de9a c53f 7f36 aba3 4d98 7fbf
000006d0: 4150 bbb1 4e06 b3bf 6097 cbe2 c40a b73f
000006e0: 144e abff dcf1 aa3f 8b84 17cf fc16 b6bf
000006f0: 9107 7693 1b0a c2bf ef61 22b6 1e62 943f
00000700: ab0a bff9 0324 b3bf e0b7 f713 737d b1bf
00000710: c970 86c2 808e bdbf 9d5d 3fd1 8bcb a0bf
00000720: 8d04 8ef6 b93a 9b3f 9c43 5c3b 374e bcbf
00000730: 4d19 ec30 0bc6 c33f 0018 d6e2 a16f a3bf
00000740: 13c5 c36a ec0a 713f f558 29e8 c15d aabf
00000750: 2cb1 5aca 188a 9f3f f813 7165 dfde b93f
00000760: 9996 78bd ffc1 c0bf 3b73 7935 b86d c9bf
00000770: 230a c3b7 a686 88bf 770d de2f 0641 b5bf
00000780: 5407 300c e83a b0bf eeea 2b84 6dbf 90bf
00000790: 1e66 d9d0 fa96 a33f 1188 ca55 660d 98bf
000007a0: 6897 3e98 1d9f ae3f 0622 f359 ad2a c2bf
000007b0: c01c 22bf 5124 913f d68b d030 f321 afbf
000007c0: 5b7a 34d2 1cb9 c03f 8495 68c0 96ef a73f
000007d0: df4c 8d2b d18d 9fbf 47a6 7e76 e084 b6bf
000007e0: 0b4d 2ad6 4006 c33f 23a0 22a3 d4a8 9e3f
000007f0: 6254 5278 7746 b63f ff14 9081 a826 b23f
0.13412530702124192 -0.16775316782586958 0.16573754636235113 0.01826477817866359 -0.17625394033828545 -0.00034207668170034 -0.030557591189083886 -0.1789452599540938
-0.03371974123132165 -0.21935534097965517 0.02435198595621983 -0.16052528610850397 0.15690884032178792 0.12240576040034505 -0.14928685375089415 0.008351976287168168
0.16425353405060994 0.1169805772107265 -0.23156322656579909 -0.20540349598438032 -0.13529996106527026 -0.1243727690961519 0.1937673179640977 -0.025825939087724813
0.0809139765391959 -0.013031730214456846 -0.038088894411450656 0.18169209720295695 -0.11753022981512756 -0.10718503409681755 -0.0026906538034636236 0.1038896313274727
0.2092133498403381 -0.14846962470432798 0.07712475097108436 -0.19359201866024403 0.08645638523011666 -0.07078787924936039 -0.017433618060361044 -0.21213097651780416
-0.08892118203283679 0.14791098312129058 -0.010473835735593604 -0.04554373927506715 -0.14700588321295616 0.0765112709799055 -0.03067884515297557 -0.04406289349144796
-0.08660437082333991 0.06503047716575114 0.09895861247165783 0.1159158545541796 -0.048934454012550886 -0.06816519909816779 0.1528133579120154 -0.10894075492183494
0.024627229243536466 0.11887382690905754 -0.164548858065194 -0.1524093479175817 0.0833908723748236 -0.1679609576749784 0.24306484599093384 0.13889415685916517
0.053177605278675155 0.0034811812854805223 0.018861713726013463 0.21472970315814668 0.0019889650742933207 -0.15018559234348586 0.03125383115149524 0.02354861642307496
0.07352715756808133 -0.17258099326776852 -0.0009762683025557845 -0.09500022522200748 0.05500496477482123 0.07644447198836635 -0.1166255716614883 -0.031142661109773123
0.132099925427652 0.053326306068512075 -0.014328193086567645 -0.1300040454126868 -0.1248357381436797 -0.1607895940075184 -0.025465905288099753 -0.06767901608510653
0.1585938735729003 0.06504537877859151 0.030664805402364215 0.15852201080208506 -0.11640468697447538 -0.17685354561824296 -0.0016526174696139225 -0.05734505475585845
0.05203662085328029 0.00957454150118635 0.026742867124155533 -0.01488239241193943 0.0116061169659349 -0.04674678893502002 0.09092213860413759 -0.029749429142143347
-0.12732936893277547 0.16556841061086047 -0.0060628438875035585 -0.034225793300565646 -0.06967634289916178 -0.06410953404623225 -0.0287588693674731 -0.001137563824603575
0.0939334820735397 -0.09077968468907753 0.008554602757542336 -0.08225072673804128 -0.019602086029939684 -0.07466066154442821 -0.04427033822202818 -0.0980117011317299
0.1639144214293172 0.11755350618051864 -0.12250657155574016 0.030346018581978988 0.029053237438175172 -0.1024325607890203 0.13123353310425628 0.20565218901808183
-0.04405489233974936 -0.039540757192128906 0.0774144933452618 0.0760098424690483 -0.141072656079699 0.07677823985132991 0.1973540186045512 -0.049094607865820365
-0.03399284894068394 -0.08011291503238772 0.07891909885929549 -0.15488589818157944 -0.027741545852874427 0.19570854147935102 -0.029870149538871574 0.0032479001310429596
0.015028994130349681 0.021111365623650367 -0.09269620601194635 -0.06406279049879092 0.003289500813210576 -0.025825790038745834 0.1340389636699177 -0.01679882231158507
0.10476406595298124 0.05027867071109037 -0.015867920116318962 -0.04333190770483395 -0.03995191699768729 -0.009680887780043739 -0.06612442328704697 0.09014346169740856
0.09830337660938455 -0.15332441382195422 0.01762453703165168 -0.12266859463521365 0.03584475293617365 -0.026644449249606048 0.17334165158652046 0.01281818469235455
-0.08326441752582613 0.11569126347742231 -0.0016892747870475918 -0.16121373196841254 -0.06730812949030565 -0.008509802826371617 -0.16474829267463711 -0.04642249328183896
-0.026743438182547197 -0.08916526573234795 0.20742337299166166 0.00018028374941657756 0.020036913694224685 0.02659176686070964 0.011841464464125867 0.05575187391212532
0.0762964855554986 0.014921507465810831 -0.12420854289770472 -0.014525639966538098 0.06463793253724733 0.012891106866453374 -0.02883946709193135 0.022692590135918414
-0.0029265719331012757 0.008792134359988381 0.12923142236908292 0.10771019932432836 0.030730268372086565 -0.011172811207633651 -0.08078852128843278 -0.03262908359871122
0.07805651090393462 -0.06282640535414412 -0.041274016309697244 -0.07545318584230315 0.11038211295354175 -0.06632002721452387 -0.1246768896472378 0.032733973409699864
0.09355760373916698 -0.021698088106715155 -0.05795886439960513 -0.09361765300881537 -0.004629733335338455 0.027223181428603006 0.12252572072977116 -0.08462280673663065
0.16878874453584797 -0.007713607100141239 -0.07431499327805204 0.09000807320589166 0.0526265203567641 -0.0862882619471909 -0.14093346309897162 0.01990554796847904
-0.07476830336876598 -0.06832045781604235 -0.1154556727328241 -0.032802933972273275 0.0265912110076028 -0.11056847762325933 0.15448131455213812 -0.03796106237409447
0.00416080809030574 -0.0514965625667844 0.030800235129093398 0.10105701662639877 -0.13092037917629254 -0.19866087542586705 -0.011975576861350373 -0.08302344006192706
-0.0633988408808624 -0.016355239097701472 0.038261259073532936 -0.02348861597659641 0.0598077057214102 -0.14192740337445303 0.016740109721038676 -0.060805892666642755
0.1306491876975596 0.04674979304062801 -0.030814426692200022 -0.0879650391858827 0.1486283345917417 0.02994091268251976 0.08701273620165886 0.07090237773089213

baseModel.lstm.bias_ih_l0 f8 [256]
00000000: e518 ed9f e116 c53f 232d 5ffb f122 cb3f
00000010: 27c2 0fed 9527 903f d50c f9db 6504 72bf
00000020: 2e9e ac49 a4a6 c43f babc 4362 190b a43f
00000030: 5f1e 2a21 23a3 9b3f 80e1 7d2e 7ea7 c03f
00000040: cad8 7c75 9548 af3f 81fa 1b4a 7630 913f
00000050: 4b7a 752e 2ed4 c23f 57a2 0647 751c 993f
00000060: 634b 12d1 c799 a83f b05e 234e e45f a33f
00000070: d73b 06cc e639 4ebf 932b 6622 ca83 c73f
00000080: 23ff 0f12 672e b3bf 6854 acd7 b883 703f
00000090: 0364 19a6 abb4 c03f 85b1 0824 b8a1 843f
000000a0: 9c3c 3c6b 0e20 85bf febe 393c 56a8 8e3f
000000b0: a373 3bb3 19bb a03f 3e17 7a2b dcb9 bd3f
000000c0: 1300 6b75 7b0b be3f d0a2 fc38 94d6 54bf
000000d0: debb 1756 b260 673f 7c4e c1b7 ef36 83bf
000000e0: 00a1 8acf 30b5 c33f 537f 6ba4 9520 b0bf
000000f0: 4326 2503 77c8 cf3f aadf ddc8 f032 c63f
00000100: 0805 effe 124d b13f 2070 78f1 0b91 c03f
00000110: 1e79 74c8 3785 b53f bf86 f6e7 5c80 cd3f
00000120: 4426 0e66 6707 ba3f 90c8 1257 03cf 92bf
00000130: d13a 601a e1b8 c23f b23f fc6d 9475 b43f
00000140: c7b0 c1b9 76ee a43f 09e3 40eb edc2 c13f
00000150: 0a99 bac5 f089 8fbf f3de ff67 d483 bc3f
00000160: ae47 06d4 1cdf 393f d992 38a7 4e6f bf3f
00000170: 77c0 31d1 8ad9 bd3f 57a8 88fe cb4b a73f
00000180: 869a 4f63 9530 c43f d2f4 a15f ff3d bc3f
00000190: dcaa 4f02 df93 b73f 6ef5 3833 2ef3 b73f
000001a0: 3643 9ef3 09bb c63f 53c5 946e f866 913f
000001b0: 5439 fa94 8be3 c13f 64e3 5c1c e54c cf3f
000001c0: 8e08 8588 9600 85bf f5d9 7d0b 51fa af3f
000001d0: 4801 a578 a863 a93f e697 89d7 5e7d be3f
000001e0: 3c35 ceaf b75f a93f f873 1c86 eb90 bd3f
000001f0: a77d 198a d386 8d3f dad3 1bd1 c430 953f
00000200: daa4 331f 0330 c0bf 570a 6bf1 81b7 a43f
00000210: 474c 78b2 547b b83f 5e33 66f8 5ef1 bb3f
00000220: 6cf6 3622 c431 babf 4e1b 40ac a00e b9bf
00000230: f207 825c 51e2 c5bf 2b56 0480 75ee bb3f
00000240: 1945 2118 58c6 c1bf 8550 0513 826e babf
00000250: 9409 6879 86e6 c4bf 2031 3ade 187c 883f
00000260: fdfd 1ceb 837a bfbf 4c9b 3682 8829 cabf
00000270: ae44 c887 39b9 9f3f ceb6 874a 0d41 c3bf
00000280: e45c 041d f492 af3f 0ad2 d68f 8689 a0bf
00000290: 2cf0 b73f cc5b b9bf 5dd0 c555 9417 adbf
000002a0: 3f0e d7eb 64b1 ac3f 03cc 6642 53d8 a53f
000002b0: e90a 8c63 8b22 be3f a17a afda 7764 aa3f
000002c0: fa11 cc22 e9cf a9bf c933 dacd cb40 aabf
000002d0: 67a7 923c 5d52 a7bf 5c7e ed9b 9f9e ab3f
000002e0: c816 5e82 733b a8bf c5b7 0a0f e629 a43f
000002f0: 4d16 7aeb 8805 a03f e5f4 3ea0 1fac 6e3f
00000300: 6070 b537 1537 8f3f d323 a1a5 1af3 afbf
00000310: 4e68 7734 6b18 a4bf 8e92 543a 8a74 aebf
00000320: d105 d57e 9b8c a33f 1cd5 72f8 079a a13f
00000330: 6263 95ca 5dc8 933f ab34 cc29 75d3 b83f
00000340: f9f1 359f fc21 ac3f 6f3a 9df8 d067 ba3f
00000350: ec43 912d adaa a0bf b49b 6033 25aa 85bf
00000360: 8f49 0eb3 2e5e b2bf aa0a 3c1d a0f9 c8bf
00000370: 80a4 89ed f609 98bf b479 4187 985c c2bf
00000380: 1429 7ebc 1359 c1bf 3817 5d5f bf44 b2bf
00000390: 66a5 35b6 8459 b4bf 161b 2e20 b16d 9bbf
000003a0: c824 92b9 c62e 863f 8568 7b8e e789 303f
000003b0: 9960 60f6 a68e a5bf 2a4a 4568 fe6c b5bf
000003c0: e2be 6b4b ad52 7ebf 1a4d 8914 7e3b c1bf
000003d0: e9f7 f8ae f33d adbf e392 6ea8 3e7c 933f
000003e0: 5d7d fc83 d04e abbf 4810 828b 5937 833f
000003f0: d0e3 8f85 c502 50bf 8701 d69f 5dd7 a53f
00000400: 47ab 1bc3 188f b5bf d9dd 276e 8185 b3bf
00000410: aa4f b8b0 8c88 ad3f 3edb c1f4 586d 903f
00000420: 62bd 16fc fb11 97bf 06c1 9f8c 52a2 b03f
00000430: 9e15 eaff a93a b23f 95dd 1993 adf9 b8bf
00000440: 5b5c 94bd 47f8 b13f ef26 578d 4756 aebf
00000450: da9b e40d 730a c13f d66b 82a5 2809 c2bf
00000460: e559 2f0e 0e63 a43f 799c 41cd a13b b23f
00000470: 6fdb 502f ce52 c7bf f5fe cbcb df3c 65bf
00000480: 4ae9 fda6 7473 b23f d42b c2d6 f62f a9bf
00000490: c6a0 9185 5b3e bbbf f4a8 6b8e f15c 843f
000004a0: 4a85 0983 c604 b53f b695 e88d 0d8f b7bf
000004b0: 4c94 697f f70a a2bf 7f6c da31 44ad a2bf
000004c0: 868a f3ac 4f04 ba3f bc4a 05be 332d a1bf
000004d0: 85c8 5ab0 c721 c8bf 1daf fc06 e09b b93f
000004e0: ecf0 b798 62cf 6b3f d064 9611 4161 b0bf
000004f0: 3add 868d c7e7 79bf ef21 6960 856d 92bf
00000500: 4ed8 1fd0 d460 b2bf b50d de8c b61e 9d3f
00000510: ec42 8651 2b43 b53f d035 d002 1570 a2bf
00000520: ae86 83da 94c8 b03f 9fc2 2709 28d5 b5bf
00000530: 7773 1d83 a28d c43f f353 1212 4be9 b9bf
00000540: b743 e5cf 776f bcbf a32d 8f4a a798 be3f
00000550: 63d6 00b1 917f ab3f 4070 e63a 7dae bc3f
00000560: dabc f64f 7a05 9cbf 0ebc 3595 6157 ac3f
00000570: e543 c266 2ed1 b2bf b613 1bf9 29ad 98bf
00000580: fa48 11f1 4a77 b13f 8d42 291c 1388 853f
00000590: a742 0c19 5b75 833f acab c6a5 639a 82bf
000005a0: 36ff 90da 4ac6 82bf a8ab 9ae4 2fbb c1bf
000005b0: fbc4 5684 c4c7 b63f 18a3 6b34 bf0d bebf
000005c0: a18e fcc6 6beb a93f a66b 8f3f d694 b03f
000005d0: ffec fc7b 2dae 92bf 2e24 e08e f52d 843f
000005e0: d5da 0184 c91b bc3f 7a68 50a8 f3d5 c0bf
000005f0: 2876 40ba d4f3 af3f 5615 1b10 7f30 ad3f
00000600: 2302 e7aa e071 c63f dfaf c325 361c 92bf
00000610: 4ba5 c49d 708d c23f 553a d7ab de4d 74bf
00000620: 979f 0076 b28c c23f 4dbb cec6 68e7 c93f
00000630: e064 bb35 fd47 c03f 61a9 9bc0 5ace bd3f
00000640: 1299 1daa 5156 b73f dd84 9346 93b4 bd3f
00000650: 517d a13d d998 b73f 8d1a 9ee7 66c1 b1bf
00000660: fd74 6c37 86fc ad3f 9c0a c046 822c 6cbf
00000670: bc82 8345 792d afbf 85c3 c6b6 0b1e b53f
00000680: c816 7457 f97a b5bf 3c9d 7907 eded 933f
00000690: 80c3 6c89 0edd b43f 7be3 6ef1 1ed1 bf3f
000006a0: 1f8d bf49 70be a93f 8988 72e9 eea0 b83f
000006b0: 4190 6486 0c13 a23f b61b 38a8 45ea bf3f
000006c0: 970a 417a 700e b13f ac55 9881 6ade 6dbf
000006d0: 4253 81bd 7889 3e3f 0e6b 6b44 4319 c33f
000006e0: 2d00 e05a 90d5 90bf 48d5 6921 990c c33f
000006f0: 9662 36d0 9ae5 ba3f 3674 bbfa b96d 9dbf
00000700: dca8 a379 ae75 b23f 034a dcca 6973 bb3f
00000710: a3b6 07b2 fd9b af3f aafd 9897 cf9f b03f
00000720: 8f61 41bc 2cdd 95bf b3d9 1679 20bf bd3f
00000730: 2d41 4ad9 58d2 be3f a375 04b4 c848 a53f
00000740: 02a0 e1b5 0f7f aabf 179a d4b3 94f1 ae3f
00000750: 746f d37c 96b0 bf3f 09b6 ab04 3eee 9fbf
00000760: b7ef 94a7 7f0e 96bf 8a8c a2f2 b672 bcbf
00000770: ef8a 238b d984 9abf 1ac1 aa71 7a73 8c3f
00000780: 9fef 279d 8b73 cd3f cd47 9af5 d686 c93f
00000790: 210d 7f7f d1d6 87bf 4f5e 4c33 b81d c33f
000007a0: 0a6f 9d87 effb 99bf 822e 25f0 37ce bb3f
000007b0: 711f fcdf 5e4d acbf d4f7 08da 5199 be3f
000007c0: bafa 8e41 d646 aa3f 60f6 d047 8124 bd3f
000007d0: 608d f426 ed46 9cbf 50ce ee36 95c7 c53f
000007e0: 96c8 9f65 de6e c13f d527 1d64 73bf be3f
000007f0: 31a1 8208 eb9a bf3f b0e3 f72f 9b80 9b3f
0.16476078328032098 0.21200394414913956 0.015776007265175942 -0.004398725402612065 0.1613355025995004 0.0391471798374083 0.02698950662536814 0.13011147756675356
0.06110064562965219 0.016786430619499363 0.14710023182392926 0.024522621593549534 0.04804825236455803 0.0378409715064526 -0.0009224297464686071 0.18370939902919456
-0.0749267977807873 0.00403186992732172 0.13051362619697224 0.010074080085438872 -0.010315048835336342 0.01496951457303863 0.032677462700781555 0.11611724912117169
0.11736270538949638 -0.001271862743985764 0.0028537257319309747 -0.009382126612911927 0.15396700033057442 -0.06299720062406537 0.24830520299501488 0.17342958267158554
0.06758230899778905 0.12942647257375572 0.08406399387283556 0.23047982527082486 0.10167547456344389 -0.018367817105805317 0.1462670687473833 0.07991912541569837
0.040881834197394044 0.13876127230630456 -0.015399819406706889 0.1113865617661494 0.00039476827444062223 0.12279216368240088 0.11660068137439504 0.04550015909292487
0.15773265217940863 0.1103210075834398 0.0921000843660908 0.09355438948201364 0.17758297343655166 0.016994363545739088 0.13975662969864777 0.2445341480722859
-0.01025502781033463 0.06245663895872503 0.04958845589362909 0.1191005016531502 0.049558391771919535 0.11549255394170632 0.0144173170585294 0.020693850768072376
-0.12646521590730836 0.04046255180357566 0.09563187939811356 0.10915177883562197 -0.10232187114066854 -0.09787944989521444 -0.17096917168606712 0.10910734534658022
-0.13886548212261898 -0.10324871982931157 -0.16328507354780852 0.01195544651206909 -0.12296318521566003 -0.20439249380180013 0.030980013763898633 -0.1504227270046869
0.06166804174625343 -0.03229923730706126 -0.09905697398784302 -0.05682052180318984 0.056040910519666635 0.04266605554166605 0.11771460705135052 0.05154776138782791
-0.05041435766000642 -0.05127560508581259 -0.045550264019154345 0.05394457605757161 -0.04732857672119689 0.03938216146103416 0.0312922275016204 0.0037441842741531167
0.01524178100833512 -0.06240161201328189 -0.039248800425142435 -0.05948287927666228 0.03818212435954716 0.03437828929728878 0.01931902455303048 0.09697658796740664
0.05494679873934056 0.10314661092454867 -0.03255215817683407 -0.010578432684338647 -0.07174960967521414 -0.1951179640528456 -0.023475511787556247 -0.14345079998288457
-0.13553091720343302 -0.07136150434697874 -0.07949094246364083 -0.02678562888061283 0.010831406152890813 0.0002523603747995945 -0.042103974890950364 -0.08369436307592851
-0.007403065616685219 -0.13462806704283353 -0.05711328040023018 0.019028643636960118 -0.05333568202172032 0.009382915086696766 -0.000977223293601382 0.04265873504755562
-0.08421473277455248 -0.07625588359211778 0.05768241555429594 0.016042127550885292 -0.022529542218476258 0.06497684415058211 0.07120764253530473 -0.09755978432973784
0.07019470575720403 -0.05925201034876958 0.13313139131898205 -0.14090450364605428 0.039818228942454494 0.07122241269245135 -0.1822145205530563 -0.0025925036446777746
0.07207421376179926 -0.049194062915453834 -0.10642025004347308 0.009942900809126055 0.08210411738538884 -0.09202656473697499 -0.03523991995170003 -0.03647816761550703
0.10162828419155731 -0.03354798979366566 -0.188530884848266 0.10003471537191584 0.0033947873796461494 -0.0639839809358762 -0.006324557784345425 -0.01799591446823173
-0.07179002839242907 0.02843747362886769 0.08305617084830502 -0.036011368363783824 0.06556063017662936 -0.08528375838774103 0.16057235147573198 -0.10121602240754139
-0.11107586694312387 0.119516807272865 0.053707650048107757 0.11203749359123183 -0.027364646082500645 0.05535416551980897 -0.073504352653131 -0.024098068074426236
0.06822651277005667 0.01051344804469181 0.009501182271862986 -0.009083536621650477 -0.009167275233380328 -0.13852499639810145 0.0889857123463748 -0.11739726095005343
0.05062424472842265 0.06477107097400267 -0.018242560093523427 0.009853285238948652 0.10979899857361926 -0.1315292903753436 0.06240715764600352 0.057010622707404465
0.17535026879160495 -0.017685743384319493 0.1449414034225732 -0.004957074937421331 0.1449187351402059 0.20237455088996584 0.12719693301804735 0.1164299698099618
0.09116087344373039 0.11603661034634478 0.09217603449495938 -0.06935732989050276 0.05856723238523818 -0.0034391922436055166 -0.0608938119273765 0.08248971187891925
-0.08390768418402239 0.01946230276226156 0.08149805884455752 0.12428468126644347 0.05028105640647084 0.09620564650916398 0.03530158176934651 0.12466845852769279
0.06662657723158315 -0.003646095294935056 0.0004659576202404211 0.14920845833588497 -0.01643968157441138 0.1488219655181331 0.10506599028884475 -0.02873888581131131
0.07210817784985885 0.10722981646203071 0.06173699186534278 0.06493852091897759 -0.021351527204701844 0.1161976142528605 0.12039714150364907 0.04157092282751342
-0.0517506513140802 0.06043686576076739 0.12378826663501546 -0.03118225959308599 -0.021539682963733955 -0.11112540649132732 -0.02589740668998791 0.01389213237175162
0.23008866475708786 0.1994274806243638 -0.011640202239397159 0.1493444681625413 -0.025375120785027717 0.10861539471550866 -0.055277790872479644 0.11952697346802604
0.05132169294619389 0.11383827212645192 -0.02761431265129255 0.170153285811113 0.13619594537846486 0.1201088065546679 0.12345761258859934 0.026857781222108634
