weights/weights_MOCA_25.pt (torch, 52845 bytes, 14 tensors)

baseModel.mlp1.layers.0.weight f4 [32, 20]
00000000: f0ae 6f3e 1896 ecbd cc1f 80be 8b18 ccbc
00000010: 2977 4e3e 9107 81bd 0ae0 05be 0986 b8bc
00000020: 3d5f 07be f9ef b73d 477d 4ebe 369d fbbd
00000030: 0820 ebbd c218 903d 7db3 45be eb99 46be
00000040: e6f6 863e 0796 9a3d 9b30 a63d 2bc5 633e
00000050: 23cb 143d adc6 8f3e 3c45 e5bc 35c1 943d
00000060: 0ce5 ab3c ed2d 033e bfa2 80be 34f6 c7bd
00000070: 5cf9 0a3d 0a52 853d e190 6cbe 4991 463e
00000080: d5c5 c8bd 7c4c 55be 7cf1 9b3e 83ff 62be
00000090: cd4b 13bb 2eda 3abe fff0 553d a82c cabd
000000a0: 6ed6 32be 1ffd 4cbe e28f af3d 6c60 17be
000000b0: b396 cb3e 4821 48bc df88 8cbe 0975 103e
000000c0: 6113 b9bd 7161 0e3e 76e4 18be dca3 3f3e
000000d0: 9dff 70be e4e4 4fbe 85a0 d43b 34cd 253e
000000e0: d4a5 9fbd 5f26 be3d 67df 0abe 2ec7 543c
000000f0: f335 6bbe 09c2 1e3c fc67 523d 244d 86bc
00000100: 3c9d 7fbe c3e4 793e 5545 6c3d 70a0 833d
00000110: 0f7e 923d 52be 7abd fe3c 0cbe 4f77 d2bc
00000120: 32e9 20be 620b cebd 9f00 913e d16d 813e
00000130: a3c9 be3d 5354 943e 83b4 cd3e ff9d 3c3e
00000140: 1282 03be ace4 72be 50ae 3cbe 972b eabd
00000150: 32f7 673e a4dd 11be 093c cfbd 7803 703e
00000160: eba1 52be 3ce3 873d 2d16 8c3e 9c35 8bbe
00000170: dc11 6abe b543 8b3e 7adb 9e3c 0081 d6bd
00000180: f9a4 093d 7c9d 37be 461f 033e 5607 8abd
00000190: 93b0 2b3c 751e 24bd bf31 b7be 9ec2 e0bd
000001a0: 90f9 803e 7b4b 2bbe 57a1 1a3e 0fe3 80be
000001b0: 4ebf 4a3e 28f9 2fbe cabc 593d c8d6 ba3c
000001c0: fb55 7d3e 2327 d2bd b385 d53d abd3 ac3d
000001d0: a824 75bd 98a3 223d 2ce8 4a3e b304 6abe
000001e0: 255d 9d3d a50e e2bd e715 56be 629c 9c3e
000001f0: 3a6d 3a3c 4140 c2bd 9f7a 8abd 602b e3bd
00000200: 13c1 473e cf2b bdbd c5db 5d3e b4f1 583e
00000210: 5269 6fbe 5c84 cebd ad7b 26be 7693 ecbd
00000220: 80d7 8a3e 7641 afbd e49a e83c a67b 83bd
00000230: 0b35 593e dfdf 9d3e d20c 6a3e 614d 9abe
00000240: ca02 60bc a764 0b3c 5703 513e b2ac 5ebe
00000250: af0d 003e d6d9 50be 1872 903c b2f4 1a3e
00000260: 7bdf 52be 4cf5 1e3e 5681 2cbe dbe4 973c
00000270: 8814 7abe fc78 c13d a00a 91be 9cbd 173e
00000280: a1c0 4dbe 6885 753b 2856 75be 8fe2 cdbd
00000290: 9fa8 43be 3c7c eebc 9655 423e 8a42 9cbc
000002a0: 1470 6ebd ec20 0cbb d669 da3d 4057 a93e
000002b0: 79d7 8cbd a890 d93d 6f12 0f3e fd2d c33e
000002c0: 03e9 1a3e f0fe b1bd 81a9 ffbd 4519 963e
000002d0: e8ee afba eeed 2abc b2dd 913e ca90 12bd
000002e0: bc40 293e 4816 6f3e aee8 833e 8876 523d
000002f0: a9f2 783e 4591 2dbe 488d c53d 7c8a 6ebe
00000300: c80b ae3e f661 c9be 40f2 debc f649 0cbe
00000310: d81e ba3e e734 39bd 5ece b2bc 65de ad3d
00000320: ac12 583e 4c1b c2ba 9797 9e3e 5b74 463e
00000330: 2c9a 90be 55af c4bd ec6a 9e3d 3c8e 52be
00000340: 0959 a6bd a906 333e 30e2 613e 37f1 5ebb
00000350: 7542 2fbe f40e 1cbe cc39 993c c044 513e
00000360: 88ec 1a3e 3eaf 8dbd 7f1f 9a3e f7e8 783d
00000370: a4fd 4bbe 0fc5 01be 6208 3ebd 2ecf 3b3e
00000380: 875e 74be a216 9cbe a182 2cbe fd54 f23c
00000390: 7b3c 57bd 66fa 80be b54d 0fbc 707d ddbd
000003a0: 3f38 adbc 1fb5 023d a6ec 51bd c56a 22be
000003b0: e8ae 02be efcd a5bd bbde 9fbe df42 363e
000003c0: b695 963d 6a2b 95bd abb5 d93d fa15 033c
000003d0: 188a 043e 255c 833d 8229 c03c 8fde 73be
000003e0: b3ac 5d3e 7f63 80bd 4c59 483e 8fc8 8cbe
000003f0: 26db 963e 26c4 3d3e af95 963d 755b 9e3d
0.23406577 -0.115520656 -0.2502426 -0.024914047 0.20162643 -0.06300271 -0.13073745 -0.02252485
-0.13219924 0.08981318 -0.20164977 -0.12285845 -0.11480719 0.07035972 -0.1930675 -0.19394653
0.26360244 0.07548147 0.081147395 0.22243182 0.03632654 0.28081265 -0.027987115 0.07263414
0.020983241 0.12810488 -0.25124165 -0.097637564 0.033929214 0.06509788 -0.23102142 0.1939136
-0.098033585 -0.20829958 0.30457675 -0.22167782 -0.00224756 -0.18247291 0.052231785 -0.09871799
-0.17464611 -0.20018433 0.08572365 -0.14782876 0.39763412 -0.012214966 -0.27448174 0.14107145
-0.09036899 0.13904358 -0.14930901 0.18714851 -0.23535009 -0.20302159 0.006488862 0.1619156
-0.07795301 0.092846625 -0.13561784 0.012986941 -0.22969799 0.009689816 0.0513687 -0.016394205
-0.24962324 0.24403672 0.057683308 0.064270854 0.0715295 -0.06121666 -0.13695142 -0.025691656
-0.15713957 -0.10060765 0.28320786 0.25279096 0.09315803 0.28970584 0.40176782 0.18419646
-0.12842587 -0.23720044 -0.1842587 -0.11434095 0.22652891 -0.14244705 -0.10118873 0.23438823
-0.2056958 0.066351384 0.2736067 -0.27189338 -0.22858375 0.27200094 0.019391764 -0.104738235
0.033604596 -0.1793117 0.12804899 -0.067396805 0.01047911 -0.04006811 -0.3578014 -0.1097462
0.251904 -0.16728012 0.15100609 -0.25173232 0.1979954 -0.1718489 0.05315856 0.022807494
0.2473983 -0.10261371 0.10425892 0.0843881 -0.05984941 0.039706796 0.19815129 -0.22853355
0.076837815 -0.110379495 -0.20906793 0.3058806 0.011378581 -0.09484912 -0.06761669 -0.110922575
0.19507246 -0.092368715 0.21665867 0.21185952 -0.2338002 -0.10083839 -0.16258116 -0.115515634
0.27117538 -0.085574076 0.02839417 -0.064200684 0.2121164 0.30834863 0.22856453 -0.3013716
-0.01367254 0.008507884 0.2041143 -0.21745566 0.1250522 -0.20395598 0.01763253 0.15132406
-0.20593064 0.15523261 -0.16846213 0.018541744 -0.24421895 0.09446904 -0.2832842 0.14818424
-0.20093013 0.003746355 -0.23958647 -0.10052978 -0.19107293 -0.029111974 0.18977961 -0.019074697
-0.058212355 -0.0021381928 0.10664718 0.3307438 -0.06877036 0.10623294 0.13971876 0.38121024
0.1512795 -0.086912036 -0.12483502 0.29316154 -0.001342264 -0.010432703 0.28489453 -0.035782613
0.165286 0.23348343 0.25763458 0.05138257 0.24311318 -0.16949947 0.09646088 -0.23295015
0.33993363 -0.3933255 -0.027215123 -0.13700089 0.36351657 -0.045216467 -0.02182692 0.08489684
0.21100873 -0.001480916 0.3097503 0.19380324 -0.28242624 -0.096037544 0.077352375 -0.2056207
-0.08122451 0.1748301 0.2205894 -0.0034018287 -0.17115195 -0.15240079 0.018704318 0.20436382
0.15129292 -0.069181904 0.30102155 0.060769048 -0.19920975 -0.12672828 -0.046394713 0.18340752
-0.23864184 -0.30486017 -0.16846706 0.029581541 -0.052547913 -0.2519104 -0.008746554 -0.10814941
-0.021144984 0.03191101 -0.051251076 -0.15861042 -0.12762034 -0.08095919 -0.31224617 0.17798947
0.07352774 -0.07283671 0.106303535 0.008000845 0.12943304 0.064140595 0.023457292 -0.23815368
0.21647911 -0.062689774 0.19565314 -0.27496764 0.29464072 0.18531856 0.07352769 0.07732288

baseModel.mlp1.layers.0.bias f4 [32]
00000000: f01e 8b3e a581 c93e 81ca 753e e50e ef3d
00000010: 528b b83e af8c b53d f2a0 943e c470 253e
00000020: e6a8 633e a32b f83d 686c 083e 0abe 7c3d
00000030: 672c 18bd 2eb5 1c3e 2a03 c9bd 9939 613e
00000040: b846 b33e 32ad 893e 0569 dbbd 9751 803e
00000050: c6cd 303e 2134 933e 9c0b 1fbe 3f48 203e
00000060: 7078 da3e d4c7 b83e 3226 103d ec57 bc3e
00000070: 7640 613e 0731 4d3e b5ed 433e 3da1 193e
0.2717204 0.39356723 0.2400303 0.11672763 0.36043793 0.08864724 0.29029042 0.16156298
0.22232398 0.12117698 0.13322604 0.061704673 -0.03715172 0.1530349 -0.098150566 0.21994628
0.35014892 0.2688995 -0.1071339 0.25062248 0.17265996 0.2875071 -0.15531772 0.1565256
0.42670012 0.36089957 0.035192676 0.3678583 0.21997246 0.20038234 0.19133647 0.15002914

baseModel.mlp1.layers.2.weight f4 [64, 32]
00000000: 91eb b7bd 30e4 263e bfe5 11bc 0696 1fbe
00000010: 5251 203e 4d73 583c 6645 25be 9fbd b0be
00000020: 9f69 3e3e e2bc 683e a7a1 0fbe 4d0f 6dbe
00000030: cef1 673b 406c 1d3b 25f8 7b3e 78c4 fcbb
00000040: b03e 223d e0ec 5d3e f406 0bbe 241b 883b
00000050: 5c91 f03d dbd5 d13d 34ff 07be d372 bebd
00000060: 7471 5bb9 9eb3 dd3a ea11 833e 3fa8 f03d
00000070: 2f79 68bd 5579 323e b5d8 483e 8e67 1abc
00000080: 7bb9 d83d 32dc 713e d685 07bd 5772 e2bd
00000090: 18fd 5d3e 22d0 c93d d026 c73d b79c 1c3b
000000a0: 6644 f3bd 413a febd 7057 f0bd 5802 8bbd
000000b0: 0c39 303e 5964 c53d 9b41 673e 516c e3bc
000000c0: cc83 fb3c 9b95 8e3d 2820 0ebe 5d13 d3bd
000000d0: 60dd 613e 4493 4a3e 3756 62be e797 dd3c
000000e0: eecf d6bd 1a14 1ebd 1fe9 62bd 37fe 86be
000000f0: 26cc 8e3d f2ac 66be c065 36be 2146 e63d
00000100: b58c 17be 03e9 49bd f9ec 05bd afb4 293e
00000110: 716d 8ebd cecb 553e 76fa af3c 6a86 cc3d
00000120: 9b29 163d f774 0c3e 4da9 11be 8e70 9cbd
00000130: 3eba 343e 7bb8 68be a5d9 debc c305 313e
00000140: 5bda 0cba c54c 183e 8026 6abe 2c7b 023e
00000150: dcc2 2cbe c250 c73d ca7d 4e3c baed ef3c
00000160: a67c 7dbd 0c90 4a3e 9587 68bd 7778 1b3e
00000170: 7c63 1dbe ba80 003e 78ba 73bd 7987 b43d
00000180: 5694 2dbd f5ac a63c dd5e b93e 8e68 05be
00000190: 8c95 2d3e ea9b 8e3e 6929 373d f485 9f3e
000001a0: 43f3 2f3d ef66 9039 a02c ecbd 0ee5 0bbe
000001b0: 7ac2 1fbe 31dd b23d 6e0e 883d fa2e 0b3e
000001c0: 90b8 083d 16ae 173e 3fd7 53be 0937 5a3d
000001d0: 4f90 31be 8b5f 303d fdc1 293e d60b cdbd
000001e0: b806 1e3d 3a0c aa3c 0abd 02be d140 5fbd
000001f0: aca8 41be 9e39 483e 60b9 163e 74fc 0f3e
00000200: e82c 8fbe 8fda 07be d48c d33d aaac 593d
00000210: 806f 80bd 79a2 98bb 9bf0 143e e195 39be
00000220: 2001 ac3d 40ea 793e ee12 073e 33c4 51be
00000230: 6ef9 073e ec7a 0fbd 2400 103e a655 7e3d
00000240: 7599 bd3d f0e2 6a3d 5b2e d9bd ddd7 a93d
00000250: edf6 c1bd c8f1 70be 1114 60be d620 a3bc
00000260: 4c21 13be a5d8 a93d 6bcd 843e 26da b4bb
00000270: e6fd 933e 691f bcbc f0a3 acbd b63e acbd
00000280: f6c4 64bd 86f8 823d 6663 a6bd 2691 7f3d
00000290: 0d82 183e 9feb 9ebd 409a 9fbd 7624 d63d
000002a0: d83d 463e 7961 3a3e 3b98 833d 8bbe 0bbe
000002b0: 22df 34be 3773 64be 057e 6e3b ec04 003e
000002c0: 14ed 2a3e 6ffd aebc 5854 7fbe 6cd2 a8bd
000002d0: 435a b63d e92c 22be 9cce 9dbc 801f 503e
000002e0: 15a7 6dba daed c0bc 3f43 25bd 54dd 15be
000002f0: 6dcc 35bd 538a a1bd 6dd4 c13d 3c71 dbbc
00000300: 88f2 36be c432 96bb ffc3 ba3d 76d3 39be
00000310: efeb a9bc 1c05 3c3e 508a 6a3d 1e1a 08bc
00000320: 7143 403e 963e 313e 5f81 373d 2e98 2c3d
00000330: d521 283e 2a43 3dbd 4346 85bc ab02 33bd
00000340: db32 28be 3c94 d7bc 7690 abba f2a5 b73d
00000350: 9c2a dbbd 7b4b 89be a9b0 69be 986c bd3d
00000360: 4ec7 c2bd e6f4 703e 3ea8 df3d 412a 81bd
00000370: eaf3 113e 4996 d73c 7944 21be edb4 313e
00000380: 5735 3ebc b7cd 57be 6a59 8a3e a874 503e
00000390: a2e4 a53d d090 10be c6b4 2d3c 0143 88be
000003a0: bbe4 43bc 47d5 63bc 8552 b9bd db03 133e
000003b0: d24b 1d3d 5248 90be 1b3e 393e 63e8 463e
000003c0: ff80 12be aebb 21be ad5d d9bd 5ef2 83bd
000003d0: 0d45 41bd 1c6b 08bd 5d6b e9bc 87e5 3a3e
000003e0: 177d aabd 8464 67bc e018 2f3e 05bd 5ebe
000003f0: 28c4 5abe f8c0 d1bc 94ae 6d3e 10b6 9bbe
-0.089804776 0.16297984 -0.008904873 -0.15584573 0.15656021 0.013211084 -0.16139755 -0.3451967
0.18594979 0.22728303 -0.14026509 -0.23150368 0.003539193 0.002402082 0.24606378 -0.0077138506
0.039610565 0.21672392 -0.13576871 0.004153626 0.11746475 0.10245868 -0.13280946 -0.09299245
-0.00020927732 0.0016914492 0.25599605 0.117508404 -0.056756195 0.17429097 0.19613917 -0.009424103
0.105822526 0.23619154 -0.03308662 -0.11056965 0.21678579 0.09854151 0.097242 0.002389712
-0.1187828 -0.12413455 -0.117354274 -0.067875564 0.17209262 0.096382804 0.2258362 -0.02776161
0.030702494 0.06962129 -0.13879454 -0.10306428 0.22057104 0.1978274 -0.22103201 0.027049972
-0.10488878 -0.03859339 -0.055398103 -0.26365826 0.06972532 -0.22526911 -0.17812252 0.11243845
-0.14799769 -0.049294483 -0.032696698 0.16572832 -0.06954468 0.20878527 0.021481734 0.09986575
0.03666077 0.13716494 -0.1422474 -0.076386556 0.17649171 -0.22726624 -0.02720339 0.17287354
-0.00053731137 0.14873035 -0.22866249 0.12742299 -0.16871208 0.097322 0.012603233 0.029288162
-0.061886452 0.19781512 -0.056769926 0.15182672 -0.15369982 0.12549105 -0.059504002 0.08814902
-0.042377792 0.020346144 0.36205187 -0.13028166 0.16951579 0.27853328 0.044717226 0.31156886
0.0429566 0.00027542512 -0.11531949 -0.13661596 -0.1560153 0.08733595 0.06643377 0.13592139
0.033379138 0.14812502 -0.20687579 0.053275142 -0.17340206 0.043059867 0.16577907 -0.10012023
0.038580626 0.020757783 -0.12767425 -0.054505173 -0.18912 0.19553229 0.14719152 0.14061147
-0.27963948 -0.13266967 0.10329595 0.05314318 -0.06271267 -0.00465804 0.14544909 -0.1812358
0.08398652 0.24405766 0.13190815 -0.20485 0.13278744 -0.035029337 0.14062554 0.0620934
0.09257785 0.05734533 -0.10604545 0.08293126 -0.094709255 -0.23529732 -0.21882655 -0.019913118
-0.1436817 0.08293275 0.2593797 -0.0055191694 0.28904647 -0.022964196 -0.08429706 -0.08410399
-0.0558519 0.06395058 -0.081244275 0.062394284 0.1489336 -0.07759785 -0.07793093 0.10456173
0.19359529 0.18201245 0.0642552 -0.13646905 -0.17663243 -0.22309576 0.0036391031 0.12501878
0.16692 -0.02136108 -0.24934518 -0.0824326 0.08903935 -0.15837444 -0.019263558 0.20324516
-0.00090657297 -0.023550916 -0.040347334 -0.14635211 -0.04438441 -0.078877114 0.09464345 -0.026787393
-0.17865956 -0.0045836885 0.091194145 -0.18147072 -0.020742385 0.18361324 0.05726081 -0.008307008
0.18775727 0.17309031 0.044801112 0.042137317 0.16419156 -0.04620663 -0.016268855 -0.043703716
-0.1642565 -0.0263158 -0.0013089317 0.089671984 -0.107014865 -0.268154 -0.22821297 0.09249228
-0.095106706 0.23530921 0.109207615 -0.063068874 0.14253202 0.026316779 -0.15748776 0.17354174
-0.011609397 -0.21074568 0.27021343 0.20357001 0.08100249 -0.14117742 0.010602182 -0.2661362
-0.011956389 -0.01390583 -0.090489425 0.1435694 0.038402386 -0.28180176 0.18090098 0.19424586
-0.1430702 -0.1579425 -0.1061357 -0.06442712 -0.047184993 -0.033305272 -0.028493578 0.1825162
-0.0832464 -0.014123086 0.17099333 -0.21751793 -0.2136389 -0.02560471 0.23211128 -0.3041234

baseModel.mlp1.layers.2.bias f4 [64]
00000000: fc44 9bbc 4482 0e3e cc3f 813d baa0 163e
00000010: d8e2 783e 9c36 89bd 91f9 5e3d c211 523e
00000020: a8bc 383e 7be2 b43c fad5 d83d 764b 4a3e
00000030: d91b af3c c90c 1abc ba8a 5a3c a007 9a3c
00000040: 5d03 023e 60cf 3d3e 534d 043d 12d1 193e
00000050: 0d5a a43a dd1a ccbd 0678 953d 9d81 6f3e
00000060: 5bcb e33d c7f8 99bd 1913 0fbc 131a ec3c
00000070: 1523 063d aa84 833e 346a 85bd 5407 cb3d
00000080: 337d 21bd 3609 7b3e b4c7 6e3e 19d8 06bd
00000090: 9493 633e 5c67 a73e f037 6b3e 1636 bd3d
000000a0: f67d 973e 11f2 d7bd 5e14 b93d 5ee8 853e
000000b0: 80ef 4d3d cf2f 673e 9d8b e13d a487 be3d
000000c0: cff6 91bd f310 0bbe 314a d63d fd28 443e
000000d0: 0452 d4bc c562 5f3e 4907 753e fe6c 2d3d
000000e0: e78d 0ebe 331a 8f3e 47a5 303e eb7d 983d
000000f0: ed9a 8e3d e2e4 573e ff08 003e 91aa b73d
-0.018953793 0.1391688 0.063109964 0.1470975 0.24305284 -0.06699869 0.054437224 0.20514587
0.18040717 0.02208065 0.10587688 0.19755349 0.021375583 -0.009402462 0.013338739 0.018802464
0.12696595 0.18536139 0.032300305 0.1502116 0.0012539044 -0.09966061 0.07298283 0.23389287
0.11122771 -0.07518154 -0.008732581 0.028821027 0.0327483 0.25687152 -0.06514397 0.09913507
-0.03942604 0.24515232 0.23318368 -0.03292093 0.22224265 0.32696044 0.22970557 0.09238832
0.29588288 -0.105442174 0.09037088 0.26153845 0.050277233 0.22576831 0.11012957 0.09303215
-0.07127153 -0.13580684 0.1046337 0.19156261 -0.025918014 0.21815021 0.2392856 0.04234027
-0.13921319 0.27949676 0.17250548 0.07445892 0.069631435 0.21083406 0.12503432 0.0896808

baseModel.mlp1.layers.4.weight f4 [32, 64]
00000000: 53e9 2b3e 9e8e 9dbc 5e23 0e3b abfe 203e
00000010: 8de8 17be 1a73 09bd b8c2 b0bd fae2 4cbe
00000020: 8ade d03d 94d4 04bd 9066 d13d b704 2f3e
00000030: 2463 2cbe 1515 32be b52f b43e ca3c 623d
00000040: 8f28 373e 26a7 1bbe f7ef 493e 2bda 383e
00000050: 08ef a43c 861c 8abd cb04 2c3e c643 d3bd
00000060: c422 84bd 0b9f 333e 0a15 8ebc d708 c0bd
00000070: e0f4 213d 6ac4 59be 24c7 03be ce01 a23d
00000080: fbbc 9fbb b42c 01bc 8e8b dbbd b89c 8fbd
00000090: fa99 fb3d b5de b1bd 1939 2d3e c488 213c
000000a0: 0637 d2bd 4aef d2be f579 21bd 015f 1c3e
000000b0: 20ed 95bd 7f01 55bd da94 b53d 48a1 003e
000000c0: 2518 10bd 0817 eebd 70a1 a83e 5bba d23d
000000d0: 1850 4c3e b686 f63c dbd0 f6bd 5e74 8e3d
000000e0: 60a8 69bd b793 bc3c 86bf 5cbe ddce 29be
000000f0: 28d7 963d 6e51 8ebd 1bd6 ec3d 0586 f33d
00000100: 2233 773e 6a4c ddbc 26cc cb3d 831f b63d
00000110: 855a 6c3e b014 d63b b4df ac3d 6cfa babb
00000120: a4a6 253d 002e 7dbd 96a8 503e 7ed7 d1bd
00000130: 41e0 293d c22f bebb 8709 70be 1405 2dbe
00000140: a33e 3bbd b84d 9ebb a4ab e8bd 5a55 4fbd
00000150: a836 7b3d 5948 b43d 78f4 80bd 22e7 80be
00000160: 2942 c33c c8a7 853e e9ab 28be 66a3 c73d
00000170: 4ddc d73d 7448 edbc 6ec5 1b3d d963 02bc
00000180: df49 a13d f9dd 13be 0e5a f8bd 0efd f43d
00000190: c6c5 d1bd 718e 82bd ef64 0ebe 6398 87be
000001a0: eaca 653c 6cef 2cbe b11d 903d 7b9a aabd
000001b0: 6d98 a33d 404c 493e 4407 b13d 385d 83be
000001c0: 3f5a 033e 0857 173e fd2a 21be 2823 f83d
000001d0: b627 353e b7f0 e9bd 4467 53be 0336 e43d
000001e0: 4417 38be 5abb 33be d90b 43be 9592 703c
000001f0: 3529 0dbe 054b c13d 478d d6bd cdc7 643d
00000200: 7b65 e5bd 70ab 0a3e f982 d9bd 509d 58bd
00000210: 7367 663d 6a71 82bd c6ad 10bd 332a 9cbd
00000220: b4f1 803b 76d6 07bd b61b 8fbd f982 9bbc
00000230: 14c5 32bd 1c44 b13c 5835 203e 0b95 aa3d
00000240: f78a 94bd d2cc 1abe b74a fe3d 71ad aabc
00000250: 8d39 febd 6ae3 33bd 3905 06be d353 f2bb
00000260: 5033 2dbe 7b46 1bbe df71 f23c 0e00 86bb
00000270: 0bde 083e 7513 a03d 896d b9bd 33fe f8bd
00000280: 77a5 22be d1ab c73d efb2 0ebe 484f adbd
00000290: 5d81 e13d 5ef5 6bbd d16a f03c ae70 1bbd
000002a0: 4c60 b93d 3a59 e83d 9e11 4a3d 6d0b a5bd
000002b0: 5705 bf3d 3afb d4bc 6c5e 283d 97e8 82bd
000002c0: c04f 62bd 4611 fabd 8731 463d 52d4 28be
000002d0: 35bc bdbd 7164 82bc aa60 b8bd 93de 5f3c
000002e0: 0bc2 6c3e a6af ab3d c5b9 aabd b53a bf3c
000002f0: dca5 c73b bfd3 043e 98af eebc ec66 77bb
00000300: 8466 43be a601 d63d ab86 00be 502d d43c
00000310: c279 31bd 48b0 97bd c74a 87bc 73e7 1c3b
00000320: 129a 12be f138 5dbe 71d9 c3bd 47cb b8bd
00000330: cd94 23bd aeb0 8fbd cb7d 9d3e ba54 ab3d
00000340: 7d9c cabd 5aa9 473e 90ff f43d a597 613c
00000350: 2ea5 873c 44b2 42be f4d4 493d 30ad 6b3e
00000360: 128e 44bd c235 5fbe f419 95bc b0d5 063e
00000370: 61f6 a83d 04ac 943e b446 45bc 724b 343e
00000380: c1c6 77be aa53 a23c bad3 ff3d 87bc f0bd
00000390: ac1a 913d b617 843d 30ad 29bd 527a 823d
000003a0: 42d9 023e aae1 87be 459b 593e fc5b 9dbd
000003b0: f431 53be 8399 ed3d bf96 ffbb a001 b1bb
000003c0: 73d1 b1bd 1370 70be bf01 903c db35 5cbc
000003d0: cb88 68bc a3bc 123e 61a0 e83d e9c1 dcbd
000003e0: e444 8e3c d73f 7a3e 2e4e 8dbd c8b8 9e3b
000003f0: b53c f53b 1022 153c cd9e 463e bc2e 263d
0.16788225 -0.019233044 0.002168856 0.15722148 -0.14834805 -0.033557035 -0.0863089 -0.2000846
0.10198696 -0.032429293 0.1022464 0.17091642 -0.16834694 -0.17390855 0.35192648 0.055233754
0.17886566 -0.15200481 0.19720446 0.18051974 0.02013351 -0.06743722 0.16798703 -0.10315661
-0.064519435 0.17541139 -0.017344017 -0.09376686 0.03954017 -0.21266332 -0.12868935 0.079105005
-0.004874823 -0.007884193 -0.10719977 -0.070123136 0.12285228 -0.08685056 0.16916312 0.009859268
-0.10264401 -0.41198188 -0.039422948 0.15270616 -0.07320619 -0.05200338 0.08866282 0.12561524
-0.035179276 -0.116254866 0.32935667 0.10289451 0.19952428 0.030093532 -0.12051555 0.06955789
-0.05704534 0.023019655 -0.21557435 -0.16582818 0.073652565 -0.06949125 0.11564275 0.118907966
0.241406 -0.027013976 0.099510476 0.08892729 0.23081405 0.006533228 0.084411055 -0.005706122
0.040442124 -0.061811447 0.2037681 -0.1024618 0.04147363 -0.005804033 -0.23441134 -0.16896468
-0.045714032 -0.004831042 -0.11360863 -0.050618507 0.06133142 0.08802862 -0.06296629 -0.2517634
0.023835259 0.2610457 -0.16471829 0.09747963 0.10540066 -0.028965212 0.03803008 -0.007958376
0.07875418 -0.14440145 -0.121265516 0.11962329 -0.102428004 -0.06374825 -0.1390569 -0.2648345
0.014025429 -0.16888207 0.07036913 -0.08330246 0.07988057 0.19657993 0.08643964 -0.25657058
0.12827395 0.14779294 -0.15739055 0.121160805 0.1769093 -0.11422866 -0.20644861 0.111431144
-0.17977625 -0.17551938 -0.19047488 0.014683385 -0.1378525 0.09438137 -0.10476165 0.055854607
-0.112009965 0.1354196 -0.10620684 -0.0528844 0.056251 -0.06369288 -0.035321973 -0.07625236
0.0039350633 -0.03316351 -0.06987707 -0.018983351 -0.04364498 0.021638922 0.15645349 0.08329209
-0.07253068 -0.15117195 0.124165945 -0.020834656 -0.12413321 -0.04391805 -0.1308793 -0.0073952465
-0.16914105 -0.15163605 0.029595314 -0.004089362 0.13365953 0.07816211 -0.09054095 -0.1215786
-0.15883432 0.09749568 -0.13935445 -0.08462387 0.11011002 -0.057607047 0.029347809 -0.037949257
0.0905157 0.113451436 0.049333207 -0.0805882 0.0932719 -0.0259987 0.041105673 -0.06392019
-0.055251837 -0.12210326 0.048387077 -0.16487244 -0.09264413 -0.015917035 -0.09002812 0.013663906
0.23120897 0.08383112 -0.08336214 0.023343423 0.00609277 0.129714 -0.029136464 -0.0037750555
-0.19082075 0.10449533 -0.12551372 0.025900513 -0.043329008 -0.0740667 -0.016515149 0.0023941665
-0.14316586 -0.21603753 -0.09562958 -0.09023147 -0.03993683 -0.07016121 0.30760035 0.0836577
-0.09893129 0.19498196 0.11962807 0.013769065 0.016558256 -0.19013315 0.049275354 0.23015285
-0.04798705 -0.2179785 -0.018200852 0.13167453 0.08250118 0.29037488 -0.012040783 0.17606905
-0.24196912 0.019815285 0.124915555 -0.11754709 0.070851654 0.06449835 -0.04142493 0.06370987
0.1277819 -0.26539356 0.21250637 -0.0768356 -0.20624524 0.11601546 -0.0077999528 -0.005401805
-0.086825274 -0.23480253 0.017578958 -0.0134405745 -0.01419277 0.14329772 0.11358715 -0.10779173
0.017366834 0.24438415 -0.06899677 0.004843805 0.0074840435 0.009102359 0.19396515 0.040571913

baseModel.mlp1.layers.4.bias f4 [32]
00000000: b209 1dbd bb76 1bbc 549a 693d f8b4 1f3e
00000010: 24fa 023e 7d40 3fbc f434 623d 70ff ecbc
00000020: d221 153e 1fcc 21be 2622 71bd 56db c33c
00000030: c2f0 93bd 68d6 e03d 93fc 06bd 62b8 81bd
00000040: d6f1 81bd 9cb7 28bc b32d 0ebc 2947 cc3d
00000050: 3538 febd bd43 fdbd 46ce 1dbe 2eda a63e
00000060: 3ecb 283e 04b4 1a3c d2db 013d d071 87be
00000070: 5aa0 0a3d 31d4 e33d d0d5 46be b2f6 35bd
-0.038339324 -0.009488757 0.057031944 0.15596378 0.12790734 -0.01167309 0.05522628 -0.028930396
0.14563683 -0.15800522 -0.058870457 0.023908298 -0.07223655 0.10978395 -0.032955717 -0.06333996
-0.06344955 -0.010297682 -0.008677888 0.0997451 -0.124130644 -0.12366436 -0.15410718 0.32588333
0.1648378 0.009442333 0.031703778 -0.2645402 0.03384433 0.11124457 -0.194175 -0.04442472

baseModel.mlp2.layers.0.weight f4 [32, 84]
00000000: 4e6a 62be 5abf 2b3c 02bb 0bbe 274a 62bd
00000010: 67a4 483c eaad 1bbc 2ac9 cf3d 83cd f3bd
00000020: a674 393e 6e3a 9a3d 6005 faba 6d34 373e
00000030: b4e0 c0bd add8 4f3c e326 21be 9510 223d
00000040: acdc f9bd 57d1 1cbe bca2 a4bc c881 c8bd
00000050: bce0 8abd 3bc9 3a3d 84a0 d5bd ce6f a93a
00000060: 45d4 fa3d 927c 0d3e 6a57 c43c 1730 e13d
00000070: cedf acbd e3e7 963d d7ff d23c d2a5 c73d
00000080: cb12 e73d a629 18be c888 b8bd ff96 193e
00000090: 7dbd b7bc 6306 65bd 265e 5c3d 7557 c5bc
000000a0: 7868 033e 97fd e83d 33c0 bbbc dc38 d43b
000000b0: a5c9 6ebd bfd0 44bd cf9a 843d 1480 443d
000000c0: 6d80 d5bd 044a 21be 0486 883c 6b1b a8bc
000000d0: a21b 9f3d ab7b b53d cfae f0bc 263a a5bd
000000e0: edd6 42bd 6175 05be 7e80 f93c cf55 65bd
000000f0: 03f2 24bd 026a d3bc 0c11 b2bd 1c1a 4a3d
00000100: 759b d6bd d211 f13d 0830 ed3c 4e1c dbbd
00000110: cf18 3f3d a309 b9bc 6ff5 2e3d 985c 423d
00000120: 0769 f5bc f437 89bd 0e45 dbbd db5e 2abe
00000130: f46d b83c 7b6b f23c 9046 34bc 6a1b 9e3d
00000140: 49a6 983d 9150 eb3d 16f5 9f3d 48cf 78bd
00000150: 4a34 09be cd10 a9bd a4ba 19be 9a79 2e3e
00000160: c686 4cbe 010e 07be 5e5e 26be e940 a33d
00000170: 0695 cebd 3dce 48bd da47 a9bd 28aa 2fbe
00000180: ff04 393e 3720 f1bd 1ddc 2cbd fda9 11bd
00000190: 0910 7abc 7510 cc3c 9d07 69bd 1e67 c6bd
000001a0: 9898 3e3d 0692 653d b7c2 cebd a390 ec3d
000001b0: 3c66 48ba cb23 083d 04cd 03bd 5c8b cfbd
000001c0: 2606 06be 0ed7 bcbd ba37 453d ac4b 913d
000001d0: 425e 97bc ccc0 82be 5040 36be 3a28 9fbd
000001e0: 9183 dcbd 2190 30bc 01d5 54bd f979 583e
000001f0: 04e1 a2bd eacd 7cbd 0649 3a3d ecc6 4f3d
00000200: f0c5 c33d 0f02 013e f645 a83d 4e16 a8bc
00000210: 4930 813d 2180 26be 09e6 5fbc 241e e73d
00000220: e152 253d 7ae4 02bd 1386 bfbc f482 a53d
00000230: 1db2 f73c 9065 da3d 51b0 af3d 984d 75bb
00000240: 7394 023d 95e7 9eba dceb 7f3d cc50 14bd
00000250: 5697 a83b fcca fd3d b8c3 c1bd b9d4 273c
00000260: 40e3 8bbc c25b 1b3d a98c bd3b c721 0cbe
00000270: d64f 3e3d 384b 49bd 9dd2 7c3d b669 e93a
00000280: 88f8 9b3c 0cfe ccbd 10b7 b9bd 5a35 63bd
00000290: a65d 80bc 73ca 7f3d f54b 75bc 6369 ecbd
000002a0: 3e10 f23b e53e 23bd a5e8 5e3d df9b ec3c
000002b0: 2792 0bbd bb03 593e 48f4 62bd 10c8 26be
000002c0: 342f 333e 1f0c ab3d d10f 8f3d 1d1f 3abd
000002d0: d314 59bc 45cd df3d d8fb cf3d c8a2 72bd
000002e0: 6e74 27bd 7a4b 25be 1f75 f0bd 5691 4fbd
000002f0: 3f82 173d 6aa7 003e ed45 32bd 244c 47be
00000300: 85b4 073d bfcd 75bd 23f7 3abd 42ee a6bd
00000310: 935e 5eba 04a8 c63c 5f53 6c3c ec24 04bd
00000320: cc7c b33d 5da2 11be 8566 c0bd 063f 17be
00000330: eefd 9fbd 69a9 793c fe05 c03d 3ddb 9c3d
00000340: 2049 15bd a09b 73bd c14e ba3c 3c94 e7bd
00000350: 66fa 2a3c 815f 65bb f44d 1e3d 0fd1 063d
00000360: e067 f7bc 8d1c 2f3d f6c9 783e 6cda 0dbc
00000370: 7a64 b8ba 2231 5f3b 18c8 66bc b3a8 073e
00000380: 6b6e 97bd 619d 6c3c 9fa4 ad3d f8d5 0a3e
00000390: 6d26 2a3d 1cc1 e1bb b8bc 4e3d 86db 633d
000003a0: 2165 debd 555e 1b3e b9fc e63b c724 863d
000003b0: 5bda c93d 11c9 18bc 12f5 01be d5dc 883d
000003c0: 4b46 153d 85d6 c2bd 4ead 5abd 88ae ea3d
000003d0: 95f2 ba3d a8e5 a4b7 4d0d 0fbe 5e53 abbd
000003e0: 5d8d ce3b e483 053e 3c32 74bd fd85 cebd
000003f0: 995a 603e 1e09 07be bbbe 00bd c84a 8bbe
-0.22110865 0.0104826335 -0.13645557 -0.0552465 0.012246228 -0.009501914 0.10145791 -0.119044326
0.18110904 0.07530676 -0.0019075088 0.17891093 -0.09417859 0.012685937 -0.1573749 0.039566595
-0.12200293 -0.15314232 -0.020097129 -0.09790379 -0.06781146 0.045602065 -0.104310066 0.0012926997
0.122475185 0.13817051 0.023967464 0.109955005 -0.08441125 0.07368448 0.02575676 0.097484246
0.11282881 -0.14859638 -0.09010464 0.14999007 -0.022429222 -0.055914294 0.053800724 -0.024089554
0.1283282 0.113764934 -0.022918796 0.0064765047 -0.058297772 -0.04805064 0.0647484 0.047973707
-0.10424886 -0.15750891 0.016665466 -0.020520886 0.077689424 0.088614784 -0.02938023 -0.080677316
-0.04756825 -0.13033058 0.030456778 -0.055990037 -0.040269863 -0.025807384 -0.08694658 0.049341306
-0.1047887 0.11770977 0.028953567 -0.10698758 0.04665452 -0.022587603 0.042714532 0.047451586
-0.029957308 -0.06700125 -0.107065305 -0.16637747 0.022513367 0.029592266 -0.011003152 0.077200726
0.074535914 0.11489976 0.07810418 -0.060744554 -0.13398853 -0.082551576 -0.15012604 0.17038575
-0.19973287 -0.13188936 -0.16246936 0.07971365 -0.10087018 -0.04902481 -0.08265658 -0.17154753
0.18068312 -0.117737226 -0.042202104 -0.035562504 -0.015262612 0.024910191 -0.056892026 -0.09687637
0.046532243 0.056047462 -0.10095733 0.11551025 -0.00076446286 0.03323726 -0.03217794 -0.101340026
-0.13088283 -0.09220706 0.048148848 0.070945114 -0.018477563 -0.25537717 -0.17797971 -0.077713445
-0.10767282 -0.0107765505 -0.05196095 0.21140279 -0.079530746 -0.061719812 0.045479797 0.050726816
0.09559238 0.12598442 0.08216469 -0.020518448 0.06308038 -0.16259815 -0.0136656845 0.11285046
0.040362243 -0.031956173 -0.023379361 0.08081618 0.030236298 0.10663903 0.085785516 -0.0037430283
0.031879853 -0.001212346 0.062480792 -0.036209866 0.005144994 0.12392232 -0.094611585 0.010243588
-0.017076135 0.037929304 0.0057845903 -0.1368476 0.046462856 -0.049144 0.061724294 0.0017807994
0.019039407 -0.10009393 -0.090681195 -0.055470802 -0.015669655 0.06244893 -0.014971723 -0.115435384
0.00738719 -0.039854903 0.054421086 0.028882919 -0.03407493 0.2119283 -0.055408746 -0.16287255
0.17498475 0.08351921 0.069854386 -0.04543983 -0.013249594 0.10927824 0.10155457 -0.05923727
-0.04088252 -0.16142073 -0.11741089 -0.050675713 0.036989447 0.12563863 -0.043523718 -0.19462639
0.03313114 -0.060010668 -0.045645844 -0.08150913 -0.00084827206 0.024250038 0.014424174 -0.032261774
0.087640375 -0.14222093 -0.09394554 -0.14770135 -0.07812105 0.015238144 0.09376143 0.07659004
-0.03644669 -0.059474587 0.02274263 -0.1130757 0.010435676 -0.0034999552 0.03864856 0.032914218
-0.030200899 0.042751838 0.24295792 -0.008658033 -0.001406803 0.0034056385 -0.014085792 0.13247947
-0.073941074 0.014441819 0.084786646 0.13558185 0.041540552 -0.0068894755 0.050472945 0.055629276
-0.108591326 0.15172704 0.00704917 0.065499835 0.09856101 -0.009325282 -0.12691143 0.06682745
0.03644399 -0.095135726 -0.053387932 0.114590704 0.091283 -1.9657266e-05 -0.13969918 -0.083655104
0.006303473 0.13038594 -0.05961822 -0.1008415 0.2190956 -0.13187072 -0.031431895 -0.2720549

baseModel.mlp2.layers.0.bias f4 [32]
00000000: 0ec4 c6bd 1b14 483d 23f3 57bd f887 06be
00000010: 9b11 fa3d 4424 a53d 878e 95bc 4712 1cbe
00000020: 583c 2fbe 1574 50be 5db8 31bd 1a63 1ebb
00000030: 4b3f 9bbc 9762 24bc b106 cabd 3d51 1cbe
00000040: 3b09 1dbd c662 4fbd 073e 52bb 9477 5abc
00000050: fcff 503d 41cb a73d f08e 493e dfce 5dbd
00000060: a2ba ddbc cd50 e5bc 32a9 993d e43b 9ebd
00000070: 2567 2839 f016 1bbe 4874 d8bb 3e4c b83c
-0.09705363 0.0488473 -0.052722108 -0.13137805 0.12210389 0.08063558 -0.018256439 -0.15241347
-0.17112863 -0.20356782 -0.043388713 -0.0024167956 -0.018951079 -0.010033271 -0.098645575 -0.15265365
-0.03833888 -0.050631307 -0.0032080428 -0.013334174 0.051025376 0.081930645 0.19683433 -0.054152366
-0.027066533 -0.02799263 0.075029746 -0.07726267 0.00016060153 -0.15145469 -0.0066056587 0.022497293

baseModel.mlp2.layers.2.weight f4 [64, 32]
00000000: 6c93 89bd 92d7 fc3c a06c 40bd ff57 59be
00000010: 9b28 ee3d c871 cc3d 5449 c13c d252 543e
00000020: 892d 873e 88b9 cb3d d41b febd 8b2a 6dbd
00000030: 25c4 653e 680e 8c3d b68f 8dbc ad3c 20be
00000040: 137c 7dbe 8e74 83be 0277 6fbd 94f4 03bc
00000050: f0b6 15bd 33be d03c 799d 183d f12f a23c
00000060: 047a 46be 0266 413e 0df1 863b 7c68 123e
00000070: 4ead a33c 9bc3 e33c bf48 34be f320 e1bd
00000080: ddd5 e4bc 2cfb cfbc ddc6 883d 8905 65be
00000090: a6b5 bf3d a1ed 4b3e 01a6 253e ec3a 41bd
000000a0: 2ef9 313c 4880 22be 3001 b13c b27c c7bd
000000b0: 5713 cdbd 0942 a6bd 81c4 f4bd 0588 283e
000000c0: 47c4 8dbe 9baf 53bd 9b00 60be 6ec0 1bbd
000000d0: 4673 f7bc 32fd 9cbd b1ed 8a3c efdc a13d
000000e0: 756b d03d 538b b8bb 4c8d 81be 8e2c 983d
000000f0: 5caf 76bd 7090 69be e085 d63d ddc3 8cbd
00000100: c623 79be b196 dfbc 079e 093e 60e2 b2bd
00000110: 203f 6d3e 1c53 893d d9c5 943c 5188 1d3d
00000120: 4994 833c 369e 1a3e e719 30be b6d1 51be
00000130: 5017 4e3e 0f4e 303e e8cc 693d 3735 5dbe
00000140: 3dcd ad3c 8057 42bc f01d bc3c d5c0 99bd
00000150: 93cb cfbd 342e 5f3e 4586 06be 5518 0dbd
00000160: 4d4c 5b3e 55c5 ef3d 5884 693d 1ba7 0c3e
00000170: 32e4 6d3d 1556 8abd 037f f9bd 7148 b8bd
00000180: 633a 42be 2749 1e3d 74f2 033e b2ed a53d
00000190: 4bc0 3a3e eeb9 133e a037 a0bc 65fa b2bd
000001a0: 9dee 403b 7154 5abd 2551 e8bd 16c4 39be
000001b0: c7f1 183e 9924 5e3d 7e67 323e 6765 49bd
000001c0: 3c36 34bd fb3d 2ebd 2d34 65bd 09eb df3d
000001d0: c331 133d 6757 af3d 974a 133d 9925 76bd
000001e0: daa8 e7bd 86bc 553d 50f2 023e 5774 42bd
000001f0: 752d 013e 10dd f53d 724b 02be cd72 343e
00000200: 810d 17bd 37ca c3bd f98e 44bd 5cd4 043e
00000210: 1d7c 143e 10d0 693d 6efc 3b3e 3c69 b83d
00000220: 184e 793e 3b34 44be 2933 4bbe 3373 cc3d
00000230: 4ccb 063e 0569 d8bd a792 a3bd 7430 ca3d
00000240: 8cb5 a03d b1e8 25be 63a8 d53d a75c 903c
00000250: 565c 32be 2565 583d 5b1a 72bd 148e d23c
00000260: cfb2 4e3e 70bb 893d ff10 b8bc 81fb 383e
00000270: 63dc 103d 8ee0 58bd f88b 2abe dffd 4bbe
00000280: 4761 04be 0af6 a3bd fc2b fb3d e3a9 16be
00000290: e16b b23c 3e17 82ba 24db 45be 6529 2dbe
000002a0: 2ec7 73bd 6bf6 323d 3223 1ebe 893a 32be
000002b0: 57f2 d4bd f171 3fbd 080c c4bd 99b3 43bd
000002c0: 873c 6fbd 43d7 533b ab88 4cbe e090 89bd
000002d0: 9379 813e d167 b1bd 219e 33be 06e1 4c3e
000002e0: 66fb 17be 23b5 17bb 0bb9 9cbe 1621 d83d
000002f0: a4da 25be 7eb0 273e e574 283e 5fd6 45be
00000300: 2bbc a1be 4085 0fbe 3aa0 3f3e 9d47 2f3e
00000310: 2e3a fe3d 58fd 48bd 981e a03d 1d53 f6bd
00000320: 25ad 903d a0d7 4abe f056 683c e55c ff3d
00000330: 4039 6dbe a292 843d 8e4c 98be 4a46 e1bd
00000340: 110e 473c 7990 5dbd e394 1ebe 24e4 d23d
00000350: 537d 86bd ebe7 0fbe 8242 acbe 7867 273e
00000360: 26dc cb3d 1f09 593e b496 a3bc da2a e4bd
00000370: 7695 c4bd 6f40 f4bd d0c6 f73c 4bc2 17be
00000380: c804 803e cf14 223d 5523 183c f8a8 62be
00000390: 70cb a4bd 82c1 233e 0377 e9bd fda9 47be
000003a0: 1f27 dc3c 5678 bfbb 28ab 953b d561 88bd
000003b0: 8160 56be f018 d23d 52ca a3ba c44e 3c3d
000003c0: 9924 273e 2374 2abd 93fc a03d cd72 c43c
000003d0: d1a9 d23c e610 503e fee8 a9be a776 403e
000003e0: e080 823d 2c08 54be 0e6f 72be 73ef 4d3e
000003f0: e954 843d 6a81 85be 9e57 7d3c 6fb3 95bb
-0.067175716 0.03086451 -0.046978593 -0.21224974 0.11628839 0.099826396 0.023594536 0.20734718
0.26401928 0.09947497 -0.124076515 -0.0579019 0.22438104 0.06838685 -0.01728044 -0.15648146
-0.24754362 -0.25674862 -0.058463104 -0.008053917 -0.036551416 0.025481319 0.037259553 0.01979825
-0.19382483 0.18886569 0.004118091 0.1429767 0.019980099 0.027803233 -0.17605875 -0.10992613
-0.02793401 -0.025388323 0.06678555 -0.22365393 0.093608186 0.19914867 0.16176607 -0.047175333
0.010862632 -0.15869248 0.021607012 -0.097405806 -0.100134544 -0.08118064 -0.11951543 0.16458137
-0.2768881 -0.051681142 -0.21875231 -0.038025312 -0.030206334 -0.07665481 0.016959043 0.07903468
0.10176746 -0.005631843 -0.25303113 0.07430373 -0.06022583 -0.22809005 0.104747534 -0.068732955
-0.24330053 -0.027293535 0.13439189 -0.08734584 0.23168612 0.06705305 0.018160747 0.03846008
0.016061919 0.15099415 -0.17197381 -0.20490155 0.2012608 0.17217277 0.05708018 -0.21602331
0.02121603 -0.011861682 0.022963494 -0.07507483 -0.101462506 0.21794969 -0.13137157 -0.034447033
0.21415825 0.1170756 0.05701098 0.1373562 0.058078952 -0.067547 -0.12182429 -0.08998192
-0.18967585 0.038643982 0.12885457 0.081019774 0.18237416 0.14426395 -0.019557774 -0.08739165
0.00294391 -0.053303186 -0.11343602 -0.18141207 0.1493598 0.05423412 0.17422292 -0.04916897
-0.043997034 -0.042539578 -0.05595796 0.10933501 0.03593613 0.085615925 0.035959806 -0.06009445
-0.11311503 0.052181743 0.12787747 -0.04747423 0.12614997 0.12005055 -0.12724093 0.17621918
-0.036878113 -0.09560054 -0.04798791 0.12971634 0.1450047 0.05708319 0.18358013 0.09004447
0.24346197 -0.1916055 -0.19843735 0.0998291 0.13163489 -0.10566906 -0.07986956 0.09872523
0.07847127 -0.16202046 0.10432508 0.017622305 -0.17418036 0.052830834 -0.059107166 0.025702514
0.20185398 0.06725204 -0.022469042 0.18064691 0.035366427 -0.052948527 -0.16654956 -0.19921063
-0.12927733 -0.080059126 0.12264249 -0.14713244 0.021779956 -0.000992514 -0.19321877 -0.16910322
-0.059516124 0.043692034 -0.15443113 -0.17405142 -0.10397785 -0.046739522 -0.09572607 -0.0477787
-0.058407333 0.003232435 -0.1997401 -0.06717086 0.25288066 -0.086623795 -0.1754079 0.20007715
-0.14841995 -0.0023148737 -0.30609927 0.10553186 -0.16196686 0.1637592 0.16450842 -0.19320057
-0.31588873 -0.14015675 0.18713465 0.17117162 0.12413441 -0.049069732 0.07818335 -0.12027571
0.07064275 -0.19808817 0.014180884 0.1246889 -0.2316637 0.064732805 -0.29745907 -0.10999735
0.01214935 -0.054092858 -0.15486483 0.102974206 -0.065668724 -0.14053313 -0.3364449 0.16348064
0.09954099 0.21194886 -0.019969322 -0.11140986 -0.0959882 -0.11926352 0.030246168 -0.1482021
0.25003648 0.039570626 0.009285768 -0.22134769 -0.08046615 0.15991786 -0.11399653 -0.19498439
0.026874123 -0.0058432026 0.0045675226 -0.06659285 -0.20935251 0.10258663 -0.0012496209 0.045973554
0.16322555 -0.041614663 0.07860675 0.023980523 0.02571574 0.20318946 -0.3318557 0.18795262
0.06372237 -0.20706242 -0.23675177 0.20110874 0.06461508 -0.26075298 0.015462784 -0.0045685093

baseModel.mlp2.layers.2.bias f4 [64]
00000000: 9c0a b23d c9df 313c 460c 34bd bd7d a5bd
00000010: 1120 2ebe cbfc a8bd c194 15bd c710 95bc
00000020: 22da 58be 8bfe 4cbe 00eb 253e c6b6 0bbe
00000030: 3fd2 633d c36c 4dbe 74d8 2bbe c838 b83d
00000040: 3435 f23d 5751 0ebe f4db b9bd fd6a 103e
00000050: a316 ad3c 01a3 a13d 3659 d0bd 29a7 c13d
00000060: bb02 02be 06dd 3cbe 56c7 08be 36a2 5c3e
00000070: d116 94bd 38d2 be3d 76c3 d6bb 6726 78bd
00000080: 4573 b5bd 66bc 99bd f93a febd 4544 b73d
00000090: b3e2 6d3e 67dc d3bd f5d2 afbb c20f 923d
000000a0: fe9c 223c 466f 3abd 8119 db3c b29c 0a3e
000000b0: 9571 623e 0bac c7bd 8069 f63c f800 df3d
000000c0: 5850 643c 47b6 4cbd 5637 abbb 07f0 d53d
000000d0: 5ebf ffbd f975 19be f843 2cbd 4fa1 353d
000000e0: 1f2c e4bd c24e a5bc 7e88 523e e15c 0dbe
000000f0: 7a46 1bbd 5ac6 ca3d 1675 4dbd 780b 26be
0.0869343 0.010856577 -0.043957017 -0.08080623 -0.1700442 -0.082513414 -0.036518816 -0.018196477
-0.21176961 -0.20018975 0.16202927 -0.13643941 0.05562043 -0.2006102 -0.16781789 0.08995205
0.11826554 -0.13898216 -0.09075156 0.14103313 0.021128958 0.07892419 -0.10173266 0.094557114
-0.12696354 -0.18443689 -0.1335729 0.21546254 -0.072309144 0.0931744 -0.0065540625 -0.0605835
-0.088598765 -0.07506637 -0.12413592 0.08948568 0.2323101 -0.10344773 -0.005365724 0.07131912
0.009925125 -0.045516275 0.02674556 0.13536337 0.2211364 -0.097496115 0.030079603 0.10888857
0.013935171 -0.04997852 -0.0052251024 0.10446172 -0.12487672 -0.14986409 -0.042057008 0.04434329
-0.11141228 -0.020179156 0.2055988 -0.13804962 -0.03790901 0.09901114 -0.05016049 -0.16215312

baseModel.mlp2.layers.4.weight f4 [32, 64]
00000000: 8e9c ea3d cca3 133e 812a 61bd 37bc c3bc
00000010: 21cd 0dbc a466 3d3e e664 8fbd 395d 20be
00000020: 15dd 7ebd c81f 8e3d c2f5 213d fc32 8e3d
00000030: da62 963d a1dd 29bd 3555 873d 7514 a8bd
00000040: e41f d33d 7b11 cabd 4ca1 033d 090b 253e
00000050: b857 26be a3d1 d83d 4712 583d 0103 73bd
00000060: 18d4 9fbd 9b43 24bd 231c 8ebc e013 57be
00000070: 576d c0bd 42c6 99bd 36a3 9cbc 07b9 87bd
00000080: dd50 483e dc07 ed3a 3f90 50bd 19b5 efbd
00000090: 29f1 0d3e 5fcc 823e 4d7c f5bd 1d05 0c3e
000000a0: f1e9 95bc d10e 22bc 2974 abbd 91c4 0c3e
000000b0: 530c 98bb 8a38 d2bb edc9 62bd 2e9f 12be
000000c0: 023d 85bc a890 993d fbd0 e43d 6a0d 8abc
000000d0: f1b3 25be c5bc 2e3e ae73 cd3b ac51 24be
000000e0: d445 4f3d b689 1cbd 4da9 69bd 68a7 99bc
000000f0: 80d6 a3bc 88e3 65bd f6cb 9c3d 9023 a1bd
00000100: 30c8 39be 3529 1fbe 2743 d83c 3eac d33b
00000110: 1faf 9ebd 41b1 02be c772 7a3d 930c 753d
00000120: 887a 353e ae80 123c 17a8 13be dfef f53d
00000130: 7fc3 8abd 51a9 cf3d 2059 be3d a3e3 bc3d
00000140: 3c30 30bc d6fb 223b 2ee1 3cbe 9b18 82be
00000150: 3c7e 4fbd ccdc 563d 8a1a e8bd 5648 763e
00000160: efd5 6a3e 9299 abbc ba30 dd3c 75f6 e23d
00000170: 3942 853d 59c8 81bd 87d4 793d b2c7 f9bc
00000180: 8e3a 56bc 30a7 04be cbe1 c43d f8fa 38bd
00000190: e5df a7bd de03 7bbe a2d9 17be a282 373b
000001a0: c19e c93c ce2b 1b3d 7e0c 973d d31f 2fbe
000001b0: d73a 10be 201e bebd a2b4 003e 0d9b 7ebe
000001c0: dcce ba3d 73ae 3d3e a3c4 743d 9166 073e
000001d0: eb8f 933d 077d bdbd 337f 9cbd 3731 ffbd
000001e0: e3cc 9fbd 0eab 4a3e dda0 863e dfeb 85be
000001f0: 4747 cebc cb0c 0b3e 8b56 a7bd 816d 0c3e
00000200: c1f0 153e 21b0 e03d 128c 0e3e 3707 cfbd
00000210: 3fa8 26bd efe7 31bc fb69 d0bd cefd b83d
00000220: 6297 c73d 3d27 35bd dc6c 1bbd 01a3 debd
00000230: bf0d f5bc 6e92 be3c eed1 9c3d cd2d 69bc
00000240: a87c 413c baf0 44bd b4d5 1bbe 21d2 363e
00000250: 0693 1b3d 44c3 123d 0d6a 713e e591 a5bd
00000260: ea2e 41bd 2fd3 47bd 9ea2 0bbd 2f6b 6ebd
00000270: 416b 23bd 04f3 d0bc c019 6b3c d262 2dbc
00000280: e328 37be b73f c3bc 2a77 13bd 1329 9ebe
00000290: b335 953b 94a4 9cbd b265 e93d 48c4 02be
000002a0: 490c 8dbd b54b 27be a3fb 3b3d 71d3 813d
000002b0: c8aa 13be bf83 ff3d b5c5 e83d e01d ea3c
000002c0: 2f4d 25be f51f 553d 8006 70be de0d 883d
000002d0: 2750 c63d b43a c53c dfcb 303d bc8f 1f3d
000002e0: 0d0f c3bd 2a4b b73d 6e3e 13bd dc7e 7b3e
000002f0: 9e2d 09bc 92cc a3bd ac16 acbd 8349 e73c
00000300: ae5d 243d 37b8 24bd 71d7 6b3c 32a6 8fbd
00000310: 591e f9bd 3535 2b3c 7020 6a3d b5e0 be3d
00000320: 8bf3 fb3d d8c9 a93d 3112 aa3d a89f a1bd
00000330: c07f 2639 16fd 963d aa6c 14bd 5aec 0e3e
00000340: ef21 1b3d a3f1 703d 85f3 f8bd a72b 7bbc
00000350: 9aa3 47bd 33ee 963d f85e 71be 26c9 833e
00000360: 55c0 c83d cf18 3b3e b9e2 e7bd fb8e 223d
00000370: efeb 503e af62 023d 31bd ed3d 88d7 29be
00000380: 0d49 d9bd 11cd 1cbe da86 bc3d aba5 b1bd
00000390: 1b3e abbd 655e 9ebe fa40 27bd 20a2 9b3d
000003a0: c1a3 d7bc 9053 c63d 0e4e 1a3e e8da 22bc
000003b0: 2203 63be 9883 16be 5c68 113e 76df 93bd
000003c0: d795 52bd b815 6b3a 70c0 ab3c b6e1 e63c
000003d0: 4523 3e3e d5e4 4bbe 3162 093d e911 b93c
000003e0: de8f 19bd c6f0 2a3e e57f 783e c4fa 38be
000003f0: 4816 c4bd 3167 d33d de5d 9cbc 760a f33d
0.11455642 0.14417952 -0.054972176 -0.023893459 -0.008654864 0.18496186 -0.07001667 -0.15660562
-0.06222256 0.069396555 0.039541014 0.06943318 0.07343073 -0.041471127 0.06608049 -0.08207027
0.10308817 -0.098666154 0.032136247 0.16117491 -0.162444 0.1058686 0.052751806 -0.059329037
-0.078041255 -0.040103536 -0.017347401 -0.21003675 -0.09395855 -0.07508518 -0.019120794 -0.06627088
0.19562097 0.0018084007 -0.050918814 -0.117044635 0.13861527 0.25546548 -0.11986599 0.13673826
-0.018300029 -0.009891228 -0.08371765 0.13746859 -0.004640141 -0.0064154314 -0.055368353 -0.14318535
-0.016264442 0.07498294 0.11172672 -0.0168521 -0.16181923 0.17064197 0.0062698936 -0.1604678
0.050603703 -0.03821727 -0.057046223 -0.018756583 -0.019999743 -0.056125194 0.0765609 -0.07868111
-0.18142772 -0.15543063 0.026399208 0.006459742 -0.077482454 -0.1276293 0.061144616 0.059826445
0.17722523 0.008941812 -0.1441959 0.120086424 -0.06775569 0.101397164 0.09294343 0.09223106
-0.0107536875 0.0024869344 -0.18445274 -0.25409397 -0.050657496 0.052456662 -0.11333187 0.24051031
0.22933172 -0.020947251 0.027000774 0.11082164 0.065067716 -0.063370414 0.060993697 -0.03049073
-0.013075484 -0.12954402 0.09613379 -0.045161217 -0.08197001 -0.24513194 -0.14829114 0.0028001447
0.024611833 0.037883572 0.073754296 -0.17101984 -0.14084946 -0.0928309 0.12568906 -0.24863835
0.091214865 0.18523578 0.05975784 0.1322272 0.072051845 -0.09252363 -0.07641449 -0.12460559
-0.07802751 0.19791815 0.26294604 -0.26156518 -0.025180472 0.13579099 -0.08170804 0.13713647
0.14642622 0.10971094 0.1392062 -0.10108798 -0.040687796 -0.01085852 -0.10176464 0.090327844
0.09745671 -0.044226874 -0.037945613 -0.10870934 -0.029913781 0.023263182 0.076572284 -0.014232111
0.0118095055 -0.048081137 -0.1521824 0.17853595 0.03798201 0.03583075 0.23575611 -0.08084468
-0.04716388 -0.048785385 -0.03409063 -0.058207687 -0.039897207 -0.025506504 0.014349401 -0.010582643
-0.17886691 -0.023834093 -0.036002316 -0.30890712 0.0045535206 -0.07648578 0.1139635 -0.12770188
-0.06887109 -0.16337474 0.045894276 0.063391574 -0.14420617 0.124763004 0.113658346 0.028578699
-0.16142724 0.05203243 -0.2343998 0.0664327 0.096832566 0.024075843 0.043163177 0.038955435
-0.09524355 0.08949883 -0.03594821 0.24560112 -0.008372692 -0.07998003 -0.08402762 0.028233295
0.040128402 -0.040214743 0.014394627 -0.07014121 -0.121639915 0.010449697 0.05715984 0.09320203
0.123023115 0.08290452 0.08304251 -0.0789178 0.00015878584 0.07372491 -0.036236443 0.13957348
0.03787416 0.058824193 -0.12155823 -0.015330232 -0.048740007 0.07369652 -0.23571384 0.25739402
0.098023094 0.18271182 -0.11322541 0.039687138 0.20402502 0.031832393 0.11608351 -0.16586125
-0.106096365 -0.15312602 0.092054084 -0.08674177 -0.08361455 -0.30931392 -0.04083345 0.07599282
-0.026323201 0.09683907 0.15068838 -0.009939887 -0.22169164 -0.14698637 0.14199966 -0.07220356
-0.05141243 0.0008967775 0.020965785 0.0281838 0.18568142 -0.19911511 0.03354091 0.022591548
-0.037490718 0.1669341 0.24267538 -0.1806441 -0.09574562 0.103224166 -0.019087728 0.1186723

baseModel.mlp2.layers.4.bias f4 [32]
00000000: c1e4 413d ae0f d7bc 0528 a9bd 2dbb 863c
00000010: 36a8 9bbd 9a3c 8bbd 58ce e63d e323 3b3d
00000020: 2c8b 0dbe a031 6e3d 798a febd 6bd6 00be
00000030: c7a8 b0bd 6c10 fcbd ddd7 913d 3f89 4ebd
00000040: 227d a83d eced d83c 9130 c3bc 833c 51bd
00000050: 67b7 793d 8723 253e 85f7 ae3d 34e6 94bd
00000060: f1d3 40bc e322 0f3d ad06 ccbd d48e 263c
00000070: 9f42 1cbe 4614 bbbd ea94 51bd 1aad 573d
0.047337297 -0.026252594 -0.08259586 0.016446674 -0.07600443 -0.06798668 0.11269826 0.04568852
-0.13822621 0.058152795 -0.12428755 -0.12581794 -0.08625942 -0.1230782 0.07121251 -0.050423857
0.08226992 0.026480637 -0.02382687 -0.0510831 0.06096592 0.16126834 0.08543304 -0.0727047
-0.011769281 0.03494538 -0.09962211 0.010165889 -0.15259789 -0.09134726 -0.051167406 0.052655317

baseModel.mlp2.layers.6.weight f4 [2, 32]
00000000: 3ae7 083e 73fd 98bd 6a1c 983e 6ff6 22be
00000010: 59fc be3e b7fe 88be d953 653e d346 93be
00000020: 8e34 ac3e 1324 87bc 8fde 9fbe ff74 ab3e
00000030: a4e1 a03e b5e8 68bd 2e36 bf3e d264 58be
00000040: 1f78 533e e656 06be 03b8 363e bf32 9c3e
00000050: a86b bcbe db94 033e 67a3 a83e d0ab bd3e
00000060: 2fd7 b63e f41d 9fbe e2b9 96be 76d7 b7be
00000070: e1b7 0fbe 396a adbe e573 863e e64e 4b3e
00000080: bae6 c6bd d6b9 943e ba18 69be 1dda a63e
00000090: 90a0 94bd 9323 403e 6939 9bbe 196e 8c3e
000000a0: 277d 7ebe 11c4 8fbe 7bf7 673e 74d3 dfbd
000000b0: 5b06 d7bd 487a 8f3e cf55 49be 1e2b 583e
000000c0: b0a6 81be db13 473e 8f60 a1be b37c 2dbe
000000d0: 9968 ab3e a36e 7cbe 5e2c 09bd 9b5f 94bd
000000e0: 8563 92be 56be 993e 243b 1e3e 0862 a13e
000000f0: dbce 683e 574d 8b3e 75f9 70be eb98 1dbe
0.13369456 -0.074702166 0.29709178 -0.1591432 0.373019 -0.26756832 0.22395267 -0.28764972
0.33633846 -0.016496694 -0.31224486 0.33487698 0.3142215 -0.05686255 0.37346023 -0.2113221
0.20651291 -0.13119087 0.17843632 0.30507466 -0.36800885 0.12849753 0.32937166 0.37045145
0.35711047 -0.3107754 -0.29438692 -0.3590657 -0.14034988 -0.33870104 0.26260296 0.19854316
-0.09711976 0.29048032 -0.22763339 0.32588282 -0.07257187 0.1876357 -0.30317238 0.27427748
-0.2485243 -0.28079274 0.22653 -0.10929003 -0.10499259 0.2802298 -0.1966164 0.21110198
-0.25322485 0.19441168 -0.3151898 -0.169421 0.3347824 -0.2465158 -0.033489577 -0.07244798
-0.28591552 0.30028027 0.15452248 0.31520104 0.22735159 0.27207443 -0.2353266 -0.15390365

baseModel.mlp2.layers.6.bias f4 [2]
00000000: aec0 57bd 31a3 2c3d
-0.052673988 0.04214782
